…
I0708 16:54:04.170393 26088 net.cpp:49] Initializing net from parameters: 
state {
  phase: TRAIN
}
layer {
  name: "cur_im"
  type: "Python"
  top: "cur_im"
  top: "masked_im"
  top: "next_im"
  top: "label"
  python_param {
    module: "coco_transformed_datalayers_prefetch"
    layer: "CocoTransformedDataLayerPrefetch"
    param_str: "{\'num_threads\': 2, \'data_dir\': \'/home/amir/coco\', \'noisy_mask\': True, \'im_shape\': (384, 384), \'batch_size\': 6, \'max_queue_size\': 8, \'split\': \'training\', \'mean\': (0.48501961, 0.45795686, 0.40760392)}"
  }
}
layer {
  name: "conv1_1n"
  type: "Convolution"
  bottom: "next_im"
  top: "conv1_1n"
  param {
    name: "conv1_1_w"
    lr_mult: 1
    decay_mult: 1
  }
  param {
    name: "conv1_1_b"
    lr_mult: 2
    decay_mult: 0
  }
  convolution_param {
    num_output: 64
    pad: 101
    kernel_size: 3
  }
}
layer {
  name: "relu1_1n"
  type: "ReLU"
  bottom: "conv1_1n"
  top: "conv1_1n"
}
layer {
  name: "conv1_2n"
  type: "Convolution"
  bottom: "conv1_1n"
  top: "conv1_2n"
  param {
    name: "conv1_2_w"
    lr_mult: 1
    decay_mult: 1
  }
  param {
    name: "conv1_2_b"
    lr_mult: 2
    decay_mult: 0
  }
  convolution_param {
    num_output: 64
    pad: 1
    kernel_size: 3
  }
}
layer {
  name: "relu1_2n"
  type: "ReLU"
  bottom: "conv1_2n"
  top: "conv1_2n"
}
layer {
  name: "pool1n"
  type: "Pooling"
  bottom: "conv1_2n"
  top: "pool1n"
  pooling_param {
    pool: MAX
    kernel_size: 2
    stride: 2
  }
}
layer {
  name: "conv2_1n"
  type: "Convolution"
  bottom: "pool1n"
  top: "conv2_1n"
  param {
    name: "conv2_1_w"
    lr_mult: 1
    decay_mult: 1
  }
  param {
    name: "conv2_1_b"
    lr_mult: 2
    decay_mult: 0
  }
  convolution_param {
    num_output: 128
    pad: 1
    kernel_size: 3
  }
}
layer {
  name: "relu2_1n"
  type: "ReLU"
  bottom: "conv2_1n"
  top: "conv2_1n"
}
layer {
  name: "conv2_2n"
  type: "Convolution"
  bottom: "conv2_1n"
  top: "conv2_2n"
  param {
    name: "conv2_2_w"
    lr_mult: 1
    decay_mult: 1
  }
  param {
    name: "conv2_2_b"
    lr_mult: 2
    decay_mult: 0
  }
  convolution_param {
    num_output: 128
    pad: 1
    kernel_size: 3
  }
}
layer {
  name: "relu2_2n"
  type: "ReLU"
  bottom: "conv2_2n"
  top: "conv2_2n"
}
layer {
  name: "pool2n"
  type: "Pooling"
  bottom: "conv2_2n"
  top: "pool2n"
  pooling_param {
    pool: MAX
    kernel_size: 2
    stride: 2
  }
}
layer {
  name: "conv3_1n"
  type: "Convolution"
  bottom: "pool2n"
  top: "conv3_1n"
  param {
    name: "conv3_1_w"
    lr_mult: 1
    decay_mult: 1
  }
  param {
    name: "conv3_1_b"
    lr_mult: 2
    decay_mult: 0
  }
  convolution_param {
    num_output: 256
    pad: 1
    kernel_size: 3
  }
}
layer {
  name: "relu3_1n"
  type: "ReLU"
  bottom: "conv3_1n"
  top: "conv3_1n"
}
layer {
  name: "conv3_2n"
  type: "Convolution"
  bottom: "conv3_1n"
  top: "conv3_2n"
  param {
    name: "conv3_2_w"
    lr_mult: 1
    decay_mult: 1
  }
  param {
    name: "conv3_2_b"
    lr_mult: 2
    decay_mult: 0
  }
  convolution_param {
    num_output: 256
    pad: 1
    kernel_size: 3
  }
}
layer {
  name: "relu3_2n"
  type: "ReLU"
  bottom: "conv3_2n"
  top: "conv3_2n"
}
layer {
  name: "conv3_3n"
  type: "Convolution"
  bottom: "conv3_2n"
  top: "conv3_3n"
  param {
    name: "conv3_3_w"
    lr_mult: 1
    decay_mult: 1
  }
  param {
    name: "conv3_3_b"
    lr_mult: 2
    decay_mult: 0
  }
  convolution_param {
    num_output: 256
    pad: 1
    kernel_size: 3
  }
}
layer {
  name: "relu3_3n"
  type: "ReLU"
  bottom: "conv3_3n"
  top: "conv3_3n"
}
layer {
  name: "pool3n"
  type: "Pooling"
  bottom: "conv3_3n"
  top: "pool3n"
  pooling_param {
    pool: MAX
    kernel_size: 2
    stride: 2
  }
}
layer {
  name: "conv4_1n"
  type: "Convolution"
  bottom: "pool3n"
  top: "conv4_1n"
  param {
    name: "conv4_1_w"
    lr_mult: 1
    decay_mult: 1
  }
  param {
    name: "conv4_1_b"
    lr_mult: 2
    decay_mult: 0
  }
  convolution_param {
    num_output: 512
    pad: 1
    kernel_size: 3
  }
}
layer {
  name: "relu4_1n"
  type: "ReLU"
  bottom: "conv4_1n"
  top: "conv4_1n"
}
layer {
  name: "conv4_2n"
  type: "Convolution"
  bottom: "conv4_1n"
  top: "conv4_2n"
  param {
    name: "conv4_2_w"
    lr_mult: 1
    decay_mult: 1
  }
  param {
    name: "conv4_2_b"
    lr_mult: 2
    decay_mult: 0
  }
  convolution_param {
    num_output: 512
    pad: 1
    kernel_size: 3
  }
}
layer {
  name: "relu4_2n"
  type: "ReLU"
  bottom: "conv4_2n"
  top: "conv4_2n"
}
layer {
  name: "conv4_3n"
  type: "Convolution"
  bottom: "conv4_2n"
  top: "conv4_3n"
  param {
    name: "conv4_3_w"
    lr_mult: 1
    decay_mult: 1
  }
  param {
    name: "conv4_3_b"
    lr_mult: 2
    decay_mult: 0
  }
  convolution_param {
    num_output: 512
    pad: 1
    kernel_size: 3
  }
}
layer {
  name: "relu4_3n"
  type: "ReLU"
  bottom: "conv4_3n"
  top: "conv4_3n"
}
layer {
  name: "pool4n"
  type: "Pooling"
  bottom: "conv4_3n"
  top: "pool4n"
  pooling_param {
    pool: MAX
    kernel_size: 2
    stride: 2
  }
}
layer {
  name: "conv5_1n"
  type: "Convolution"
  bottom: "pool4n"
  top: "conv5_1n"
  param {
    name: "conv5_1_w"
    lr_mult: 1
    decay_mult: 1
  }
  param {
    name: "conv5_1_b"
    lr_mult: 2
    decay_mult: 0
  }
  convolution_param {
    num_output: 512
    pad: 1
    kernel_size: 3
  }
}
layer {
  name: "relu5_1n"
  type: "ReLU"
  bottom: "conv5_1n"
  top: "conv5_1n"
}
layer {
  name: "conv5_2n"
  type: "Convolution"
  bottom: "conv5_1n"
  top: "conv5_2n"
  param {
    name: "conv5_2_w"
    lr_mult: 1
    decay_mult: 1
  }
  param {
    name: "conv5_2_b"
    lr_mult: 2
    decay_mult: 0
  }
  convolution_param {
    num_output: 512
    pad: 1
    kernel_size: 3
  }
}
layer {
  name: "relu5_2n"
  type: "ReLU"
  bottom: "conv5_2n"
  top: "conv5_2n"
}
layer {
  name: "conv5_3n"
  type: "Convolution"
  bottom: "conv5_2n"
  top: "conv5_3n"
  param {
    name: "conv5_3_w"
    lr_mult: 1
    decay_mult: 1
  }
  param {
    name: "conv5_3_b"
    lr_mult: 2
    decay_mult: 0
  }
  convolution_param {
    num_output: 512
    pad: 1
    kernel_size: 3
  }
}
layer {
  name: "relu5_3n"
  type: "ReLU"
  bottom: "conv5_3n"
  top: "conv5_3n"
}
layer {
  name: "pool5n"
  type: "Pooling"
  bottom: "conv5_3n"
  top: "pool5n"
  pooling_param {
    pool: MAX
    kernel_size: 2
    stride: 2
  }
}
layer {
  name: "conv1_1m"
  type: "Convolution"
  bottom: "masked_im"
  top: "conv1_1m"
  param {
    name: "conv1_1_w"
    lr_mult: 1
    decay_mult: 1
  }
  param {
    name: "conv1_1_b"
    lr_mult: 2
    decay_mult: 0
  }
  convolution_param {
    num_output: 64
    pad: 101
    kernel_size: 3
  }
}
layer {
  name: "relu1_1m"
  type: "ReLU"
  bottom: "conv1_1m"
  top: "conv1_1m"
}
layer {
  name: "conv1_2m"
  type: "Convolution"
  bottom: "conv1_1m"
  top: "conv1_2m"
  param {
    name: "conv1_2_w"
    lr_mult: 1
    decay_mult: 1
  }
  param {
    name: "conv1_2_b"
    lr_mult: 2
    decay_mult: 0
  }
  convolution_param {
    num_output: 64
    pad: 1
    kernel_size: 3
  }
}
layer {
  name: "relu1_2m"
  type: "ReLU"
  bottom: "conv1_2m"
  top: "conv1_2m"
}
layer {
  name: "pool1m"
  type: "Pooling"
  bottom: "conv1_2m"
  top: "pool1m"
  pooling_param {
    pool: MAX
    kernel_size: 2
    stride: 2
  }
}
layer {
  name: "conv2_1m"
  type: "Convolution"
  bottom: "pool1m"
  top: "conv2_1m"
  param {
    name: "conv2_1_w"
    lr_mult: 1
    decay_mult: 1
  }
  param {
    name: "conv2_1_b"
    lr_mult: 2
    decay_mult: 0
  }
  convolution_param {
    num_output: 128
    pad: 1
    kernel_size: 3
  }
}
layer {
  name: "relu2_1m"
  type: "ReLU"
  bottom: "conv2_1m"
  top: "conv2_1m"
}
layer {
  name: "conv2_2m"
  type: "Convolution"
  bottom: "conv2_1m"
  top: "conv2_2m"
  param {
    name: "conv2_2_w"
    lr_mult: 1
    decay_mult: 1
  }
  param {
    name: "conv2_2_b"
    lr_mult: 2
    decay_mult: 0
  }
  convolution_param {
    num_output: 128
    pad: 1
    kernel_size: 3
  }
}
layer {
  name: "relu2_2m"
  type: "ReLU"
  bottom: "conv2_2m"
  top: "conv2_2m"
}
layer {
  name: "pool2m"
  type: "Pooling"
  bottom: "conv2_2m"
  top: "pool2m"
  pooling_param {
    pool: MAX
    kernel_size: 2
    stride: 2
  }
}
layer {
  name: "conv3_1m"
  type: "Convolution"
  bottom: "pool2m"
  top: "conv3_1m"
  param {
    name: "conv3_1_w"
    lr_mult: 1
    decay_mult: 1
  }
  param {
    name: "conv3_1_b"
    lr_mult: 2
    decay_mult: 0
  }
  convolution_param {
    num_output: 256
    pad: 1
    kernel_size: 3
  }
}
layer {
  name: "relu3_1m"
  type: "ReLU"
  bottom: "conv3_1m"
  top: "conv3_1m"
}
layer {
  name: "conv3_2m"
  type: "Convolution"
  bottom: "conv3_1m"
  top: "conv3_2m"
  param {
    name: "conv3_2_w"
    lr_mult: 1
    decay_mult: 1
  }
  param {
    name: "conv3_2_b"
    lr_mult: 2
    decay_mult: 0
  }
  convolution_param {
    num_output: 256
    pad: 1
    kernel_size: 3
  }
}
layer {
  name: "relu3_2m"
  type: "ReLU"
  bottom: "conv3_2m"
  top: "conv3_2m"
}
layer {
  name: "conv3_3m"
  type: "Convolution"
  bottom: "conv3_2m"
  top: "conv3_3m"
  param {
    name: "conv3_3_w"
    lr_mult: 1
    decay_mult: 1
  }
  param {
    name: "conv3_3_b"
    lr_mult: 2
    decay_mult: 0
  }
  convolution_param {
    num_output: 256
    pad: 1
    kernel_size: 3
  }
}
layer {
  name: "relu3_3m"
  type: "ReLU"
  bottom: "conv3_3m"
  top: "conv3_3m"
}
layer {
  name: "pool3m"
  type: "Pooling"
  bottom: "conv3_3m"
  top: "pool3m"
  pooling_param {
    pool: MAX
    kernel_size: 2
    stride: 2
  }
}
layer {
  name: "conv4_1m"
  type: "Convolution"
  bottom: "pool3m"
  top: "conv4_1m"
  param {
    name: "conv4_1_w"
    lr_mult: 1
    decay_mult: 1
  }
  param {
    name: "conv4_1_b"
    lr_mult: 2
    decay_mult: 0
  }
  convolution_param {
    num_output: 512
    pad: 1
    kernel_size: 3
  }
}
layer {
  name: "relu4_1m"
  type: "ReLU"
  bottom: "conv4_1m"
  top: "conv4_1m"
}
layer {
  name: "conv4_2m"
  type: "Convolution"
  bottom: "conv4_1m"
  top: "conv4_2m"
  param {
    name: "conv4_2_w"
    lr_mult: 1
    decay_mult: 1
  }
  param {
    name: "conv4_2_b"
    lr_mult: 2
    decay_mult: 0
  }
  convolution_param {
    num_output: 512
    pad: 1
    kernel_size: 3
  }
}
layer {
  name: "relu4_2m"
  type: "ReLU"
  bottom: "conv4_2m"
  top: "conv4_2m"
}
layer {
  name: "conv4_3m"
  type: "Convolution"
  bottom: "conv4_2m"
  top: "conv4_3m"
  param {
    name: "conv4_3_w"
    lr_mult: 1
    decay_mult: 1
  }
  param {
    name: "conv4_3_b"
    lr_mult: 2
    decay_mult: 0
  }
  convolution_param {
    num_output: 512
    pad: 1
    kernel_size: 3
  }
}
layer {
  name: "relu4_3m"
  type: "ReLU"
  bottom: "conv4_3m"
  top: "conv4_3m"
}
layer {
  name: "pool4m"
  type: "Pooling"
  bottom: "conv4_3m"
  top: "pool4m"
  pooling_param {
    pool: MAX
    kernel_size: 2
    stride: 2
  }
}
layer {
  name: "conv5_1m"
  type: "Convolution"
  bottom: "pool4m"
  top: "conv5_1m"
  param {
    name: "conv5_1_w"
    lr_mult: 1
    decay_mult: 1
  }
  param {
    name: "conv5_1_b"
    lr_mult: 2
    decay_mult: 0
  }
  convolution_param {
    num_output: 512
    pad: 1
    kernel_size: 3
  }
}
layer {
  name: "relu5_1m"
  type: "ReLU"
  bottom: "conv5_1m"
  top: "conv5_1m"
}
layer {
  name: "conv5_2m"
  type: "Convolution"
  bottom: "conv5_1m"
  top: "conv5_2m"
  param {
    name: "conv5_2_w"
    lr_mult: 1
    decay_mult: 1
  }
  param {
    name: "conv5_2_b"
    lr_mult: 2
    decay_mult: 0
  }
  convolution_param {
    num_output: 512
    pad: 1
    kernel_size: 3
  }
}
layer {
  name: "relu5_2m"
  type: "ReLU"
  bottom: "conv5_2m"
  top: "conv5_2m"
}
layer {
  name: "conv5_3m"
  type: "Convolution"
  bottom: "conv5_2m"
  top: "conv5_3m"
  param {
    name: "conv5_3_w"
    lr_mult: 1
    decay_mult: 1
  }
  param {
    name: "conv5_3_b"
    lr_mult: 2
    decay_mult: 0
  }
  convolution_param {
    num_output: 512
    kernel_size: 3
    pad_h: 7
    pad_w: 7
  }
}
layer {
  name: "relu5_3m"
  type: "ReLU"
  bottom: "conv5_3m"
  top: "conv5_3m"
}
layer {
  name: "pool5m"
  type: "Pooling"
  bottom: "conv5_3m"
  top: "pool5m"
  pooling_param {
    pool: MAX
    kernel_size: 2
    stride: 2
  }
}
layer {
  name: "silence_cur"
  type: "Silence"
  bottom: "cur_im"
}
layer {
  name: "concat1"
  type: "Concat"
  bottom: "pool5m"
  bottom: "pool5n"
  top: "concat1"
}
layer {
  name: "fc6"
  type: "Convolution"
  bottom: "concat1"
  top: "fc6"
  param {
    lr_mult: 1
    decay_mult: 1
  }
  param {
    lr_mult: 2
    decay_mult: 0
  }
  convolution_param {
    num_output: 4096
    kernel_size: 7
  }
}
layer {
  name: "relu6"
  type: "ReLU"
  bottom: "fc6"
  top: "fc6"
}
layer {
  name: "drop6"
  type: "Dropout"
  bottom: "fc6"
  top: "fc6"
  dropout_param {
    dropout_ratio: 0.5
  }
}
layer {
  name: "fc7"
  type: "Convolution"
  bottom: "fc6"
  top: "fc7"
  param {
    lr_mult: 1
    decay_mult: 1
  }
  param {
    lr_mult: 2
    decay_mult: 0
  }
  convolution_param {
    num_output: 4096
    kernel_size: 1
  }
}
layer {
  name: "relu7"
  type: "ReLU"
  bottom: "fc7"
  top: "fc7"
}
layer {
  name: "drop7"
  type: "Dropout"
  bottom: "fc7"
  top: "fc7"
  dropout_param {
    dropout_ratio: 0.5
  }
}
layer {
  name: "score_fc"
  type: "Convolution"
  bottom: "fc7"
  top: "score_fc"
  param {
    lr_mult: 1
    decay_mult: 1
  }
  param {
    lr_mult: 2
    decay_mult: 0
  }
  convolution_param {
    num_output: 21
    kernel_size: 1
  }
}
layer {
  name: "upscore2"
  type: "Deconvolution"
  bottom: "score_fc"
  top: "upscore2"
  param {
    lr_mult: 0
  }
  convolution_param {
    num_output: 21
    kernel_size: 4
    stride: 2
  }
}
layer {
  name: "score_pool4"
  type: "Convolution"
  bottom: "pool4n"
  top: "score_pool4"
  param {
    lr_mult: 1
    decay_mult: 1
  }
  param {
    lr_mult: 2
    decay_mult: 0
  }
  convolution_param {
    num_output: 21
    kernel_size: 1
  }
}
layer {
  name: "score_pool4c"
  type: "Crop"
  bottom: "score_pool4"
  bottom: "upscore2"
  top: "score_pool4c"
  crop_param {
    axis: 2
    offset: 5
  }
}
layer {
  name: "fuse_pool4"
  type: "Eltwise"
  bottom: "upscore2"
  bottom: "score_pool4c"
  top: "fuse_pool4"
  eltwise_param {
    operation: SUM
  }
}
layer {
  name: "upscore_pool4"
  type: "Deconvolution"
  bottom: "fuse_pool4"
  top: "upscore_pool4"
  param {
    lr_mult: 0
  }
  convolution_param {
    num_output: 21
    bias_term: false
    kernel_size: 4
    stride: 2
  }
}
layer {
  name: "score_pool3"
  type: "Convolution"
  bottom: "pool3n"
  top: "score_pool3"
  param {
    lr_mult: 1
    decay_mult: 1
  }
  param {
    lr_mult: 2
    decay_mult: 0
  }
  convolution_param {
    num_output: 21
    kernel_size: 1
  }
}
layer {
  name: "Crop1"
  type: "Crop"
  bottom: "score_pool3"
  bottom: "upscore_pool4"
  top: "Crop1"
  crop_param {
    axis: 2
    offset: 9
  }
}
layer {
  name: "fuse_pool3"
  type: "Eltwise"
  bottom: "upscore_pool4"
  bottom: "Crop1"
  top: "fuse_pool3"
  eltwise_param {
    operation: SUM
  }
}
layer {
  name: "upscore8"
  type: "Deconvolution"
  bottom: "fuse_pool3"
  top: "upscore8"
  param {
    lr_mult: 0
  }
  convolution_param {
    num_output: 21
    bias_term: false
    kernel_size: 16
    stride: 8
  }
}
layer {
  name: "score_pool3c"
  type: "Crop"
  bottom: "upscore8"
  bottom: "next_im"
  top: "score_pool3c"
  crop_param {
    axis: 2
    offset: 32
  }
}
layer {
  name: "score"
  type: "Convolution"
  bottom: "score_pool3c"
  top: "score"
  param {
    lr_mult: 10
    decay_mult: 1
  }
  param {
    lr_mult: 20
    decay_mult: 0
  }
  convolution_param {
    num_output: 2
    kernel_size: 1
  }
}
layer {
  name: "loss"
  type: "SoftmaxWithLoss"
  bottom: "score"
  bottom: "label"
  top: "loss"
  loss_param {
    ignore_label: 255
  }
}
I0708 16:54:04.170652 26088 layer_factory.hpp:77] Creating layer cur_im
/home/amir/davis/python/lib/davis/measures/t_stability.py:6: RuntimeWarning: to-Python converter for std::vector<bool, std::allocator<bool> > already registered; second conversion method ignored.
  from tstab import *
I0708 16:54:04.770828 26088 net.cpp:91] Creating Layer cur_im
I0708 16:54:04.770845 26088 net.cpp:399] cur_im -> cur_im
I0708 16:54:04.770881 26088 net.cpp:399] cur_im -> masked_im
I0708 16:54:04.770889 26088 net.cpp:399] cur_im -> next_im
I0708 16:54:04.770894 26088 net.cpp:399] cur_im -> label
loading annotations into memory...
Done (t=11.60s)
creating index...
index created!
I0708 16:54:19.415083 26088 net.cpp:141] Setting up cur_im
I0708 16:54:19.415119 26088 net.cpp:148] Top shape: 6 3 192 192 (663552)
I0708 16:54:19.415125 26088 net.cpp:148] Top shape: 6 3 192 192 (663552)
I0708 16:54:19.415130 26088 net.cpp:148] Top shape: 6 3 384 384 (2654208)
I0708 16:54:19.415133 26088 net.cpp:148] Top shape: 6 1 384 384 (884736)
I0708 16:54:19.415135 26088 net.cpp:156] Memory required for data: 19464192
I0708 16:54:19.415155 26088 layer_factory.hpp:77] Creating layer next_im_cur_im_2_split
I0708 16:54:19.415179 26088 net.cpp:91] Creating Layer next_im_cur_im_2_split
I0708 16:54:19.415182 26088 net.cpp:425] next_im_cur_im_2_split <- next_im
I0708 16:54:19.415211 26088 net.cpp:399] next_im_cur_im_2_split -> next_im_cur_im_2_split_0
I0708 16:54:19.415225 26088 net.cpp:399] next_im_cur_im_2_split -> next_im_cur_im_2_split_1
I0708 16:54:19.415267 26088 net.cpp:141] Setting up next_im_cur_im_2_split
I0708 16:54:19.415274 26088 net.cpp:148] Top shape: 6 3 384 384 (2654208)
I0708 16:54:19.415277 26088 net.cpp:148] Top shape: 6 3 384 384 (2654208)
I0708 16:54:19.415279 26088 net.cpp:156] Memory required for data: 40697856
I0708 16:54:19.415282 26088 layer_factory.hpp:77] Creating layer conv1_1n
I0708 16:54:19.415323 26088 net.cpp:91] Creating Layer conv1_1n
I0708 16:54:19.415328 26088 net.cpp:425] conv1_1n <- next_im_cur_im_2_split_0
I0708 16:54:19.415351 26088 net.cpp:399] conv1_1n -> conv1_1n
I0708 16:54:19.601542 26088 net.cpp:141] Setting up conv1_1n
I0708 16:54:19.601562 26088 net.cpp:148] Top shape: 6 64 584 584 (130965504)
I0708 16:54:19.601565 26088 net.cpp:156] Memory required for data: 564559872
I0708 16:54:19.601610 26088 layer_factory.hpp:77] Creating layer relu1_1n
I0708 16:54:19.601624 26088 net.cpp:91] Creating Layer relu1_1n
I0708 16:54:19.601631 26088 net.cpp:425] relu1_1n <- conv1_1n
I0708 16:54:19.601646 26088 net.cpp:386] relu1_1n -> conv1_1n (in-place)
I0708 16:54:19.601780 26088 net.cpp:141] Setting up relu1_1n
I0708 16:54:19.601786 26088 net.cpp:148] Top shape: 6 64 584 584 (130965504)
I0708 16:54:19.601788 26088 net.cpp:156] Memory required for data: 1088421888
I0708 16:54:19.601790 26088 layer_factory.hpp:77] Creating layer conv1_2n
I0708 16:54:19.601816 26088 net.cpp:91] Creating Layer conv1_2n
I0708 16:54:19.601819 26088 net.cpp:425] conv1_2n <- conv1_1n
I0708 16:54:19.601846 26088 net.cpp:399] conv1_2n -> conv1_2n
I0708 16:54:19.603402 26088 net.cpp:141] Setting up conv1_2n
I0708 16:54:19.603420 26088 net.cpp:148] Top shape: 6 64 584 584 (130965504)
I0708 16:54:19.603423 26088 net.cpp:156] Memory required for data: 1612283904
I0708 16:54:19.603436 26088 layer_factory.hpp:77] Creating layer relu1_2n
I0708 16:54:19.603453 26088 net.cpp:91] Creating Layer relu1_2n
I0708 16:54:19.603463 26088 net.cpp:425] relu1_2n <- conv1_2n
I0708 16:54:19.603483 26088 net.cpp:386] relu1_2n -> conv1_2n (in-place)
I0708 16:54:19.603719 26088 net.cpp:141] Setting up relu1_2n
I0708 16:54:19.603729 26088 net.cpp:148] Top shape: 6 64 584 584 (130965504)
I0708 16:54:19.603731 26088 net.cpp:156] Memory required for data: 2136145920
I0708 16:54:19.603736 26088 layer_factory.hpp:77] Creating layer pool1n
I0708 16:54:19.603766 26088 net.cpp:91] Creating Layer pool1n
I0708 16:54:19.603771 26088 net.cpp:425] pool1n <- conv1_2n
I0708 16:54:19.603790 26088 net.cpp:399] pool1n -> pool1n
I0708 16:54:19.603850 26088 net.cpp:141] Setting up pool1n
I0708 16:54:19.603857 26088 net.cpp:148] Top shape: 6 64 292 292 (32741376)
I0708 16:54:19.603862 26088 net.cpp:156] Memory required for data: 2267111424
I0708 16:54:19.603864 26088 layer_factory.hpp:77] Creating layer conv2_1n
I0708 16:54:19.603905 26088 net.cpp:91] Creating Layer conv2_1n
I0708 16:54:19.603910 26088 net.cpp:425] conv2_1n <- pool1n
I0708 16:54:19.603935 26088 net.cpp:399] conv2_1n -> conv2_1n
I0708 16:54:19.605425 26088 net.cpp:141] Setting up conv2_1n
I0708 16:54:19.605475 26088 net.cpp:148] Top shape: 6 128 292 292 (65482752)
I0708 16:54:19.605479 26088 net.cpp:156] Memory required for data: 2529042432
I0708 16:54:19.605504 26088 layer_factory.hpp:77] Creating layer relu2_1n
I0708 16:54:19.605532 26088 net.cpp:91] Creating Layer relu2_1n
I0708 16:54:19.605538 26088 net.cpp:425] relu2_1n <- conv2_1n
I0708 16:54:19.605556 26088 net.cpp:386] relu2_1n -> conv2_1n (in-place)
I0708 16:54:19.605705 26088 net.cpp:141] Setting up relu2_1n
I0708 16:54:19.605711 26088 net.cpp:148] Top shape: 6 128 292 292 (65482752)
I0708 16:54:19.605715 26088 net.cpp:156] Memory required for data: 2790973440
I0708 16:54:19.605718 26088 layer_factory.hpp:77] Creating layer conv2_2n
I0708 16:54:19.605749 26088 net.cpp:91] Creating Layer conv2_2n
I0708 16:54:19.605754 26088 net.cpp:425] conv2_2n <- conv2_1n
I0708 16:54:19.605780 26088 net.cpp:399] conv2_2n -> conv2_2n
I0708 16:54:19.607051 26088 net.cpp:141] Setting up conv2_2n
I0708 16:54:19.607065 26088 net.cpp:148] Top shape: 6 128 292 292 (65482752)
I0708 16:54:19.607069 26088 net.cpp:156] Memory required for data: 3052904448
I0708 16:54:19.607085 26088 layer_factory.hpp:77] Creating layer relu2_2n
I0708 16:54:19.607103 26088 net.cpp:91] Creating Layer relu2_2n
I0708 16:54:19.607108 26088 net.cpp:425] relu2_2n <- conv2_2n
I0708 16:54:19.607128 26088 net.cpp:386] relu2_2n -> conv2_2n (in-place)
I0708 16:54:19.607257 26088 net.cpp:141] Setting up relu2_2n
I0708 16:54:19.607265 26088 net.cpp:148] Top shape: 6 128 292 292 (65482752)
I0708 16:54:19.607269 26088 net.cpp:156] Memory required for data: 3314835456
I0708 16:54:19.607272 26088 layer_factory.hpp:77] Creating layer pool2n
I0708 16:54:19.607291 26088 net.cpp:91] Creating Layer pool2n
I0708 16:54:19.607295 26088 net.cpp:425] pool2n <- conv2_2n
I0708 16:54:19.607314 26088 net.cpp:399] pool2n -> pool2n
I0708 16:54:19.607357 26088 net.cpp:141] Setting up pool2n
I0708 16:54:19.607362 26088 net.cpp:148] Top shape: 6 128 146 146 (16370688)
I0708 16:54:19.607367 26088 net.cpp:156] Memory required for data: 3380318208
I0708 16:54:19.607369 26088 layer_factory.hpp:77] Creating layer conv3_1n
I0708 16:54:19.607395 26088 net.cpp:91] Creating Layer conv3_1n
I0708 16:54:19.607399 26088 net.cpp:425] conv3_1n <- pool2n
I0708 16:54:19.607432 26088 net.cpp:399] conv3_1n -> conv3_1n
I0708 16:54:19.608647 26088 net.cpp:141] Setting up conv3_1n
I0708 16:54:19.608659 26088 net.cpp:148] Top shape: 6 256 146 146 (32741376)
I0708 16:54:19.608661 26088 net.cpp:156] Memory required for data: 3511283712
I0708 16:54:19.608676 26088 layer_factory.hpp:77] Creating layer relu3_1n
I0708 16:54:19.608703 26088 net.cpp:91] Creating Layer relu3_1n
I0708 16:54:19.608708 26088 net.cpp:425] relu3_1n <- conv3_1n
I0708 16:54:19.608724 26088 net.cpp:386] relu3_1n -> conv3_1n (in-place)
I0708 16:54:19.608958 26088 net.cpp:141] Setting up relu3_1n
I0708 16:54:19.608968 26088 net.cpp:148] Top shape: 6 256 146 146 (32741376)
I0708 16:54:19.608971 26088 net.cpp:156] Memory required for data: 3642249216
I0708 16:54:19.608976 26088 layer_factory.hpp:77] Creating layer conv3_2n
I0708 16:54:19.609002 26088 net.cpp:91] Creating Layer conv3_2n
I0708 16:54:19.609007 26088 net.cpp:425] conv3_2n <- conv3_1n
I0708 16:54:19.609028 26088 net.cpp:399] conv3_2n -> conv3_2n
I0708 16:54:19.610385 26088 net.cpp:141] Setting up conv3_2n
I0708 16:54:19.610395 26088 net.cpp:148] Top shape: 6 256 146 146 (32741376)
I0708 16:54:19.610399 26088 net.cpp:156] Memory required for data: 3773214720
I0708 16:54:19.610409 26088 layer_factory.hpp:77] Creating layer relu3_2n
I0708 16:54:19.610424 26088 net.cpp:91] Creating Layer relu3_2n
I0708 16:54:19.610430 26088 net.cpp:425] relu3_2n <- conv3_2n
I0708 16:54:19.610446 26088 net.cpp:386] relu3_2n -> conv3_2n (in-place)
I0708 16:54:19.610572 26088 net.cpp:141] Setting up relu3_2n
I0708 16:54:19.610580 26088 net.cpp:148] Top shape: 6 256 146 146 (32741376)
I0708 16:54:19.610584 26088 net.cpp:156] Memory required for data: 3904180224
I0708 16:54:19.610586 26088 layer_factory.hpp:77] Creating layer conv3_3n
I0708 16:54:19.610623 26088 net.cpp:91] Creating Layer conv3_3n
I0708 16:54:19.610635 26088 net.cpp:425] conv3_3n <- conv3_2n
I0708 16:54:19.610656 26088 net.cpp:399] conv3_3n -> conv3_3n
I0708 16:54:19.612115 26088 net.cpp:141] Setting up conv3_3n
I0708 16:54:19.612140 26088 net.cpp:148] Top shape: 6 256 146 146 (32741376)
I0708 16:54:19.612146 26088 net.cpp:156] Memory required for data: 4035145728
I0708 16:54:19.612164 26088 layer_factory.hpp:77] Creating layer relu3_3n
I0708 16:54:19.612187 26088 net.cpp:91] Creating Layer relu3_3n
I0708 16:54:19.612192 26088 net.cpp:425] relu3_3n <- conv3_3n
I0708 16:54:19.612215 26088 net.cpp:386] relu3_3n -> conv3_3n (in-place)
I0708 16:54:19.613158 26088 net.cpp:141] Setting up relu3_3n
I0708 16:54:19.613210 26088 net.cpp:148] Top shape: 6 256 146 146 (32741376)
I0708 16:54:19.613225 26088 net.cpp:156] Memory required for data: 4166111232
I0708 16:54:19.613242 26088 layer_factory.hpp:77] Creating layer pool3n
I0708 16:54:19.613263 26088 net.cpp:91] Creating Layer pool3n
I0708 16:54:19.613276 26088 net.cpp:425] pool3n <- conv3_3n
I0708 16:54:19.613301 26088 net.cpp:399] pool3n -> pool3n
I0708 16:54:19.613366 26088 net.cpp:141] Setting up pool3n
I0708 16:54:19.613382 26088 net.cpp:148] Top shape: 6 256 73 73 (8185344)
I0708 16:54:19.613394 26088 net.cpp:156] Memory required for data: 4198852608
I0708 16:54:19.613405 26088 layer_factory.hpp:77] Creating layer pool3n_pool3n_0_split
I0708 16:54:19.613430 26088 net.cpp:91] Creating Layer pool3n_pool3n_0_split
I0708 16:54:19.613441 26088 net.cpp:425] pool3n_pool3n_0_split <- pool3n
I0708 16:54:19.613461 26088 net.cpp:399] pool3n_pool3n_0_split -> pool3n_pool3n_0_split_0
I0708 16:54:19.613482 26088 net.cpp:399] pool3n_pool3n_0_split -> pool3n_pool3n_0_split_1
I0708 16:54:19.613524 26088 net.cpp:141] Setting up pool3n_pool3n_0_split
I0708 16:54:19.613543 26088 net.cpp:148] Top shape: 6 256 73 73 (8185344)
I0708 16:54:19.613562 26088 net.cpp:148] Top shape: 6 256 73 73 (8185344)
I0708 16:54:19.613574 26088 net.cpp:156] Memory required for data: 4264335360
I0708 16:54:19.613586 26088 layer_factory.hpp:77] Creating layer conv4_1n
I0708 16:54:19.613605 26088 net.cpp:91] Creating Layer conv4_1n
I0708 16:54:19.613618 26088 net.cpp:425] conv4_1n <- pool3n_pool3n_0_split_0
I0708 16:54:19.613636 26088 net.cpp:399] conv4_1n -> conv4_1n
I0708 16:54:19.617204 26088 net.cpp:141] Setting up conv4_1n
I0708 16:54:19.617271 26088 net.cpp:148] Top shape: 6 512 73 73 (16370688)
I0708 16:54:19.617292 26088 net.cpp:156] Memory required for data: 4329818112
I0708 16:54:19.617307 26088 layer_factory.hpp:77] Creating layer relu4_1n
I0708 16:54:19.617326 26088 net.cpp:91] Creating Layer relu4_1n
I0708 16:54:19.617331 26088 net.cpp:425] relu4_1n <- conv4_1n
I0708 16:54:19.617343 26088 net.cpp:386] relu4_1n -> conv4_1n (in-place)
I0708 16:54:19.617583 26088 net.cpp:141] Setting up relu4_1n
I0708 16:54:19.617590 26088 net.cpp:148] Top shape: 6 512 73 73 (16370688)
I0708 16:54:19.617593 26088 net.cpp:156] Memory required for data: 4395300864
I0708 16:54:19.617594 26088 layer_factory.hpp:77] Creating layer conv4_2n
I0708 16:54:19.617616 26088 net.cpp:91] Creating Layer conv4_2n
I0708 16:54:19.617620 26088 net.cpp:425] conv4_2n <- conv4_1n
I0708 16:54:19.617650 26088 net.cpp:399] conv4_2n -> conv4_2n
I0708 16:54:19.621358 26088 net.cpp:141] Setting up conv4_2n
I0708 16:54:19.621389 26088 net.cpp:148] Top shape: 6 512 73 73 (16370688)
I0708 16:54:19.621393 26088 net.cpp:156] Memory required for data: 4460783616
I0708 16:54:19.621417 26088 layer_factory.hpp:77] Creating layer relu4_2n
I0708 16:54:19.621443 26088 net.cpp:91] Creating Layer relu4_2n
I0708 16:54:19.621448 26088 net.cpp:425] relu4_2n <- conv4_2n
I0708 16:54:19.621465 26088 net.cpp:386] relu4_2n -> conv4_2n (in-place)
I0708 16:54:19.621603 26088 net.cpp:141] Setting up relu4_2n
I0708 16:54:19.621610 26088 net.cpp:148] Top shape: 6 512 73 73 (16370688)
I0708 16:54:19.621613 26088 net.cpp:156] Memory required for data: 4526266368
I0708 16:54:19.621614 26088 layer_factory.hpp:77] Creating layer conv4_3n
I0708 16:54:19.621641 26088 net.cpp:91] Creating Layer conv4_3n
I0708 16:54:19.621655 26088 net.cpp:425] conv4_3n <- conv4_2n
I0708 16:54:19.621685 26088 net.cpp:399] conv4_3n -> conv4_3n
I0708 16:54:19.625591 26088 net.cpp:141] Setting up conv4_3n
I0708 16:54:19.625613 26088 net.cpp:148] Top shape: 6 512 73 73 (16370688)
I0708 16:54:19.625617 26088 net.cpp:156] Memory required for data: 4591749120
I0708 16:54:19.625629 26088 layer_factory.hpp:77] Creating layer relu4_3n
I0708 16:54:19.625656 26088 net.cpp:91] Creating Layer relu4_3n
I0708 16:54:19.625660 26088 net.cpp:425] relu4_3n <- conv4_3n
I0708 16:54:19.625679 26088 net.cpp:386] relu4_3n -> conv4_3n (in-place)
I0708 16:54:19.625808 26088 net.cpp:141] Setting up relu4_3n
I0708 16:54:19.625815 26088 net.cpp:148] Top shape: 6 512 73 73 (16370688)
I0708 16:54:19.625818 26088 net.cpp:156] Memory required for data: 4657231872
I0708 16:54:19.625819 26088 layer_factory.hpp:77] Creating layer pool4n
I0708 16:54:19.625831 26088 net.cpp:91] Creating Layer pool4n
I0708 16:54:19.625834 26088 net.cpp:425] pool4n <- conv4_3n
I0708 16:54:19.625849 26088 net.cpp:399] pool4n -> pool4n
I0708 16:54:19.625902 26088 net.cpp:141] Setting up pool4n
I0708 16:54:19.625906 26088 net.cpp:148] Top shape: 6 512 37 37 (4205568)
I0708 16:54:19.625908 26088 net.cpp:156] Memory required for data: 4674054144
I0708 16:54:19.625910 26088 layer_factory.hpp:77] Creating layer pool4n_pool4n_0_split
I0708 16:54:19.625921 26088 net.cpp:91] Creating Layer pool4n_pool4n_0_split
I0708 16:54:19.625922 26088 net.cpp:425] pool4n_pool4n_0_split <- pool4n
I0708 16:54:19.625941 26088 net.cpp:399] pool4n_pool4n_0_split -> pool4n_pool4n_0_split_0
I0708 16:54:19.625949 26088 net.cpp:399] pool4n_pool4n_0_split -> pool4n_pool4n_0_split_1
I0708 16:54:19.625978 26088 net.cpp:141] Setting up pool4n_pool4n_0_split
I0708 16:54:19.625982 26088 net.cpp:148] Top shape: 6 512 37 37 (4205568)
I0708 16:54:19.625984 26088 net.cpp:148] Top shape: 6 512 37 37 (4205568)
I0708 16:54:19.625985 26088 net.cpp:156] Memory required for data: 4707698688
I0708 16:54:19.625988 26088 layer_factory.hpp:77] Creating layer conv5_1n
I0708 16:54:19.626025 26088 net.cpp:91] Creating Layer conv5_1n
I0708 16:54:19.626029 26088 net.cpp:425] conv5_1n <- pool4n_pool4n_0_split_0
I0708 16:54:19.626049 26088 net.cpp:399] conv5_1n -> conv5_1n
I0708 16:54:19.630553 26088 net.cpp:141] Setting up conv5_1n
I0708 16:54:19.630581 26088 net.cpp:148] Top shape: 6 512 37 37 (4205568)
I0708 16:54:19.630586 26088 net.cpp:156] Memory required for data: 4724520960
I0708 16:54:19.630604 26088 layer_factory.hpp:77] Creating layer relu5_1n
I0708 16:54:19.630635 26088 net.cpp:91] Creating Layer relu5_1n
I0708 16:54:19.630642 26088 net.cpp:425] relu5_1n <- conv5_1n
I0708 16:54:19.630667 26088 net.cpp:386] relu5_1n -> conv5_1n (in-place)
I0708 16:54:19.631099 26088 net.cpp:141] Setting up relu5_1n
I0708 16:54:19.631114 26088 net.cpp:148] Top shape: 6 512 37 37 (4205568)
I0708 16:54:19.631116 26088 net.cpp:156] Memory required for data: 4741343232
I0708 16:54:19.631121 26088 layer_factory.hpp:77] Creating layer conv5_2n
I0708 16:54:19.631173 26088 net.cpp:91] Creating Layer conv5_2n
I0708 16:54:19.631180 26088 net.cpp:425] conv5_2n <- conv5_1n
I0708 16:54:19.631211 26088 net.cpp:399] conv5_2n -> conv5_2n
I0708 16:54:19.636809 26088 net.cpp:141] Setting up conv5_2n
I0708 16:54:19.636833 26088 net.cpp:148] Top shape: 6 512 37 37 (4205568)
I0708 16:54:19.636837 26088 net.cpp:156] Memory required for data: 4758165504
I0708 16:54:19.636850 26088 layer_factory.hpp:77] Creating layer relu5_2n
I0708 16:54:19.636870 26088 net.cpp:91] Creating Layer relu5_2n
I0708 16:54:19.636874 26088 net.cpp:425] relu5_2n <- conv5_2n
I0708 16:54:19.636904 26088 net.cpp:386] relu5_2n -> conv5_2n (in-place)
I0708 16:54:19.637038 26088 net.cpp:141] Setting up relu5_2n
I0708 16:54:19.637045 26088 net.cpp:148] Top shape: 6 512 37 37 (4205568)
I0708 16:54:19.637048 26088 net.cpp:156] Memory required for data: 4774987776
I0708 16:54:19.637050 26088 layer_factory.hpp:77] Creating layer conv5_3n
I0708 16:54:19.637081 26088 net.cpp:91] Creating Layer conv5_3n
I0708 16:54:19.637094 26088 net.cpp:425] conv5_3n <- conv5_2n
I0708 16:54:19.637117 26088 net.cpp:399] conv5_3n -> conv5_3n
I0708 16:54:19.641113 26088 net.cpp:141] Setting up conv5_3n
I0708 16:54:19.641137 26088 net.cpp:148] Top shape: 6 512 37 37 (4205568)
I0708 16:54:19.641140 26088 net.cpp:156] Memory required for data: 4791810048
I0708 16:54:19.641156 26088 layer_factory.hpp:77] Creating layer relu5_3n
I0708 16:54:19.641176 26088 net.cpp:91] Creating Layer relu5_3n
I0708 16:54:19.641182 26088 net.cpp:425] relu5_3n <- conv5_3n
I0708 16:54:19.641201 26088 net.cpp:386] relu5_3n -> conv5_3n (in-place)
I0708 16:54:19.641428 26088 net.cpp:141] Setting up relu5_3n
I0708 16:54:19.641435 26088 net.cpp:148] Top shape: 6 512 37 37 (4205568)
I0708 16:54:19.641438 26088 net.cpp:156] Memory required for data: 4808632320
I0708 16:54:19.641439 26088 layer_factory.hpp:77] Creating layer pool5n
I0708 16:54:19.641453 26088 net.cpp:91] Creating Layer pool5n
I0708 16:54:19.641456 26088 net.cpp:425] pool5n <- conv5_3n
I0708 16:54:19.641471 26088 net.cpp:399] pool5n -> pool5n
I0708 16:54:19.641518 26088 net.cpp:141] Setting up pool5n
I0708 16:54:19.641525 26088 net.cpp:148] Top shape: 6 512 19 19 (1108992)
I0708 16:54:19.641526 26088 net.cpp:156] Memory required for data: 4813068288
I0708 16:54:19.641528 26088 layer_factory.hpp:77] Creating layer conv1_1m
I0708 16:54:19.641563 26088 net.cpp:91] Creating Layer conv1_1m
I0708 16:54:19.641566 26088 net.cpp:425] conv1_1m <- masked_im
I0708 16:54:19.641590 26088 net.cpp:399] conv1_1m -> conv1_1m
I0708 16:54:19.642765 26088 net.cpp:141] Setting up conv1_1m
I0708 16:54:19.642773 26088 net.cpp:148] Top shape: 6 64 392 392 (59006976)
I0708 16:54:19.642776 26088 net.cpp:156] Memory required for data: 5049096192
I0708 16:54:19.642781 26088 net.cpp:484] Sharing parameters 'conv1_1_w' owned by layer 'conv1_1n', param index 0
I0708 16:54:19.642786 26088 net.cpp:484] Sharing parameters 'conv1_1_b' owned by layer 'conv1_1n', param index 1
I0708 16:54:19.642788 26088 layer_factory.hpp:77] Creating layer relu1_1m
I0708 16:54:19.642802 26088 net.cpp:91] Creating Layer relu1_1m
I0708 16:54:19.642805 26088 net.cpp:425] relu1_1m <- conv1_1m
I0708 16:54:19.642819 26088 net.cpp:386] relu1_1m -> conv1_1m (in-place)
I0708 16:54:19.643116 26088 net.cpp:141] Setting up relu1_1m
I0708 16:54:19.643126 26088 net.cpp:148] Top shape: 6 64 392 392 (59006976)
I0708 16:54:19.643128 26088 net.cpp:156] Memory required for data: 5285124096
I0708 16:54:19.643133 26088 layer_factory.hpp:77] Creating layer conv1_2m
I0708 16:54:19.643157 26088 net.cpp:91] Creating Layer conv1_2m
I0708 16:54:19.643160 26088 net.cpp:425] conv1_2m <- conv1_1m
I0708 16:54:19.643183 26088 net.cpp:399] conv1_2m -> conv1_2m
I0708 16:54:19.644431 26088 net.cpp:141] Setting up conv1_2m
I0708 16:54:19.644443 26088 net.cpp:148] Top shape: 6 64 392 392 (59006976)
I0708 16:54:19.644445 26088 net.cpp:156] Memory required for data: 5521152000
I0708 16:54:19.644453 26088 net.cpp:484] Sharing parameters 'conv1_2_w' owned by layer 'conv1_2n', param index 0
I0708 16:54:19.644459 26088 net.cpp:484] Sharing parameters 'conv1_2_b' owned by layer 'conv1_2n', param index 1
I0708 16:54:19.644461 26088 layer_factory.hpp:77] Creating layer relu1_2m
I0708 16:54:19.644475 26088 net.cpp:91] Creating Layer relu1_2m
I0708 16:54:19.644482 26088 net.cpp:425] relu1_2m <- conv1_2m
I0708 16:54:19.644510 26088 net.cpp:386] relu1_2m -> conv1_2m (in-place)
I0708 16:54:19.644655 26088 net.cpp:141] Setting up relu1_2m
I0708 16:54:19.644661 26088 net.cpp:148] Top shape: 6 64 392 392 (59006976)
I0708 16:54:19.644665 26088 net.cpp:156] Memory required for data: 5757179904
I0708 16:54:19.644666 26088 layer_factory.hpp:77] Creating layer pool1m
I0708 16:54:19.644685 26088 net.cpp:91] Creating Layer pool1m
I0708 16:54:19.644688 26088 net.cpp:425] pool1m <- conv1_2m
I0708 16:54:19.644707 26088 net.cpp:399] pool1m -> pool1m
I0708 16:54:19.644767 26088 net.cpp:141] Setting up pool1m
I0708 16:54:19.644773 26088 net.cpp:148] Top shape: 6 64 196 196 (14751744)
I0708 16:54:19.644774 26088 net.cpp:156] Memory required for data: 5816186880
I0708 16:54:19.644788 26088 layer_factory.hpp:77] Creating layer conv2_1m
I0708 16:54:19.644829 26088 net.cpp:91] Creating Layer conv2_1m
I0708 16:54:19.644834 26088 net.cpp:425] conv2_1m <- pool1m
I0708 16:54:19.644856 26088 net.cpp:399] conv2_1m -> conv2_1m
I0708 16:54:19.645934 26088 net.cpp:141] Setting up conv2_1m
I0708 16:54:19.645947 26088 net.cpp:148] Top shape: 6 128 196 196 (29503488)
I0708 16:54:19.645951 26088 net.cpp:156] Memory required for data: 5934200832
I0708 16:54:19.645956 26088 net.cpp:484] Sharing parameters 'conv2_1_w' owned by layer 'conv2_1n', param index 0
I0708 16:54:19.645964 26088 net.cpp:484] Sharing parameters 'conv2_1_b' owned by layer 'conv2_1n', param index 1
I0708 16:54:19.645972 26088 layer_factory.hpp:77] Creating layer relu2_1m
I0708 16:54:19.645987 26088 net.cpp:91] Creating Layer relu2_1m
I0708 16:54:19.645992 26088 net.cpp:425] relu2_1m <- conv2_1m
I0708 16:54:19.646008 26088 net.cpp:386] relu2_1m -> conv2_1m (in-place)
I0708 16:54:19.646179 26088 net.cpp:141] Setting up relu2_1m
I0708 16:54:19.646188 26088 net.cpp:148] Top shape: 6 128 196 196 (29503488)
I0708 16:54:19.646193 26088 net.cpp:156] Memory required for data: 6052214784
I0708 16:54:19.646195 26088 layer_factory.hpp:77] Creating layer conv2_2m
I0708 16:54:19.646219 26088 net.cpp:91] Creating Layer conv2_2m
I0708 16:54:19.646224 26088 net.cpp:425] conv2_2m <- conv2_1m
I0708 16:54:19.646244 26088 net.cpp:399] conv2_2m -> conv2_2m
I0708 16:54:19.647732 26088 net.cpp:141] Setting up conv2_2m
I0708 16:54:19.647744 26088 net.cpp:148] Top shape: 6 128 196 196 (29503488)
I0708 16:54:19.647747 26088 net.cpp:156] Memory required for data: 6170228736
I0708 16:54:19.647758 26088 net.cpp:484] Sharing parameters 'conv2_2_w' owned by layer 'conv2_2n', param index 0
I0708 16:54:19.647763 26088 net.cpp:484] Sharing parameters 'conv2_2_b' owned by layer 'conv2_2n', param index 1
I0708 16:54:19.647766 26088 layer_factory.hpp:77] Creating layer relu2_2m
I0708 16:54:19.647778 26088 net.cpp:91] Creating Layer relu2_2m
I0708 16:54:19.647783 26088 net.cpp:425] relu2_2m <- conv2_2m
I0708 16:54:19.647792 26088 net.cpp:386] relu2_2m -> conv2_2m (in-place)
I0708 16:54:19.648017 26088 net.cpp:141] Setting up relu2_2m
I0708 16:54:19.648025 26088 net.cpp:148] Top shape: 6 128 196 196 (29503488)
I0708 16:54:19.648027 26088 net.cpp:156] Memory required for data: 6288242688
I0708 16:54:19.648030 26088 layer_factory.hpp:77] Creating layer pool2m
I0708 16:54:19.648041 26088 net.cpp:91] Creating Layer pool2m
I0708 16:54:19.648044 26088 net.cpp:425] pool2m <- conv2_2m
I0708 16:54:19.648068 26088 net.cpp:399] pool2m -> pool2m
I0708 16:54:19.648109 26088 net.cpp:141] Setting up pool2m
I0708 16:54:19.648114 26088 net.cpp:148] Top shape: 6 128 98 98 (7375872)
I0708 16:54:19.648116 26088 net.cpp:156] Memory required for data: 6317746176
I0708 16:54:19.648119 26088 layer_factory.hpp:77] Creating layer conv3_1m
I0708 16:54:19.648138 26088 net.cpp:91] Creating Layer conv3_1m
I0708 16:54:19.648141 26088 net.cpp:425] conv3_1m <- pool2m
I0708 16:54:19.648159 26088 net.cpp:399] conv3_1m -> conv3_1m
I0708 16:54:19.649400 26088 net.cpp:141] Setting up conv3_1m
I0708 16:54:19.649410 26088 net.cpp:148] Top shape: 6 256 98 98 (14751744)
I0708 16:54:19.649415 26088 net.cpp:156] Memory required for data: 6376753152
I0708 16:54:19.649421 26088 net.cpp:484] Sharing parameters 'conv3_1_w' owned by layer 'conv3_1n', param index 0
I0708 16:54:19.649430 26088 net.cpp:484] Sharing parameters 'conv3_1_b' owned by layer 'conv3_1n', param index 1
I0708 16:54:19.649435 26088 layer_factory.hpp:77] Creating layer relu3_1m
I0708 16:54:19.649469 26088 net.cpp:91] Creating Layer relu3_1m
I0708 16:54:19.649477 26088 net.cpp:425] relu3_1m <- conv3_1m
I0708 16:54:19.649498 26088 net.cpp:386] relu3_1m -> conv3_1m (in-place)
I0708 16:54:19.649638 26088 net.cpp:141] Setting up relu3_1m
I0708 16:54:19.649644 26088 net.cpp:148] Top shape: 6 256 98 98 (14751744)
I0708 16:54:19.649647 26088 net.cpp:156] Memory required for data: 6435760128
I0708 16:54:19.649657 26088 layer_factory.hpp:77] Creating layer conv3_2m
I0708 16:54:19.649687 26088 net.cpp:91] Creating Layer conv3_2m
I0708 16:54:19.649691 26088 net.cpp:425] conv3_2m <- conv3_1m
I0708 16:54:19.649719 26088 net.cpp:399] conv3_2m -> conv3_2m
I0708 16:54:19.651170 26088 net.cpp:141] Setting up conv3_2m
I0708 16:54:19.651183 26088 net.cpp:148] Top shape: 6 256 98 98 (14751744)
I0708 16:54:19.651185 26088 net.cpp:156] Memory required for data: 6494767104
I0708 16:54:19.651191 26088 net.cpp:484] Sharing parameters 'conv3_2_w' owned by layer 'conv3_2n', param index 0
I0708 16:54:19.651197 26088 net.cpp:484] Sharing parameters 'conv3_2_b' owned by layer 'conv3_2n', param index 1
I0708 16:54:19.651199 26088 layer_factory.hpp:77] Creating layer relu3_2m
I0708 16:54:19.651213 26088 net.cpp:91] Creating Layer relu3_2m
I0708 16:54:19.651217 26088 net.cpp:425] relu3_2m <- conv3_2m
I0708 16:54:19.651234 26088 net.cpp:386] relu3_2m -> conv3_2m (in-place)
I0708 16:54:19.651378 26088 net.cpp:141] Setting up relu3_2m
I0708 16:54:19.651386 26088 net.cpp:148] Top shape: 6 256 98 98 (14751744)
I0708 16:54:19.651387 26088 net.cpp:156] Memory required for data: 6553774080
I0708 16:54:19.651391 26088 layer_factory.hpp:77] Creating layer conv3_3m
I0708 16:54:19.651413 26088 net.cpp:91] Creating Layer conv3_3m
I0708 16:54:19.651417 26088 net.cpp:425] conv3_3m <- conv3_2m
I0708 16:54:19.651437 26088 net.cpp:399] conv3_3m -> conv3_3m
I0708 16:54:19.653015 26088 net.cpp:141] Setting up conv3_3m
I0708 16:54:19.653038 26088 net.cpp:148] Top shape: 6 256 98 98 (14751744)
I0708 16:54:19.653039 26088 net.cpp:156] Memory required for data: 6612781056
I0708 16:54:19.653044 26088 net.cpp:484] Sharing parameters 'conv3_3_w' owned by layer 'conv3_3n', param index 0
I0708 16:54:19.653049 26088 net.cpp:484] Sharing parameters 'conv3_3_b' owned by layer 'conv3_3n', param index 1
I0708 16:54:19.653051 26088 layer_factory.hpp:77] Creating layer relu3_3m
I0708 16:54:19.653060 26088 net.cpp:91] Creating Layer relu3_3m
I0708 16:54:19.653065 26088 net.cpp:425] relu3_3m <- conv3_3m
I0708 16:54:19.653079 26088 net.cpp:386] relu3_3m -> conv3_3m (in-place)
I0708 16:54:19.653292 26088 net.cpp:141] Setting up relu3_3m
I0708 16:54:19.653300 26088 net.cpp:148] Top shape: 6 256 98 98 (14751744)
I0708 16:54:19.653302 26088 net.cpp:156] Memory required for data: 6671788032
I0708 16:54:19.653304 26088 layer_factory.hpp:77] Creating layer pool3m
I0708 16:54:19.653318 26088 net.cpp:91] Creating Layer pool3m
I0708 16:54:19.653322 26088 net.cpp:425] pool3m <- conv3_3m
I0708 16:54:19.653333 26088 net.cpp:399] pool3m -> pool3m
I0708 16:54:19.653376 26088 net.cpp:141] Setting up pool3m
I0708 16:54:19.653381 26088 net.cpp:148] Top shape: 6 256 49 49 (3687936)
I0708 16:54:19.653383 26088 net.cpp:156] Memory required for data: 6686539776
I0708 16:54:19.653386 26088 layer_factory.hpp:77] Creating layer conv4_1m
I0708 16:54:19.653405 26088 net.cpp:91] Creating Layer conv4_1m
I0708 16:54:19.653409 26088 net.cpp:425] conv4_1m <- pool3m
I0708 16:54:19.653434 26088 net.cpp:399] conv4_1m -> conv4_1m
I0708 16:54:19.655511 26088 net.cpp:141] Setting up conv4_1m
I0708 16:54:19.655526 26088 net.cpp:148] Top shape: 6 512 49 49 (7375872)
I0708 16:54:19.655529 26088 net.cpp:156] Memory required for data: 6716043264
I0708 16:54:19.655534 26088 net.cpp:484] Sharing parameters 'conv4_1_w' owned by layer 'conv4_1n', param index 0
I0708 16:54:19.655539 26088 net.cpp:484] Sharing parameters 'conv4_1_b' owned by layer 'conv4_1n', param index 1
I0708 16:54:19.655541 26088 layer_factory.hpp:77] Creating layer relu4_1m
I0708 16:54:19.655553 26088 net.cpp:91] Creating Layer relu4_1m
I0708 16:54:19.655557 26088 net.cpp:425] relu4_1m <- conv4_1m
I0708 16:54:19.655571 26088 net.cpp:386] relu4_1m -> conv4_1m (in-place)
I0708 16:54:19.655699 26088 net.cpp:141] Setting up relu4_1m
I0708 16:54:19.655705 26088 net.cpp:148] Top shape: 6 512 49 49 (7375872)
I0708 16:54:19.655707 26088 net.cpp:156] Memory required for data: 6745546752
I0708 16:54:19.655711 26088 layer_factory.hpp:77] Creating layer conv4_2m
I0708 16:54:19.655750 26088 net.cpp:91] Creating Layer conv4_2m
I0708 16:54:19.655753 26088 net.cpp:425] conv4_2m <- conv4_1m
I0708 16:54:19.655772 26088 net.cpp:399] conv4_2m -> conv4_2m
I0708 16:54:19.659708 26088 net.cpp:141] Setting up conv4_2m
I0708 16:54:19.659729 26088 net.cpp:148] Top shape: 6 512 49 49 (7375872)
I0708 16:54:19.659731 26088 net.cpp:156] Memory required for data: 6775050240
I0708 16:54:19.659737 26088 net.cpp:484] Sharing parameters 'conv4_2_w' owned by layer 'conv4_2n', param index 0
I0708 16:54:19.659741 26088 net.cpp:484] Sharing parameters 'conv4_2_b' owned by layer 'conv4_2n', param index 1
I0708 16:54:19.659744 26088 layer_factory.hpp:77] Creating layer relu4_2m
I0708 16:54:19.659757 26088 net.cpp:91] Creating Layer relu4_2m
I0708 16:54:19.659770 26088 net.cpp:425] relu4_2m <- conv4_2m
I0708 16:54:19.659782 26088 net.cpp:386] relu4_2m -> conv4_2m (in-place)
I0708 16:54:19.659910 26088 net.cpp:141] Setting up relu4_2m
I0708 16:54:19.659917 26088 net.cpp:148] Top shape: 6 512 49 49 (7375872)
I0708 16:54:19.659919 26088 net.cpp:156] Memory required for data: 6804553728
I0708 16:54:19.659924 26088 layer_factory.hpp:77] Creating layer conv4_3m
I0708 16:54:19.659945 26088 net.cpp:91] Creating Layer conv4_3m
I0708 16:54:19.659947 26088 net.cpp:425] conv4_3m <- conv4_2m
I0708 16:54:19.659965 26088 net.cpp:399] conv4_3m -> conv4_3m
I0708 16:54:19.664027 26088 net.cpp:141] Setting up conv4_3m
I0708 16:54:19.664049 26088 net.cpp:148] Top shape: 6 512 49 49 (7375872)
I0708 16:54:19.664053 26088 net.cpp:156] Memory required for data: 6834057216
I0708 16:54:19.664062 26088 net.cpp:484] Sharing parameters 'conv4_3_w' owned by layer 'conv4_3n', param index 0
I0708 16:54:19.664068 26088 net.cpp:484] Sharing parameters 'conv4_3_b' owned by layer 'conv4_3n', param index 1
I0708 16:54:19.664072 26088 layer_factory.hpp:77] Creating layer relu4_3m
I0708 16:54:19.664088 26088 net.cpp:91] Creating Layer relu4_3m
I0708 16:54:19.664094 26088 net.cpp:425] relu4_3m <- conv4_3m
I0708 16:54:19.664124 26088 net.cpp:386] relu4_3m -> conv4_3m (in-place)
I0708 16:54:19.664456 26088 net.cpp:141] Setting up relu4_3m
I0708 16:54:19.664466 26088 net.cpp:148] Top shape: 6 512 49 49 (7375872)
I0708 16:54:19.664469 26088 net.cpp:156] Memory required for data: 6863560704
I0708 16:54:19.664474 26088 layer_factory.hpp:77] Creating layer pool4m
I0708 16:54:19.664495 26088 net.cpp:91] Creating Layer pool4m
I0708 16:54:19.664500 26088 net.cpp:425] pool4m <- conv4_3m
I0708 16:54:19.664516 26088 net.cpp:399] pool4m -> pool4m
I0708 16:54:19.664568 26088 net.cpp:141] Setting up pool4m
I0708 16:54:19.664574 26088 net.cpp:148] Top shape: 6 512 25 25 (1920000)
I0708 16:54:19.664577 26088 net.cpp:156] Memory required for data: 6871240704
I0708 16:54:19.664580 26088 layer_factory.hpp:77] Creating layer conv5_1m
I0708 16:54:19.664605 26088 net.cpp:91] Creating Layer conv5_1m
I0708 16:54:19.664610 26088 net.cpp:425] conv5_1m <- pool4m
I0708 16:54:19.664639 26088 net.cpp:399] conv5_1m -> conv5_1m
I0708 16:54:19.668897 26088 net.cpp:141] Setting up conv5_1m
I0708 16:54:19.668915 26088 net.cpp:148] Top shape: 6 512 25 25 (1920000)
I0708 16:54:19.668917 26088 net.cpp:156] Memory required for data: 6878920704
I0708 16:54:19.668925 26088 net.cpp:484] Sharing parameters 'conv5_1_w' owned by layer 'conv5_1n', param index 0
I0708 16:54:19.668931 26088 net.cpp:484] Sharing parameters 'conv5_1_b' owned by layer 'conv5_1n', param index 1
I0708 16:54:19.668934 26088 layer_factory.hpp:77] Creating layer relu5_1m
I0708 16:54:19.668958 26088 net.cpp:91] Creating Layer relu5_1m
I0708 16:54:19.668963 26088 net.cpp:425] relu5_1m <- conv5_1m
I0708 16:54:19.668977 26088 net.cpp:386] relu5_1m -> conv5_1m (in-place)
I0708 16:54:19.669103 26088 net.cpp:141] Setting up relu5_1m
I0708 16:54:19.669109 26088 net.cpp:148] Top shape: 6 512 25 25 (1920000)
I0708 16:54:19.669111 26088 net.cpp:156] Memory required for data: 6886600704
I0708 16:54:19.669113 26088 layer_factory.hpp:77] Creating layer conv5_2m
I0708 16:54:19.669131 26088 net.cpp:91] Creating Layer conv5_2m
I0708 16:54:19.669142 26088 net.cpp:425] conv5_2m <- conv5_1m
I0708 16:54:19.669162 26088 net.cpp:399] conv5_2m -> conv5_2m
I0708 16:54:19.672483 26088 net.cpp:141] Setting up conv5_2m
I0708 16:54:19.672505 26088 net.cpp:148] Top shape: 6 512 25 25 (1920000)
I0708 16:54:19.672508 26088 net.cpp:156] Memory required for data: 6894280704
I0708 16:54:19.672513 26088 net.cpp:484] Sharing parameters 'conv5_2_w' owned by layer 'conv5_2n', param index 0
I0708 16:54:19.672519 26088 net.cpp:484] Sharing parameters 'conv5_2_b' owned by layer 'conv5_2n', param index 1
I0708 16:54:19.672523 26088 layer_factory.hpp:77] Creating layer relu5_2m
I0708 16:54:19.672540 26088 net.cpp:91] Creating Layer relu5_2m
I0708 16:54:19.672550 26088 net.cpp:425] relu5_2m <- conv5_2m
I0708 16:54:19.672565 26088 net.cpp:386] relu5_2m -> conv5_2m (in-place)
I0708 16:54:19.672696 26088 net.cpp:141] Setting up relu5_2m
I0708 16:54:19.672703 26088 net.cpp:148] Top shape: 6 512 25 25 (1920000)
I0708 16:54:19.672704 26088 net.cpp:156] Memory required for data: 6901960704
I0708 16:54:19.672706 26088 layer_factory.hpp:77] Creating layer conv5_3m
I0708 16:54:19.672729 26088 net.cpp:91] Creating Layer conv5_3m
I0708 16:54:19.672732 26088 net.cpp:425] conv5_3m <- conv5_2m
I0708 16:54:19.672749 26088 net.cpp:399] conv5_3m -> conv5_3m
I0708 16:54:19.676477 26088 net.cpp:141] Setting up conv5_3m
I0708 16:54:19.676497 26088 net.cpp:148] Top shape: 6 512 37 37 (4205568)
I0708 16:54:19.676501 26088 net.cpp:156] Memory required for data: 6918782976
I0708 16:54:19.676507 26088 net.cpp:484] Sharing parameters 'conv5_3_w' owned by layer 'conv5_3n', param index 0
I0708 16:54:19.676512 26088 net.cpp:484] Sharing parameters 'conv5_3_b' owned by layer 'conv5_3n', param index 1
I0708 16:54:19.676515 26088 layer_factory.hpp:77] Creating layer relu5_3m
I0708 16:54:19.676534 26088 net.cpp:91] Creating Layer relu5_3m
I0708 16:54:19.676539 26088 net.cpp:425] relu5_3m <- conv5_3m
I0708 16:54:19.676554 26088 net.cpp:386] relu5_3m -> conv5_3m (in-place)
I0708 16:54:19.676882 26088 net.cpp:141] Setting up relu5_3m
I0708 16:54:19.676890 26088 net.cpp:148] Top shape: 6 512 37 37 (4205568)
I0708 16:54:19.676892 26088 net.cpp:156] Memory required for data: 6935605248
I0708 16:54:19.676898 26088 layer_factory.hpp:77] Creating layer pool5m
I0708 16:54:19.676913 26088 net.cpp:91] Creating Layer pool5m
I0708 16:54:19.676915 26088 net.cpp:425] pool5m <- conv5_3m
I0708 16:54:19.676930 26088 net.cpp:399] pool5m -> pool5m
I0708 16:54:19.676988 26088 net.cpp:141] Setting up pool5m
I0708 16:54:19.676992 26088 net.cpp:148] Top shape: 6 512 19 19 (1108992)
I0708 16:54:19.676995 26088 net.cpp:156] Memory required for data: 6940041216
I0708 16:54:19.676996 26088 layer_factory.hpp:77] Creating layer silence_cur
I0708 16:54:19.677006 26088 net.cpp:91] Creating Layer silence_cur
I0708 16:54:19.677008 26088 net.cpp:425] silence_cur <- cur_im
I0708 16:54:19.677016 26088 net.cpp:141] Setting up silence_cur
I0708 16:54:19.677018 26088 net.cpp:156] Memory required for data: 6940041216
I0708 16:54:19.677021 26088 layer_factory.hpp:77] Creating layer concat1
I0708 16:54:19.677036 26088 net.cpp:91] Creating Layer concat1
I0708 16:54:19.677038 26088 net.cpp:425] concat1 <- pool5m
I0708 16:54:19.677045 26088 net.cpp:425] concat1 <- pool5n
I0708 16:54:19.677057 26088 net.cpp:399] concat1 -> concat1
I0708 16:54:19.677083 26088 net.cpp:141] Setting up concat1
I0708 16:54:19.677086 26088 net.cpp:148] Top shape: 6 1024 19 19 (2217984)
I0708 16:54:19.677088 26088 net.cpp:156] Memory required for data: 6948913152
I0708 16:54:19.677090 26088 layer_factory.hpp:77] Creating layer fc6
I0708 16:54:19.677106 26088 net.cpp:91] Creating Layer fc6
I0708 16:54:19.677109 26088 net.cpp:425] fc6 <- concat1
I0708 16:54:19.677125 26088 net.cpp:399] fc6 -> fc6
/usr/local/lib/python2.7/dist-packages/skimage/util/dtype.py:111: UserWarning: Possible precision loss when converting from float64 to uint8
  "%s to %s" % (dtypeobj_in, dtypeobj))
/usr/local/lib/python2.7/dist-packages/skimage/util/dtype.py:111: UserWarning: Possible precision loss when converting from float64 to uint8
  "%s to %s" % (dtypeobj_in, dtypeobj))
I0708 16:54:20.000636 26088 net.cpp:141] Setting up fc6
I0708 16:54:20.000685 26088 net.cpp:148] Top shape: 6 4096 13 13 (4153344)
I0708 16:54:20.000689 26088 net.cpp:156] Memory required for data: 6965526528
I0708 16:54:20.000715 26088 layer_factory.hpp:77] Creating layer relu6
I0708 16:54:20.000776 26088 net.cpp:91] Creating Layer relu6
I0708 16:54:20.000813 26088 net.cpp:425] relu6 <- fc6
I0708 16:54:20.000847 26088 net.cpp:386] relu6 -> fc6 (in-place)
I0708 16:54:20.001133 26088 net.cpp:141] Setting up relu6
I0708 16:54:20.001145 26088 net.cpp:148] Top shape: 6 4096 13 13 (4153344)
I0708 16:54:20.001148 26088 net.cpp:156] Memory required for data: 6982139904
I0708 16:54:20.001152 26088 layer_factory.hpp:77] Creating layer drop6
I0708 16:54:20.001188 26088 net.cpp:91] Creating Layer drop6
I0708 16:54:20.001195 26088 net.cpp:425] drop6 <- fc6
I0708 16:54:20.001214 26088 net.cpp:386] drop6 -> fc6 (in-place)
I0708 16:54:20.001263 26088 net.cpp:141] Setting up drop6
I0708 16:54:20.001271 26088 net.cpp:148] Top shape: 6 4096 13 13 (4153344)
I0708 16:54:20.001274 26088 net.cpp:156] Memory required for data: 6998753280
I0708 16:54:20.001277 26088 layer_factory.hpp:77] Creating layer fc7
I0708 16:54:20.001308 26088 net.cpp:91] Creating Layer fc7
I0708 16:54:20.001312 26088 net.cpp:425] fc7 <- fc6
I0708 16:54:20.001330 26088 net.cpp:399] fc7 -> fc7
I0708 16:54:20.028096 26088 net.cpp:141] Setting up fc7
I0708 16:54:20.028146 26088 net.cpp:148] Top shape: 6 4096 13 13 (4153344)
I0708 16:54:20.028151 26088 net.cpp:156] Memory required for data: 7015366656
I0708 16:54:20.028168 26088 layer_factory.hpp:77] Creating layer relu7
I0708 16:54:20.028193 26088 net.cpp:91] Creating Layer relu7
I0708 16:54:20.028203 26088 net.cpp:425] relu7 <- fc7
I0708 16:54:20.028221 26088 net.cpp:386] relu7 -> fc7 (in-place)
I0708 16:54:20.028399 26088 net.cpp:141] Setting up relu7
I0708 16:54:20.028408 26088 net.cpp:148] Top shape: 6 4096 13 13 (4153344)
I0708 16:54:20.028411 26088 net.cpp:156] Memory required for data: 7031980032
I0708 16:54:20.028417 26088 layer_factory.hpp:77] Creating layer drop7
I0708 16:54:20.028434 26088 net.cpp:91] Creating Layer drop7
I0708 16:54:20.028436 26088 net.cpp:425] drop7 <- fc7
I0708 16:54:20.028453 26088 net.cpp:386] drop7 -> fc7 (in-place)
I0708 16:54:20.028484 26088 net.cpp:141] Setting up drop7
I0708 16:54:20.028491 26088 net.cpp:148] Top shape: 6 4096 13 13 (4153344)
I0708 16:54:20.028494 26088 net.cpp:156] Memory required for data: 7048593408
I0708 16:54:20.028497 26088 layer_factory.hpp:77] Creating layer score_fc
I0708 16:54:20.028522 26088 net.cpp:91] Creating Layer score_fc
I0708 16:54:20.028525 26088 net.cpp:425] score_fc <- fc7
I0708 16:54:20.028547 26088 net.cpp:399] score_fc -> score_fc
I0708 16:54:20.029762 26088 net.cpp:141] Setting up score_fc
I0708 16:54:20.029772 26088 net.cpp:148] Top shape: 6 21 13 13 (21294)
I0708 16:54:20.029775 26088 net.cpp:156] Memory required for data: 7048678584
I0708 16:54:20.029794 26088 layer_factory.hpp:77] Creating layer upscore2
I0708 16:54:20.029816 26088 net.cpp:91] Creating Layer upscore2
I0708 16:54:20.029822 26088 net.cpp:425] upscore2 <- score_fc
I0708 16:54:20.029846 26088 net.cpp:399] upscore2 -> upscore2
I0708 16:54:20.030195 26088 net.cpp:141] Setting up upscore2
I0708 16:54:20.030203 26088 net.cpp:148] Top shape: 6 21 28 28 (98784)
I0708 16:54:20.030206 26088 net.cpp:156] Memory required for data: 7049073720
I0708 16:54:20.030220 26088 layer_factory.hpp:77] Creating layer upscore2_upscore2_0_split
I0708 16:54:20.030236 26088 net.cpp:91] Creating Layer upscore2_upscore2_0_split
I0708 16:54:20.030241 26088 net.cpp:425] upscore2_upscore2_0_split <- upscore2
I0708 16:54:20.030257 26088 net.cpp:399] upscore2_upscore2_0_split -> upscore2_upscore2_0_split_0
I0708 16:54:20.030277 26088 net.cpp:399] upscore2_upscore2_0_split -> upscore2_upscore2_0_split_1
I0708 16:54:20.030320 26088 net.cpp:141] Setting up upscore2_upscore2_0_split
I0708 16:54:20.030328 26088 net.cpp:148] Top shape: 6 21 28 28 (98784)
I0708 16:54:20.030331 26088 net.cpp:148] Top shape: 6 21 28 28 (98784)
I0708 16:54:20.030334 26088 net.cpp:156] Memory required for data: 7049863992
I0708 16:54:20.030338 26088 layer_factory.hpp:77] Creating layer score_pool4
I0708 16:54:20.030357 26088 net.cpp:91] Creating Layer score_pool4
I0708 16:54:20.030361 26088 net.cpp:425] score_pool4 <- pool4n_pool4n_0_split_1
I0708 16:54:20.030388 26088 net.cpp:399] score_pool4 -> score_pool4
I0708 16:54:20.031538 26088 net.cpp:141] Setting up score_pool4
I0708 16:54:20.031548 26088 net.cpp:148] Top shape: 6 21 37 37 (172494)
I0708 16:54:20.031553 26088 net.cpp:156] Memory required for data: 7050553968
I0708 16:54:20.031561 26088 layer_factory.hpp:77] Creating layer score_pool4c
I0708 16:54:20.031584 26088 net.cpp:91] Creating Layer score_pool4c
I0708 16:54:20.031590 26088 net.cpp:425] score_pool4c <- score_pool4
I0708 16:54:20.031599 26088 net.cpp:425] score_pool4c <- upscore2_upscore2_0_split_0
I0708 16:54:20.031616 26088 net.cpp:399] score_pool4c -> score_pool4c
I0708 16:54:20.031656 26088 net.cpp:141] Setting up score_pool4c
I0708 16:54:20.031663 26088 net.cpp:148] Top shape: 6 21 28 28 (98784)
I0708 16:54:20.031666 26088 net.cpp:156] Memory required for data: 7050949104
I0708 16:54:20.031669 26088 layer_factory.hpp:77] Creating layer fuse_pool4
I0708 16:54:20.031682 26088 net.cpp:91] Creating Layer fuse_pool4
I0708 16:54:20.031687 26088 net.cpp:425] fuse_pool4 <- upscore2_upscore2_0_split_1
I0708 16:54:20.031703 26088 net.cpp:425] fuse_pool4 <- score_pool4c
I0708 16:54:20.031720 26088 net.cpp:399] fuse_pool4 -> fuse_pool4
I0708 16:54:20.031752 26088 net.cpp:141] Setting up fuse_pool4
I0708 16:54:20.031759 26088 net.cpp:148] Top shape: 6 21 28 28 (98784)
I0708 16:54:20.031761 26088 net.cpp:156] Memory required for data: 7051344240
I0708 16:54:20.031765 26088 layer_factory.hpp:77] Creating layer upscore_pool4
I0708 16:54:20.031781 26088 net.cpp:91] Creating Layer upscore_pool4
I0708 16:54:20.031786 26088 net.cpp:425] upscore_pool4 <- fuse_pool4
I0708 16:54:20.031803 26088 net.cpp:399] upscore_pool4 -> upscore_pool4
I0708 16:54:20.032048 26088 net.cpp:141] Setting up upscore_pool4
I0708 16:54:20.032055 26088 net.cpp:148] Top shape: 6 21 58 58 (423864)
I0708 16:54:20.032060 26088 net.cpp:156] Memory required for data: 7053039696
I0708 16:54:20.032066 26088 layer_factory.hpp:77] Creating layer upscore_pool4_upscore_pool4_0_split
I0708 16:54:20.032089 26088 net.cpp:91] Creating Layer upscore_pool4_upscore_pool4_0_split
I0708 16:54:20.032094 26088 net.cpp:425] upscore_pool4_upscore_pool4_0_split <- upscore_pool4
I0708 16:54:20.032112 26088 net.cpp:399] upscore_pool4_upscore_pool4_0_split -> upscore_pool4_upscore_pool4_0_split_0
I0708 16:54:20.032124 26088 net.cpp:399] upscore_pool4_upscore_pool4_0_split -> upscore_pool4_upscore_pool4_0_split_1
I0708 16:54:20.032165 26088 net.cpp:141] Setting up upscore_pool4_upscore_pool4_0_split
I0708 16:54:20.032171 26088 net.cpp:148] Top shape: 6 21 58 58 (423864)
I0708 16:54:20.032176 26088 net.cpp:148] Top shape: 6 21 58 58 (423864)
I0708 16:54:20.032179 26088 net.cpp:156] Memory required for data: 7056430608
I0708 16:54:20.032182 26088 layer_factory.hpp:77] Creating layer score_pool3
I0708 16:54:20.032197 26088 net.cpp:91] Creating Layer score_pool3
I0708 16:54:20.032203 26088 net.cpp:425] score_pool3 <- pool3n_pool3n_0_split_1
I0708 16:54:20.032222 26088 net.cpp:399] score_pool3 -> score_pool3
I0708 16:54:20.033373 26088 net.cpp:141] Setting up score_pool3
I0708 16:54:20.033385 26088 net.cpp:148] Top shape: 6 21 73 73 (671454)
I0708 16:54:20.033390 26088 net.cpp:156] Memory required for data: 7059116424
I0708 16:54:20.033408 26088 layer_factory.hpp:77] Creating layer Crop1
I0708 16:54:20.033426 26088 net.cpp:91] Creating Layer Crop1
I0708 16:54:20.033432 26088 net.cpp:425] Crop1 <- score_pool3
I0708 16:54:20.033439 26088 net.cpp:425] Crop1 <- upscore_pool4_upscore_pool4_0_split_0
I0708 16:54:20.033453 26088 net.cpp:399] Crop1 -> Crop1
I0708 16:54:20.033488 26088 net.cpp:141] Setting up Crop1
I0708 16:54:20.033495 26088 net.cpp:148] Top shape: 6 21 58 58 (423864)
I0708 16:54:20.033499 26088 net.cpp:156] Memory required for data: 7060811880
I0708 16:54:20.033501 26088 layer_factory.hpp:77] Creating layer fuse_pool3
I0708 16:54:20.033519 26088 net.cpp:91] Creating Layer fuse_pool3
I0708 16:54:20.033524 26088 net.cpp:425] fuse_pool3 <- upscore_pool4_upscore_pool4_0_split_1
I0708 16:54:20.033535 26088 net.cpp:425] fuse_pool3 <- Crop1
I0708 16:54:20.033562 26088 net.cpp:399] fuse_pool3 -> fuse_pool3
I0708 16:54:20.033596 26088 net.cpp:141] Setting up fuse_pool3
I0708 16:54:20.033603 26088 net.cpp:148] Top shape: 6 21 58 58 (423864)
I0708 16:54:20.033606 26088 net.cpp:156] Memory required for data: 7062507336
I0708 16:54:20.033609 26088 layer_factory.hpp:77] Creating layer upscore8
I0708 16:54:20.033625 26088 net.cpp:91] Creating Layer upscore8
I0708 16:54:20.033629 26088 net.cpp:425] upscore8 <- fuse_pool3
I0708 16:54:20.033650 26088 net.cpp:399] upscore8 -> upscore8
I0708 16:54:20.034304 26088 net.cpp:141] Setting up upscore8
I0708 16:54:20.034315 26088 net.cpp:148] Top shape: 6 21 472 472 (28070784)
I0708 16:54:20.034318 26088 net.cpp:156] Memory required for data: 7174790472
I0708 16:54:20.034325 26088 layer_factory.hpp:77] Creating layer score_pool3c
I0708 16:54:20.034344 26088 net.cpp:91] Creating Layer score_pool3c
I0708 16:54:20.034349 26088 net.cpp:425] score_pool3c <- upscore8
I0708 16:54:20.034368 26088 net.cpp:425] score_pool3c <- next_im_cur_im_2_split_1
I0708 16:54:20.034389 26088 net.cpp:399] score_pool3c -> score_pool3c
I0708 16:54:20.034420 26088 net.cpp:141] Setting up score_pool3c
I0708 16:54:20.034427 26088 net.cpp:148] Top shape: 6 21 384 384 (18579456)
I0708 16:54:20.034430 26088 net.cpp:156] Memory required for data: 7249108296
I0708 16:54:20.034433 26088 layer_factory.hpp:77] Creating layer score
I0708 16:54:20.034452 26088 net.cpp:91] Creating Layer score
I0708 16:54:20.034457 26088 net.cpp:425] score <- score_pool3c
I0708 16:54:20.034473 26088 net.cpp:399] score -> score
I0708 16:54:20.036072 26088 net.cpp:141] Setting up score
I0708 16:54:20.036083 26088 net.cpp:148] Top shape: 6 2 384 384 (1769472)
I0708 16:54:20.036087 26088 net.cpp:156] Memory required for data: 7256186184
I0708 16:54:20.036098 26088 layer_factory.hpp:77] Creating layer loss
I0708 16:54:20.036113 26088 net.cpp:91] Creating Layer loss
I0708 16:54:20.036119 26088 net.cpp:425] loss <- score
I0708 16:54:20.036128 26088 net.cpp:425] loss <- label
I0708 16:54:20.036152 26088 net.cpp:399] loss -> loss
I0708 16:54:20.036176 26088 layer_factory.hpp:77] Creating layer loss
…
