…
I0701 02:35:52.659178 10927 solver.cpp:81] Creating training net from train_net file: train_davis_sequence_simple.prototxt
I0701 02:35:52.661018 10927 net.cpp:49] Initializing net from parameters: 
state {
  phase: TRAIN
}
layer {
  name: "cur_im"
  type: "Python"
  top: "cur_im"
  top: "masked_im"
  top: "next_im"
  top: "label"
  python_param {
    module: "davis_datalayer_server"
    layer: "DavisDataLayerServer"
    param_str: "{\'shuffle\': True, \'im_shape\': (384, 384), \'batch_size\': 4, \'max_len\': 20, \'split\': \'training\', \'port\': \'6678\'}"
  }
}
layer {
  name: "conv1_1c"
  type: "Convolution"
  bottom: "cur_im"
  top: "conv1_1c"
  param {
    name: "conv1_1_w"
    lr_mult: 1
    decay_mult: 1
  }
  param {
    name: "conv1_1_b"
    lr_mult: 2
    decay_mult: 0
  }
  convolution_param {
    num_output: 64
    pad: 101
    kernel_size: 3
  }
}
layer {
  name: "relu1_1c"
  type: "ReLU"
  bottom: "conv1_1c"
  top: "conv1_1c"
}
layer {
  name: "conv1_2c"
  type: "Convolution"
  bottom: "conv1_1c"
  top: "conv1_2c"
  param {
    name: "conv1_2_w"
    lr_mult: 1
    decay_mult: 1
  }
  param {
    name: "conv1_2_b"
    lr_mult: 2
    decay_mult: 0
  }
  convolution_param {
    num_output: 64
    pad: 1
    kernel_size: 3
  }
}
layer {
  name: "relu1_2c"
  type: "ReLU"
  bottom: "conv1_2c"
  top: "conv1_2c"
}
layer {
  name: "pool1c"
  type: "Pooling"
  bottom: "conv1_2c"
  top: "pool1c"
  pooling_param {
    pool: MAX
    kernel_size: 2
    stride: 2
  }
}
layer {
  name: "conv2_1c"
  type: "Convolution"
  bottom: "pool1c"
  top: "conv2_1c"
  param {
    name: "conv2_1_w"
    lr_mult: 1
    decay_mult: 1
  }
  param {
    name: "conv2_1_b"
    lr_mult: 2
    decay_mult: 0
  }
  convolution_param {
    num_output: 128
    pad: 1
    kernel_size: 3
  }
}
layer {
  name: "relu2_1c"
  type: "ReLU"
  bottom: "conv2_1c"
  top: "conv2_1c"
}
layer {
  name: "conv2_2c"
  type: "Convolution"
  bottom: "conv2_1c"
  top: "conv2_2c"
  param {
    name: "conv2_2_w"
    lr_mult: 1
    decay_mult: 1
  }
  param {
    name: "conv2_2_b"
    lr_mult: 2
    decay_mult: 0
  }
  convolution_param {
    num_output: 128
    pad: 1
    kernel_size: 3
  }
}
layer {
  name: "relu2_2c"
  type: "ReLU"
  bottom: "conv2_2c"
  top: "conv2_2c"
}
layer {
  name: "pool2c"
  type: "Pooling"
  bottom: "conv2_2c"
  top: "pool2c"
  pooling_param {
    pool: MAX
    kernel_size: 2
    stride: 2
  }
}
layer {
  name: "conv3_1c"
  type: "Convolution"
  bottom: "pool2c"
  top: "conv3_1c"
  param {
    name: "conv3_1_w"
    lr_mult: 1
    decay_mult: 1
  }
  param {
    name: "conv3_1_b"
    lr_mult: 2
    decay_mult: 0
  }
  convolution_param {
    num_output: 256
    pad: 1
    kernel_size: 3
  }
}
layer {
  name: "relu3_1c"
  type: "ReLU"
  bottom: "conv3_1c"
  top: "conv3_1c"
}
layer {
  name: "conv3_2c"
  type: "Convolution"
  bottom: "conv3_1c"
  top: "conv3_2c"
  param {
    name: "conv3_2_w"
    lr_mult: 1
    decay_mult: 1
  }
  param {
    name: "conv3_2_b"
    lr_mult: 2
    decay_mult: 0
  }
  convolution_param {
    num_output: 256
    pad: 1
    kernel_size: 3
  }
}
layer {
  name: "relu3_2c"
  type: "ReLU"
  bottom: "conv3_2c"
  top: "conv3_2c"
}
layer {
  name: "conv3_3c"
  type: "Convolution"
  bottom: "conv3_2c"
  top: "conv3_3c"
  param {
    name: "conv3_3_w"
    lr_mult: 1
    decay_mult: 1
  }
  param {
    name: "conv3_3_b"
    lr_mult: 2
    decay_mult: 0
  }
  convolution_param {
    num_output: 256
    pad: 1
    kernel_size: 3
  }
}
layer {
  name: "relu3_3c"
  type: "ReLU"
  bottom: "conv3_3c"
  top: "conv3_3c"
}
layer {
  name: "pool3c"
  type: "Pooling"
  bottom: "conv3_3c"
  top: "pool3c"
  pooling_param {
    pool: MAX
    kernel_size: 2
    stride: 2
  }
}
layer {
  name: "conv4_1c"
  type: "Convolution"
  bottom: "pool3c"
  top: "conv4_1c"
  param {
    name: "conv4_1_w"
    lr_mult: 1
    decay_mult: 1
  }
  param {
    name: "conv4_1_b"
    lr_mult: 2
    decay_mult: 0
  }
  convolution_param {
    num_output: 512
    pad: 1
    kernel_size: 3
  }
}
layer {
  name: "relu4_1c"
  type: "ReLU"
  bottom: "conv4_1c"
  top: "conv4_1c"
}
layer {
  name: "conv4_2c"
  type: "Convolution"
  bottom: "conv4_1c"
  top: "conv4_2c"
  param {
    name: "conv4_2_w"
    lr_mult: 1
    decay_mult: 1
  }
  param {
    name: "conv4_2_b"
    lr_mult: 2
    decay_mult: 0
  }
  convolution_param {
    num_output: 512
    pad: 1
    kernel_size: 3
  }
}
layer {
  name: "relu4_2c"
  type: "ReLU"
  bottom: "conv4_2c"
  top: "conv4_2c"
}
layer {
  name: "conv4_3c"
  type: "Convolution"
  bottom: "conv4_2c"
  top: "conv4_3c"
  param {
    name: "conv4_3_w"
    lr_mult: 1
    decay_mult: 1
  }
  param {
    name: "conv4_3_b"
    lr_mult: 2
    decay_mult: 0
  }
  convolution_param {
    num_output: 512
    pad: 1
    kernel_size: 3
  }
}
layer {
  name: "relu4_3c"
  type: "ReLU"
  bottom: "conv4_3c"
  top: "conv4_3c"
}
layer {
  name: "conv5_1c"
  type: "Convolution"
  bottom: "conv4_3c"
  top: "conv5_1c"
  param {
    name: "conv5_1_w"
    lr_mult: 1
    decay_mult: 1
  }
  param {
    name: "conv5_1_b"
    lr_mult: 2
    decay_mult: 0
  }
  convolution_param {
    num_output: 512
    pad: 2
    kernel_size: 3
    dilation: 2
  }
}
layer {
  name: "relu5_1c"
  type: "ReLU"
  bottom: "conv5_1c"
  top: "conv5_1c"
}
layer {
  name: "conv5_2c"
  type: "Convolution"
  bottom: "conv5_1c"
  top: "conv5_2c"
  param {
    name: "conv5_2_w"
    lr_mult: 1
    decay_mult: 1
  }
  param {
    name: "conv5_2_b"
    lr_mult: 2
    decay_mult: 0
  }
  convolution_param {
    num_output: 512
    pad: 2
    kernel_size: 3
    dilation: 2
  }
}
layer {
  name: "relu5_2c"
  type: "ReLU"
  bottom: "conv5_2c"
  top: "conv5_2c"
}
layer {
  name: "conv5_3c"
  type: "Convolution"
  bottom: "conv5_2c"
  top: "conv5_3c"
  param {
    name: "conv5_3_w"
    lr_mult: 1
    decay_mult: 1
  }
  param {
    name: "conv5_3_b"
    lr_mult: 2
    decay_mult: 0
  }
  convolution_param {
    num_output: 512
    kernel_size: 3
    pad_h: 14
    pad_w: 14
    dilation: 2
  }
}
layer {
  name: "relu5_3c"
  type: "ReLU"
  bottom: "conv5_3c"
  top: "conv5_3c"
}
layer {
  name: "conv1_1m"
  type: "Convolution"
  bottom: "masked_im"
  top: "conv1_1m"
  param {
    name: "conv1_1_w"
    lr_mult: 1
    decay_mult: 1
  }
  param {
    name: "conv1_1_b"
    lr_mult: 2
    decay_mult: 0
  }
  convolution_param {
    num_output: 64
    pad: 101
    kernel_size: 3
  }
}
layer {
  name: "relu1_1m"
  type: "ReLU"
  bottom: "conv1_1m"
  top: "conv1_1m"
}
layer {
  name: "conv1_2m"
  type: "Convolution"
  bottom: "conv1_1m"
  top: "conv1_2m"
  param {
    name: "conv1_2_w"
    lr_mult: 1
    decay_mult: 1
  }
  param {
    name: "conv1_2_b"
    lr_mult: 2
    decay_mult: 0
  }
  convolution_param {
    num_output: 64
    pad: 1
    kernel_size: 3
  }
}
layer {
  name: "relu1_2m"
  type: "ReLU"
  bottom: "conv1_2m"
  top: "conv1_2m"
}
layer {
  name: "pool1m"
  type: "Pooling"
  bottom: "conv1_2m"
  top: "pool1m"
  pooling_param {
    pool: MAX
    kernel_size: 2
    stride: 2
  }
}
layer {
  name: "conv2_1m"
  type: "Convolution"
  bottom: "pool1m"
  top: "conv2_1m"
  param {
    name: "conv2_1_w"
    lr_mult: 1
    decay_mult: 1
  }
  param {
    name: "conv2_1_b"
    lr_mult: 2
    decay_mult: 0
  }
  convolution_param {
    num_output: 128
    pad: 1
    kernel_size: 3
  }
}
layer {
  name: "relu2_1m"
  type: "ReLU"
  bottom: "conv2_1m"
  top: "conv2_1m"
}
layer {
  name: "conv2_2m"
  type: "Convolution"
  bottom: "conv2_1m"
  top: "conv2_2m"
  param {
    name: "conv2_2_w"
    lr_mult: 1
    decay_mult: 1
  }
  param {
    name: "conv2_2_b"
    lr_mult: 2
    decay_mult: 0
  }
  convolution_param {
    num_output: 128
    pad: 1
    kernel_size: 3
  }
}
layer {
  name: "relu2_2m"
  type: "ReLU"
  bottom: "conv2_2m"
  top: "conv2_2m"
}
layer {
  name: "pool2m"
  type: "Pooling"
  bottom: "conv2_2m"
  top: "pool2m"
  pooling_param {
    pool: MAX
    kernel_size: 2
    stride: 2
  }
}
layer {
  name: "conv3_1m"
  type: "Convolution"
  bottom: "pool2m"
  top: "conv3_1m"
  param {
    name: "conv3_1_w"
    lr_mult: 1
    decay_mult: 1
  }
  param {
    name: "conv3_1_b"
    lr_mult: 2
    decay_mult: 0
  }
  convolution_param {
    num_output: 256
    pad: 1
    kernel_size: 3
  }
}
layer {
  name: "relu3_1m"
  type: "ReLU"
  bottom: "conv3_1m"
  top: "conv3_1m"
}
layer {
  name: "conv3_2m"
  type: "Convolution"
  bottom: "conv3_1m"
  top: "conv3_2m"
  param {
    name: "conv3_2_w"
    lr_mult: 1
    decay_mult: 1
  }
  param {
    name: "conv3_2_b"
    lr_mult: 2
    decay_mult: 0
  }
  convolution_param {
    num_output: 256
    pad: 1
    kernel_size: 3
  }
}
layer {
  name: "relu3_2m"
  type: "ReLU"
  bottom: "conv3_2m"
  top: "conv3_2m"
}
layer {
  name: "conv3_3m"
  type: "Convolution"
  bottom: "conv3_2m"
  top: "conv3_3m"
  param {
    name: "conv3_3_w"
    lr_mult: 1
    decay_mult: 1
  }
  param {
    name: "conv3_3_b"
    lr_mult: 2
    decay_mult: 0
  }
  convolution_param {
    num_output: 256
    pad: 1
    kernel_size: 3
  }
}
layer {
  name: "relu3_3m"
  type: "ReLU"
  bottom: "conv3_3m"
  top: "conv3_3m"
}
layer {
  name: "pool3m"
  type: "Pooling"
  bottom: "conv3_3m"
  top: "pool3m"
  pooling_param {
    pool: MAX
    kernel_size: 2
    stride: 2
  }
}
layer {
  name: "conv4_1m"
  type: "Convolution"
  bottom: "pool3m"
  top: "conv4_1m"
  param {
    name: "conv4_1_w"
    lr_mult: 1
    decay_mult: 1
  }
  param {
    name: "conv4_1_b"
    lr_mult: 2
    decay_mult: 0
  }
  convolution_param {
    num_output: 512
    pad: 1
    kernel_size: 3
  }
}
layer {
  name: "relu4_1m"
  type: "ReLU"
  bottom: "conv4_1m"
  top: "conv4_1m"
}
layer {
  name: "conv4_2m"
  type: "Convolution"
  bottom: "conv4_1m"
  top: "conv4_2m"
  param {
    name: "conv4_2_w"
    lr_mult: 1
    decay_mult: 1
  }
  param {
    name: "conv4_2_b"
    lr_mult: 2
    decay_mult: 0
  }
  convolution_param {
    num_output: 512
    pad: 1
    kernel_size: 3
  }
}
layer {
  name: "relu4_2m"
  type: "ReLU"
  bottom: "conv4_2m"
  top: "conv4_2m"
}
layer {
  name: "conv4_3m"
  type: "Convolution"
  bottom: "conv4_2m"
  top: "conv4_3m"
  param {
    name: "conv4_3_w"
    lr_mult: 1
    decay_mult: 1
  }
  param {
    name: "conv4_3_b"
    lr_mult: 2
    decay_mult: 0
  }
  convolution_param {
    num_output: 512
    pad: 1
    kernel_size: 3
  }
}
layer {
  name: "relu4_3m"
  type: "ReLU"
  bottom: "conv4_3m"
  top: "conv4_3m"
}
layer {
  name: "conv5_1m"
  type: "Convolution"
  bottom: "conv4_3m"
  top: "conv5_1m"
  param {
    name: "conv5_1_w"
    lr_mult: 1
    decay_mult: 1
  }
  param {
    name: "conv5_1_b"
    lr_mult: 2
    decay_mult: 0
  }
  convolution_param {
    num_output: 512
    pad: 2
    kernel_size: 3
    dilation: 2
  }
}
layer {
  name: "relu5_1m"
  type: "ReLU"
  bottom: "conv5_1m"
  top: "conv5_1m"
}
layer {
  name: "conv5_2m"
  type: "Convolution"
  bottom: "conv5_1m"
  top: "conv5_2m"
  param {
    name: "conv5_2_w"
    lr_mult: 1
    decay_mult: 1
  }
  param {
    name: "conv5_2_b"
    lr_mult: 2
    decay_mult: 0
  }
  convolution_param {
    num_output: 512
    pad: 2
    kernel_size: 3
    dilation: 2
  }
}
layer {
  name: "relu5_2m"
  type: "ReLU"
  bottom: "conv5_2m"
  top: "conv5_2m"
}
layer {
  name: "conv5_3m"
  type: "Convolution"
  bottom: "conv5_2m"
  top: "conv5_3m"
  param {
    name: "conv5_3_w"
    lr_mult: 1
    decay_mult: 1
  }
  param {
    name: "conv5_3_b"
    lr_mult: 2
    decay_mult: 0
  }
  convolution_param {
    num_output: 512
    kernel_size: 3
    pad_h: 14
    pad_w: 14
    dilation: 2
  }
}
layer {
  name: "relu5_3m"
  type: "ReLU"
  bottom: "conv5_3m"
  top: "conv5_3m"
}
layer {
  name: "conv1_1n"
  type: "Convolution"
  bottom: "next_im"
  top: "conv1_1n"
  param {
    name: "conv1_1_w"
    lr_mult: 1
    decay_mult: 1
  }
  param {
    name: "conv1_1_b"
    lr_mult: 2
    decay_mult: 0
  }
  convolution_param {
    num_output: 64
    pad: 101
    kernel_size: 3
  }
}
layer {
  name: "relu1_1n"
  type: "ReLU"
  bottom: "conv1_1n"
  top: "conv1_1n"
}
layer {
  name: "conv1_2n"
  type: "Convolution"
  bottom: "conv1_1n"
  top: "conv1_2n"
  param {
    name: "conv1_2_w"
    lr_mult: 1
    decay_mult: 1
  }
  param {
    name: "conv1_2_b"
    lr_mult: 2
    decay_mult: 0
  }
  convolution_param {
    num_output: 64
    pad: 1
    kernel_size: 3
  }
}
layer {
  name: "relu1_2n"
  type: "ReLU"
  bottom: "conv1_2n"
  top: "conv1_2n"
}
layer {
  name: "pool1n"
  type: "Pooling"
  bottom: "conv1_2n"
  top: "pool1n"
  pooling_param {
    pool: MAX
    kernel_size: 2
    stride: 2
  }
}
layer {
  name: "conv2_1n"
  type: "Convolution"
  bottom: "pool1n"
  top: "conv2_1n"
  param {
    name: "conv2_1_w"
    lr_mult: 1
    decay_mult: 1
  }
  param {
    name: "conv2_1_b"
    lr_mult: 2
    decay_mult: 0
  }
  convolution_param {
    num_output: 128
    pad: 1
    kernel_size: 3
  }
}
layer {
  name: "relu2_1n"
  type: "ReLU"
  bottom: "conv2_1n"
  top: "conv2_1n"
}
layer {
  name: "conv2_2n"
  type: "Convolution"
  bottom: "conv2_1n"
  top: "conv2_2n"
  param {
    name: "conv2_2_w"
    lr_mult: 1
    decay_mult: 1
  }
  param {
    name: "conv2_2_b"
    lr_mult: 2
    decay_mult: 0
  }
  convolution_param {
    num_output: 128
    pad: 1
    kernel_size: 3
  }
}
layer {
  name: "relu2_2n"
  type: "ReLU"
  bottom: "conv2_2n"
  top: "conv2_2n"
}
layer {
  name: "pool2n"
  type: "Pooling"
  bottom: "conv2_2n"
  top: "pool2n"
  pooling_param {
    pool: MAX
    kernel_size: 2
    stride: 2
  }
}
layer {
  name: "conv3_1n"
  type: "Convolution"
  bottom: "pool2n"
  top: "conv3_1n"
  param {
    name: "conv3_1_w"
    lr_mult: 1
    decay_mult: 1
  }
  param {
    name: "conv3_1_b"
    lr_mult: 2
    decay_mult: 0
  }
  convolution_param {
    num_output: 256
    pad: 1
    kernel_size: 3
  }
}
layer {
  name: "relu3_1n"
  type: "ReLU"
  bottom: "conv3_1n"
  top: "conv3_1n"
}
layer {
  name: "conv3_2n"
  type: "Convolution"
  bottom: "conv3_1n"
  top: "conv3_2n"
  param {
    name: "conv3_2_w"
    lr_mult: 1
    decay_mult: 1
  }
  param {
    name: "conv3_2_b"
    lr_mult: 2
    decay_mult: 0
  }
  convolution_param {
    num_output: 256
    pad: 1
    kernel_size: 3
  }
}
layer {
  name: "relu3_2n"
  type: "ReLU"
  bottom: "conv3_2n"
  top: "conv3_2n"
}
layer {
  name: "conv3_3n"
  type: "Convolution"
  bottom: "conv3_2n"
  top: "conv3_3n"
  param {
    name: "conv3_3_w"
    lr_mult: 1
    decay_mult: 1
  }
  param {
    name: "conv3_3_b"
    lr_mult: 2
    decay_mult: 0
  }
  convolution_param {
    num_output: 256
    pad: 1
    kernel_size: 3
  }
}
layer {
  name: "relu3_3n"
  type: "ReLU"
  bottom: "conv3_3n"
  top: "conv3_3n"
}
layer {
  name: "pool3n"
  type: "Pooling"
  bottom: "conv3_3n"
  top: "pool3n"
  pooling_param {
    pool: MAX
    kernel_size: 2
    stride: 2
  }
}
layer {
  name: "conv4_1n"
  type: "Convolution"
  bottom: "pool3n"
  top: "conv4_1n"
  param {
    name: "conv4_1_w"
    lr_mult: 1
    decay_mult: 1
  }
  param {
    name: "conv4_1_b"
    lr_mult: 2
    decay_mult: 0
  }
  convolution_param {
    num_output: 512
    pad: 1
    kernel_size: 3
  }
}
layer {
  name: "relu4_1n"
  type: "ReLU"
  bottom: "conv4_1n"
  top: "conv4_1n"
}
layer {
  name: "conv4_2n"
  type: "Convolution"
  bottom: "conv4_1n"
  top: "conv4_2n"
  param {
    name: "conv4_2_w"
    lr_mult: 1
    decay_mult: 1
  }
  param {
    name: "conv4_2_b"
    lr_mult: 2
    decay_mult: 0
  }
  convolution_param {
    num_output: 512
    pad: 1
    kernel_size: 3
  }
}
layer {
  name: "relu4_2n"
  type: "ReLU"
  bottom: "conv4_2n"
  top: "conv4_2n"
}
layer {
  name: "conv4_3n"
  type: "Convolution"
  bottom: "conv4_2n"
  top: "conv4_3n"
  param {
    name: "conv4_3_w"
    lr_mult: 1
    decay_mult: 1
  }
  param {
    name: "conv4_3_b"
    lr_mult: 2
    decay_mult: 0
  }
  convolution_param {
    num_output: 512
    pad: 1
    kernel_size: 3
  }
}
layer {
  name: "relu4_3n"
  type: "ReLU"
  bottom: "conv4_3n"
  top: "conv4_3n"
}
layer {
  name: "conv5_1n"
  type: "Convolution"
  bottom: "conv4_3n"
  top: "conv5_1n"
  param {
    name: "conv5_1_w"
    lr_mult: 1
    decay_mult: 1
  }
  param {
    name: "conv5_1_b"
    lr_mult: 2
    decay_mult: 0
  }
  convolution_param {
    num_output: 512
    pad: 2
    kernel_size: 3
    dilation: 2
  }
}
layer {
  name: "relu5_1n"
  type: "ReLU"
  bottom: "conv5_1n"
  top: "conv5_1n"
}
layer {
  name: "conv5_2n"
  type: "Convolution"
  bottom: "conv5_1n"
  top: "conv5_2n"
  param {
    name: "conv5_2_w"
    lr_mult: 1
    decay_mult: 1
  }
  param {
    name: "conv5_2_b"
    lr_mult: 2
    decay_mult: 0
  }
  convolution_param {
    num_output: 512
    pad: 2
    kernel_size: 3
    dilation: 2
  }
}
layer {
  name: "relu5_2n"
  type: "ReLU"
  bottom: "conv5_2n"
  top: "conv5_2n"
}
layer {
  name: "conv5_3n"
  type: "Convolution"
  bottom: "conv5_2n"
  top: "conv5_3n"
  param {
    name: "conv5_3_w"
    lr_mult: 1
    decay_mult: 1
  }
  param {
    name: "conv5_3_b"
    lr_mult: 2
    decay_mult: 0
  }
  convolution_param {
    num_output: 512
    pad: 2
    kernel_size: 3
    dilation: 2
  }
}
layer {
  name: "relu5_3n"
  type: "ReLU"
  bottom: "conv5_3n"
  top: "conv5_3n"
}
layer {
  name: "concat1"
  type: "Concat"
  bottom: "conv5_3c"
  bottom: "conv5_3m"
  bottom: "conv5_3n"
  top: "concat1"
}
layer {
  name: "fc6"
  type: "Convolution"
  bottom: "concat1"
  top: "fc6"
  param {
    lr_mult: 1
    decay_mult: 1
  }
  param {
    lr_mult: 2
    decay_mult: 0
  }
  convolution_param {
    num_output: 1024
    kernel_size: 7
    dilation: 4
  }
}
layer {
  name: "relu6"
  type: "ReLU"
  bottom: "fc6"
  top: "fc6"
}
layer {
  name: "drop6"
  type: "Dropout"
  bottom: "fc6"
  top: "fc6"
  dropout_param {
    dropout_ratio: 0.5
  }
}
layer {
  name: "fc7"
  type: "Convolution"
  bottom: "fc6"
  top: "fc7"
  param {
    lr_mult: 1
    decay_mult: 1
  }
  param {
    lr_mult: 2
    decay_mult: 0
  }
  convolution_param {
    num_output: 1024
    kernel_size: 1
  }
}
layer {
  name: "relu7"
  type: "ReLU"
  bottom: "fc7"
  top: "fc7"
}
layer {
  name: "drop7"
  type: "Dropout"
  bottom: "fc7"
  top: "fc7"
  dropout_param {
    dropout_ratio: 0.5
  }
}
layer {
  name: "fc8"
  type: "Convolution"
  bottom: "fc7"
  top: "fc8"
  param {
    lr_mult: 1
    decay_mult: 1
  }
  param {
    lr_mult: 2
    decay_mult: 0
  }
  convolution_param {
    num_output: 2
    kernel_size: 1
  }
}
layer {
  name: "upscore"
  type: "Deconvolution"
  bottom: "fc8"
  top: "upscore"
  param {
    lr_mult: 0
    decay_mult: 0
  }
  convolution_param {
    num_output: 2
    bias_term: false
    kernel_size: 16
    group: 2
    stride: 8
    weight_filler {
      type: "bilinear"
    }
  }
}
layer {
  name: "score"
  type: "Crop"
  bottom: "upscore"
  bottom: "next_im"
  top: "score"
  crop_param {
    axis: 2
    offset: 8
  }
}
layer {
  name: "loss"
  type: "SoftmaxWithLoss"
  bottom: "score"
  bottom: "label"
  top: "loss"
  loss_param {
    ignore_label: 255
  }
}
layer {
  name: "clinet_top"
  type: "Python"
  bottom: "score"
  top: "clinet_top"
  python_param {
    module: "davis_datalayer_client"
    layer: "DavisDataLayerClient"
    param_str: "{\'port\': \'6678\'}"
  }
}
I0701 02:35:52.661289 10927 layer_factory.hpp:77] Creating layer cur_im
/home/amir/davis/python/lib/davis/measures/t_stability.py:6: RuntimeWarning: to-Python converter for std::vector<bool, std::allocator<bool> > already registered; second conversion method ignored.
  from tstab import *
I0701 02:35:53.255022 10927 net.cpp:91] Creating Layer cur_im
I0701 02:35:53.255056 10927 net.cpp:399] cur_im -> cur_im
I0701 02:35:53.255070 10927 net.cpp:399] cur_im -> masked_im
I0701 02:35:53.255079 10927 net.cpp:399] cur_im -> next_im
I0701 02:35:53.255084 10927 net.cpp:399] cur_im -> label
I0701 02:35:53.300565 10927 net.cpp:141] Setting up cur_im
I0701 02:35:53.300597 10927 net.cpp:148] Top shape: 4 3 192 192 (442368)
I0701 02:35:53.300601 10927 net.cpp:148] Top shape: 4 3 192 192 (442368)
I0701 02:35:53.300604 10927 net.cpp:148] Top shape: 4 3 384 384 (1769472)
I0701 02:35:53.300606 10927 net.cpp:148] Top shape: 4 1 384 384 (589824)
I0701 02:35:53.300608 10927 net.cpp:156] Memory required for data: 12976128
I0701 02:35:53.300626 10927 layer_factory.hpp:77] Creating layer next_im_cur_im_2_split
I0701 02:35:53.300649 10927 net.cpp:91] Creating Layer next_im_cur_im_2_split
I0701 02:35:53.300654 10927 net.cpp:425] next_im_cur_im_2_split <- next_im
I0701 02:35:53.300668 10927 net.cpp:399] next_im_cur_im_2_split -> next_im_cur_im_2_split_0
I0701 02:35:53.300680 10927 net.cpp:399] next_im_cur_im_2_split -> next_im_cur_im_2_split_1
I0701 02:35:53.300719 10927 net.cpp:141] Setting up next_im_cur_im_2_split
I0701 02:35:53.300729 10927 net.cpp:148] Top shape: 4 3 384 384 (1769472)
I0701 02:35:53.300734 10927 net.cpp:148] Top shape: 4 3 384 384 (1769472)
I0701 02:35:53.300739 10927 net.cpp:156] Memory required for data: 27131904
I0701 02:35:53.300742 10927 layer_factory.hpp:77] Creating layer conv1_1c
I0701 02:35:53.300758 10927 net.cpp:91] Creating Layer conv1_1c
I0701 02:35:53.300765 10927 net.cpp:425] conv1_1c <- cur_im
I0701 02:35:53.300783 10927 net.cpp:399] conv1_1c -> conv1_1c
I0701 02:35:53.425290 10927 net.cpp:141] Setting up conv1_1c
I0701 02:35:53.425321 10927 net.cpp:148] Top shape: 4 64 392 392 (39337984)
I0701 02:35:53.425326 10927 net.cpp:156] Memory required for data: 184483840
I0701 02:35:53.425351 10927 layer_factory.hpp:77] Creating layer relu1_1c
I0701 02:35:53.425367 10927 net.cpp:91] Creating Layer relu1_1c
I0701 02:35:53.425371 10927 net.cpp:425] relu1_1c <- conv1_1c
I0701 02:35:53.425379 10927 net.cpp:386] relu1_1c -> conv1_1c (in-place)
I0701 02:35:53.425828 10927 net.cpp:141] Setting up relu1_1c
I0701 02:35:53.425840 10927 net.cpp:148] Top shape: 4 64 392 392 (39337984)
I0701 02:35:53.425844 10927 net.cpp:156] Memory required for data: 341835776
I0701 02:35:53.425848 10927 layer_factory.hpp:77] Creating layer conv1_2c
I0701 02:35:53.425863 10927 net.cpp:91] Creating Layer conv1_2c
I0701 02:35:53.425868 10927 net.cpp:425] conv1_2c <- conv1_1c
I0701 02:35:53.425874 10927 net.cpp:399] conv1_2c -> conv1_2c
I0701 02:35:53.427525 10927 net.cpp:141] Setting up conv1_2c
I0701 02:35:53.427551 10927 net.cpp:148] Top shape: 4 64 392 392 (39337984)
I0701 02:35:53.427553 10927 net.cpp:156] Memory required for data: 499187712
I0701 02:35:53.427566 10927 layer_factory.hpp:77] Creating layer relu1_2c
I0701 02:35:53.427574 10927 net.cpp:91] Creating Layer relu1_2c
I0701 02:35:53.427587 10927 net.cpp:425] relu1_2c <- conv1_2c
I0701 02:35:53.427592 10927 net.cpp:386] relu1_2c -> conv1_2c (in-place)
I0701 02:35:53.427796 10927 net.cpp:141] Setting up relu1_2c
I0701 02:35:53.427804 10927 net.cpp:148] Top shape: 4 64 392 392 (39337984)
I0701 02:35:53.427806 10927 net.cpp:156] Memory required for data: 656539648
I0701 02:35:53.427809 10927 layer_factory.hpp:77] Creating layer pool1c
I0701 02:35:53.427817 10927 net.cpp:91] Creating Layer pool1c
I0701 02:35:53.427819 10927 net.cpp:425] pool1c <- conv1_2c
I0701 02:35:53.427826 10927 net.cpp:399] pool1c -> pool1c
I0701 02:35:53.427886 10927 net.cpp:141] Setting up pool1c
I0701 02:35:53.427892 10927 net.cpp:148] Top shape: 4 64 196 196 (9834496)
I0701 02:35:53.427894 10927 net.cpp:156] Memory required for data: 695877632
I0701 02:35:53.427898 10927 layer_factory.hpp:77] Creating layer conv2_1c
I0701 02:35:53.427908 10927 net.cpp:91] Creating Layer conv2_1c
I0701 02:35:53.427911 10927 net.cpp:425] conv2_1c <- pool1c
I0701 02:35:53.427914 10927 net.cpp:399] conv2_1c -> conv2_1c
I0701 02:35:53.428694 10927 net.cpp:141] Setting up conv2_1c
I0701 02:35:53.428704 10927 net.cpp:148] Top shape: 4 128 196 196 (19668992)
I0701 02:35:53.428706 10927 net.cpp:156] Memory required for data: 774553600
I0701 02:35:53.428714 10927 layer_factory.hpp:77] Creating layer relu2_1c
I0701 02:35:53.428720 10927 net.cpp:91] Creating Layer relu2_1c
I0701 02:35:53.428722 10927 net.cpp:425] relu2_1c <- conv2_1c
I0701 02:35:53.428727 10927 net.cpp:386] relu2_1c -> conv2_1c (in-place)
I0701 02:35:53.428844 10927 net.cpp:141] Setting up relu2_1c
I0701 02:35:53.428851 10927 net.cpp:148] Top shape: 4 128 196 196 (19668992)
I0701 02:35:53.428853 10927 net.cpp:156] Memory required for data: 853229568
I0701 02:35:53.428855 10927 layer_factory.hpp:77] Creating layer conv2_2c
I0701 02:35:53.428865 10927 net.cpp:91] Creating Layer conv2_2c
I0701 02:35:53.428876 10927 net.cpp:425] conv2_2c <- conv2_1c
I0701 02:35:53.428880 10927 net.cpp:399] conv2_2c -> conv2_2c
I0701 02:35:53.429927 10927 net.cpp:141] Setting up conv2_2c
I0701 02:35:53.429944 10927 net.cpp:148] Top shape: 4 128 196 196 (19668992)
I0701 02:35:53.429949 10927 net.cpp:156] Memory required for data: 931905536
I0701 02:35:53.429956 10927 layer_factory.hpp:77] Creating layer relu2_2c
I0701 02:35:53.429965 10927 net.cpp:91] Creating Layer relu2_2c
I0701 02:35:53.429968 10927 net.cpp:425] relu2_2c <- conv2_2c
I0701 02:35:53.429975 10927 net.cpp:386] relu2_2c -> conv2_2c (in-place)
I0701 02:35:53.430124 10927 net.cpp:141] Setting up relu2_2c
I0701 02:35:53.430133 10927 net.cpp:148] Top shape: 4 128 196 196 (19668992)
I0701 02:35:53.430140 10927 net.cpp:156] Memory required for data: 1010581504
I0701 02:35:53.430145 10927 layer_factory.hpp:77] Creating layer pool2c
I0701 02:35:53.430153 10927 net.cpp:91] Creating Layer pool2c
I0701 02:35:53.430157 10927 net.cpp:425] pool2c <- conv2_2c
I0701 02:35:53.430162 10927 net.cpp:399] pool2c -> pool2c
I0701 02:35:53.430197 10927 net.cpp:141] Setting up pool2c
I0701 02:35:53.430204 10927 net.cpp:148] Top shape: 4 128 98 98 (4917248)
I0701 02:35:53.430208 10927 net.cpp:156] Memory required for data: 1030250496
I0701 02:35:53.430212 10927 layer_factory.hpp:77] Creating layer conv3_1c
I0701 02:35:53.430218 10927 net.cpp:91] Creating Layer conv3_1c
I0701 02:35:53.430222 10927 net.cpp:425] conv3_1c <- pool2c
I0701 02:35:53.430227 10927 net.cpp:399] conv3_1c -> conv3_1c
I0701 02:35:53.431815 10927 net.cpp:141] Setting up conv3_1c
I0701 02:35:53.431826 10927 net.cpp:148] Top shape: 4 256 98 98 (9834496)
I0701 02:35:53.431830 10927 net.cpp:156] Memory required for data: 1069588480
I0701 02:35:53.431840 10927 layer_factory.hpp:77] Creating layer relu3_1c
I0701 02:35:53.431850 10927 net.cpp:91] Creating Layer relu3_1c
I0701 02:35:53.431854 10927 net.cpp:425] relu3_1c <- conv3_1c
I0701 02:35:53.431860 10927 net.cpp:386] relu3_1c -> conv3_1c (in-place)
I0701 02:35:53.432092 10927 net.cpp:141] Setting up relu3_1c
I0701 02:35:53.432102 10927 net.cpp:148] Top shape: 4 256 98 98 (9834496)
I0701 02:35:53.432106 10927 net.cpp:156] Memory required for data: 1108926464
I0701 02:35:53.432111 10927 layer_factory.hpp:77] Creating layer conv3_2c
I0701 02:35:53.432121 10927 net.cpp:91] Creating Layer conv3_2c
I0701 02:35:53.432126 10927 net.cpp:425] conv3_2c <- conv3_1c
I0701 02:35:53.432132 10927 net.cpp:399] conv3_2c -> conv3_2c
I0701 02:35:53.433743 10927 net.cpp:141] Setting up conv3_2c
I0701 02:35:53.433755 10927 net.cpp:148] Top shape: 4 256 98 98 (9834496)
I0701 02:35:53.433759 10927 net.cpp:156] Memory required for data: 1148264448
I0701 02:35:53.433765 10927 layer_factory.hpp:77] Creating layer relu3_2c
I0701 02:35:53.433771 10927 net.cpp:91] Creating Layer relu3_2c
I0701 02:35:53.433774 10927 net.cpp:425] relu3_2c <- conv3_2c
I0701 02:35:53.433780 10927 net.cpp:386] relu3_2c -> conv3_2c (in-place)
I0701 02:35:53.433940 10927 net.cpp:141] Setting up relu3_2c
I0701 02:35:53.433949 10927 net.cpp:148] Top shape: 4 256 98 98 (9834496)
I0701 02:35:53.433953 10927 net.cpp:156] Memory required for data: 1187602432
I0701 02:35:53.433954 10927 layer_factory.hpp:77] Creating layer conv3_3c
I0701 02:35:53.433962 10927 net.cpp:91] Creating Layer conv3_3c
I0701 02:35:53.433965 10927 net.cpp:425] conv3_3c <- conv3_2c
I0701 02:35:53.433972 10927 net.cpp:399] conv3_3c -> conv3_3c
I0701 02:35:53.435194 10927 net.cpp:141] Setting up conv3_3c
I0701 02:35:53.435204 10927 net.cpp:148] Top shape: 4 256 98 98 (9834496)
I0701 02:35:53.435206 10927 net.cpp:156] Memory required for data: 1226940416
I0701 02:35:53.435210 10927 layer_factory.hpp:77] Creating layer relu3_3c
I0701 02:35:53.435219 10927 net.cpp:91] Creating Layer relu3_3c
I0701 02:35:53.435220 10927 net.cpp:425] relu3_3c <- conv3_3c
I0701 02:35:53.435223 10927 net.cpp:386] relu3_3c -> conv3_3c (in-place)
I0701 02:35:53.435330 10927 net.cpp:141] Setting up relu3_3c
I0701 02:35:53.435336 10927 net.cpp:148] Top shape: 4 256 98 98 (9834496)
I0701 02:35:53.435346 10927 net.cpp:156] Memory required for data: 1266278400
I0701 02:35:53.435349 10927 layer_factory.hpp:77] Creating layer pool3c
I0701 02:35:53.435353 10927 net.cpp:91] Creating Layer pool3c
I0701 02:35:53.435356 10927 net.cpp:425] pool3c <- conv3_3c
I0701 02:35:53.435359 10927 net.cpp:399] pool3c -> pool3c
I0701 02:35:53.435386 10927 net.cpp:141] Setting up pool3c
I0701 02:35:53.435389 10927 net.cpp:148] Top shape: 4 256 49 49 (2458624)
I0701 02:35:53.435391 10927 net.cpp:156] Memory required for data: 1276112896
I0701 02:35:53.435394 10927 layer_factory.hpp:77] Creating layer conv4_1c
I0701 02:35:53.435398 10927 net.cpp:91] Creating Layer conv4_1c
I0701 02:35:53.435401 10927 net.cpp:425] conv4_1c <- pool3c
I0701 02:35:53.435405 10927 net.cpp:399] conv4_1c -> conv4_1c
I0701 02:35:53.437520 10927 net.cpp:141] Setting up conv4_1c
I0701 02:35:53.437544 10927 net.cpp:148] Top shape: 4 512 49 49 (4917248)
I0701 02:35:53.437546 10927 net.cpp:156] Memory required for data: 1295781888
I0701 02:35:53.437552 10927 layer_factory.hpp:77] Creating layer relu4_1c
I0701 02:35:53.437557 10927 net.cpp:91] Creating Layer relu4_1c
I0701 02:35:53.437561 10927 net.cpp:425] relu4_1c <- conv4_1c
I0701 02:35:53.437564 10927 net.cpp:386] relu4_1c -> conv4_1c (in-place)
I0701 02:35:53.437755 10927 net.cpp:141] Setting up relu4_1c
I0701 02:35:53.437762 10927 net.cpp:148] Top shape: 4 512 49 49 (4917248)
I0701 02:35:53.437765 10927 net.cpp:156] Memory required for data: 1315450880
I0701 02:35:53.437767 10927 layer_factory.hpp:77] Creating layer conv4_2c
I0701 02:35:53.437778 10927 net.cpp:91] Creating Layer conv4_2c
I0701 02:35:53.437783 10927 net.cpp:425] conv4_2c <- conv4_1c
I0701 02:35:53.437788 10927 net.cpp:399] conv4_2c -> conv4_2c
I0701 02:35:53.441169 10927 net.cpp:141] Setting up conv4_2c
I0701 02:35:53.441200 10927 net.cpp:148] Top shape: 4 512 49 49 (4917248)
I0701 02:35:53.441203 10927 net.cpp:156] Memory required for data: 1335119872
I0701 02:35:53.441218 10927 layer_factory.hpp:77] Creating layer relu4_2c
I0701 02:35:53.441226 10927 net.cpp:91] Creating Layer relu4_2c
I0701 02:35:53.441231 10927 net.cpp:425] relu4_2c <- conv4_2c
I0701 02:35:53.441234 10927 net.cpp:386] relu4_2c -> conv4_2c (in-place)
I0701 02:35:53.441359 10927 net.cpp:141] Setting up relu4_2c
I0701 02:35:53.441367 10927 net.cpp:148] Top shape: 4 512 49 49 (4917248)
I0701 02:35:53.441370 10927 net.cpp:156] Memory required for data: 1354788864
I0701 02:35:53.441372 10927 layer_factory.hpp:77] Creating layer conv4_3c
I0701 02:35:53.441382 10927 net.cpp:91] Creating Layer conv4_3c
I0701 02:35:53.441385 10927 net.cpp:425] conv4_3c <- conv4_2c
I0701 02:35:53.441390 10927 net.cpp:399] conv4_3c -> conv4_3c
I0701 02:35:53.445210 10927 net.cpp:141] Setting up conv4_3c
I0701 02:35:53.445230 10927 net.cpp:148] Top shape: 4 512 49 49 (4917248)
I0701 02:35:53.445232 10927 net.cpp:156] Memory required for data: 1374457856
I0701 02:35:53.445240 10927 layer_factory.hpp:77] Creating layer relu4_3c
I0701 02:35:53.445248 10927 net.cpp:91] Creating Layer relu4_3c
I0701 02:35:53.445253 10927 net.cpp:425] relu4_3c <- conv4_3c
I0701 02:35:53.445266 10927 net.cpp:386] relu4_3c -> conv4_3c (in-place)
I0701 02:35:53.445379 10927 net.cpp:141] Setting up relu4_3c
I0701 02:35:53.445384 10927 net.cpp:148] Top shape: 4 512 49 49 (4917248)
I0701 02:35:53.445386 10927 net.cpp:156] Memory required for data: 1394126848
I0701 02:35:53.445389 10927 layer_factory.hpp:77] Creating layer conv5_1c
I0701 02:35:53.445396 10927 net.cpp:91] Creating Layer conv5_1c
I0701 02:35:53.445399 10927 net.cpp:425] conv5_1c <- conv4_3c
I0701 02:35:53.445402 10927 net.cpp:399] conv5_1c -> conv5_1c
I0701 02:35:53.448235 10927 net.cpp:141] Setting up conv5_1c
I0701 02:35:53.448251 10927 net.cpp:148] Top shape: 4 512 49 49 (4917248)
I0701 02:35:53.448254 10927 net.cpp:156] Memory required for data: 1413795840
I0701 02:35:53.448262 10927 layer_factory.hpp:77] Creating layer relu5_1c
I0701 02:35:53.448267 10927 net.cpp:91] Creating Layer relu5_1c
I0701 02:35:53.448271 10927 net.cpp:425] relu5_1c <- conv5_1c
I0701 02:35:53.448288 10927 net.cpp:386] relu5_1c -> conv5_1c (in-place)
I0701 02:35:53.448547 10927 net.cpp:141] Setting up relu5_1c
I0701 02:35:53.448555 10927 net.cpp:148] Top shape: 4 512 49 49 (4917248)
I0701 02:35:53.448559 10927 net.cpp:156] Memory required for data: 1433464832
I0701 02:35:53.448560 10927 layer_factory.hpp:77] Creating layer conv5_2c
I0701 02:35:53.448567 10927 net.cpp:91] Creating Layer conv5_2c
I0701 02:35:53.448570 10927 net.cpp:425] conv5_2c <- conv5_1c
I0701 02:35:53.448575 10927 net.cpp:399] conv5_2c -> conv5_2c
I0701 02:35:53.451462 10927 net.cpp:141] Setting up conv5_2c
I0701 02:35:53.451480 10927 net.cpp:148] Top shape: 4 512 49 49 (4917248)
I0701 02:35:53.451483 10927 net.cpp:156] Memory required for data: 1453133824
I0701 02:35:53.451489 10927 layer_factory.hpp:77] Creating layer relu5_2c
I0701 02:35:53.451496 10927 net.cpp:91] Creating Layer relu5_2c
I0701 02:35:53.451506 10927 net.cpp:425] relu5_2c <- conv5_2c
I0701 02:35:53.451511 10927 net.cpp:386] relu5_2c -> conv5_2c (in-place)
I0701 02:35:53.451794 10927 net.cpp:141] Setting up relu5_2c
I0701 02:35:53.451805 10927 net.cpp:148] Top shape: 4 512 49 49 (4917248)
I0701 02:35:53.451809 10927 net.cpp:156] Memory required for data: 1472802816
I0701 02:35:53.451812 10927 layer_factory.hpp:77] Creating layer conv5_3c
I0701 02:35:53.451824 10927 net.cpp:91] Creating Layer conv5_3c
I0701 02:35:53.451831 10927 net.cpp:425] conv5_3c <- conv5_2c
I0701 02:35:53.451838 10927 net.cpp:399] conv5_3c -> conv5_3c
I0701 02:35:53.455364 10927 net.cpp:141] Setting up conv5_3c
I0701 02:35:53.455384 10927 net.cpp:148] Top shape: 4 512 73 73 (10913792)
I0701 02:35:53.455387 10927 net.cpp:156] Memory required for data: 1516457984
I0701 02:35:53.455397 10927 layer_factory.hpp:77] Creating layer relu5_3c
I0701 02:35:53.455405 10927 net.cpp:91] Creating Layer relu5_3c
I0701 02:35:53.455410 10927 net.cpp:425] relu5_3c <- conv5_3c
I0701 02:35:53.455416 10927 net.cpp:386] relu5_3c -> conv5_3c (in-place)
I0701 02:35:53.455674 10927 net.cpp:141] Setting up relu5_3c
I0701 02:35:53.455687 10927 net.cpp:148] Top shape: 4 512 73 73 (10913792)
I0701 02:35:53.455693 10927 net.cpp:156] Memory required for data: 1560113152
I0701 02:35:53.455698 10927 layer_factory.hpp:77] Creating layer conv1_1m
I0701 02:35:53.455710 10927 net.cpp:91] Creating Layer conv1_1m
I0701 02:35:53.455716 10927 net.cpp:425] conv1_1m <- masked_im
I0701 02:35:53.455725 10927 net.cpp:399] conv1_1m -> conv1_1m
I0701 02:35:53.456986 10927 net.cpp:141] Setting up conv1_1m
I0701 02:35:53.456997 10927 net.cpp:148] Top shape: 4 64 392 392 (39337984)
I0701 02:35:53.457000 10927 net.cpp:156] Memory required for data: 1717465088
I0701 02:35:53.457003 10927 net.cpp:484] Sharing parameters 'conv1_1_w' owned by layer 'conv1_1c', param index 0
I0701 02:35:53.457006 10927 net.cpp:484] Sharing parameters 'conv1_1_b' owned by layer 'conv1_1c', param index 1
I0701 02:35:53.457008 10927 layer_factory.hpp:77] Creating layer relu1_1m
I0701 02:35:53.457015 10927 net.cpp:91] Creating Layer relu1_1m
I0701 02:35:53.457018 10927 net.cpp:425] relu1_1m <- conv1_1m
I0701 02:35:53.457025 10927 net.cpp:386] relu1_1m -> conv1_1m (in-place)
I0701 02:35:53.457144 10927 net.cpp:141] Setting up relu1_1m
I0701 02:35:53.457151 10927 net.cpp:148] Top shape: 4 64 392 392 (39337984)
I0701 02:35:53.457154 10927 net.cpp:156] Memory required for data: 1874817024
I0701 02:35:53.457159 10927 layer_factory.hpp:77] Creating layer conv1_2m
I0701 02:35:53.457164 10927 net.cpp:91] Creating Layer conv1_2m
I0701 02:35:53.457165 10927 net.cpp:425] conv1_2m <- conv1_1m
I0701 02:35:53.457170 10927 net.cpp:399] conv1_2m -> conv1_2m
I0701 02:35:53.458133 10927 net.cpp:141] Setting up conv1_2m
I0701 02:35:53.458143 10927 net.cpp:148] Top shape: 4 64 392 392 (39337984)
I0701 02:35:53.458145 10927 net.cpp:156] Memory required for data: 2032168960
I0701 02:35:53.458148 10927 net.cpp:484] Sharing parameters 'conv1_2_w' owned by layer 'conv1_2c', param index 0
I0701 02:35:53.458151 10927 net.cpp:484] Sharing parameters 'conv1_2_b' owned by layer 'conv1_2c', param index 1
I0701 02:35:53.458163 10927 layer_factory.hpp:77] Creating layer relu1_2m
I0701 02:35:53.458166 10927 net.cpp:91] Creating Layer relu1_2m
I0701 02:35:53.458169 10927 net.cpp:425] relu1_2m <- conv1_2m
I0701 02:35:53.458175 10927 net.cpp:386] relu1_2m -> conv1_2m (in-place)
I0701 02:35:53.458369 10927 net.cpp:141] Setting up relu1_2m
I0701 02:35:53.458377 10927 net.cpp:148] Top shape: 4 64 392 392 (39337984)
I0701 02:35:53.458379 10927 net.cpp:156] Memory required for data: 2189520896
I0701 02:35:53.458384 10927 layer_factory.hpp:77] Creating layer pool1m
I0701 02:35:53.458398 10927 net.cpp:91] Creating Layer pool1m
I0701 02:35:53.458400 10927 net.cpp:425] pool1m <- conv1_2m
I0701 02:35:53.458405 10927 net.cpp:399] pool1m -> pool1m
I0701 02:35:53.458437 10927 net.cpp:141] Setting up pool1m
I0701 02:35:53.458442 10927 net.cpp:148] Top shape: 4 64 196 196 (9834496)
I0701 02:35:53.458444 10927 net.cpp:156] Memory required for data: 2228858880
I0701 02:35:53.458447 10927 layer_factory.hpp:77] Creating layer conv2_1m
I0701 02:35:53.458453 10927 net.cpp:91] Creating Layer conv2_1m
I0701 02:35:53.458456 10927 net.cpp:425] conv2_1m <- pool1m
I0701 02:35:53.458459 10927 net.cpp:399] conv2_1m -> conv2_1m
I0701 02:35:53.459213 10927 net.cpp:141] Setting up conv2_1m
I0701 02:35:53.459224 10927 net.cpp:148] Top shape: 4 128 196 196 (19668992)
I0701 02:35:53.459228 10927 net.cpp:156] Memory required for data: 2307534848
I0701 02:35:53.459230 10927 net.cpp:484] Sharing parameters 'conv2_1_w' owned by layer 'conv2_1c', param index 0
I0701 02:35:53.459234 10927 net.cpp:484] Sharing parameters 'conv2_1_b' owned by layer 'conv2_1c', param index 1
I0701 02:35:53.459239 10927 layer_factory.hpp:77] Creating layer relu2_1m
I0701 02:35:53.459245 10927 net.cpp:91] Creating Layer relu2_1m
I0701 02:35:53.459249 10927 net.cpp:425] relu2_1m <- conv2_1m
I0701 02:35:53.459251 10927 net.cpp:386] relu2_1m -> conv2_1m (in-place)
I0701 02:35:53.459368 10927 net.cpp:141] Setting up relu2_1m
I0701 02:35:53.459374 10927 net.cpp:148] Top shape: 4 128 196 196 (19668992)
I0701 02:35:53.459377 10927 net.cpp:156] Memory required for data: 2386210816
I0701 02:35:53.459378 10927 layer_factory.hpp:77] Creating layer conv2_2m
I0701 02:35:53.459386 10927 net.cpp:91] Creating Layer conv2_2m
I0701 02:35:53.459389 10927 net.cpp:425] conv2_2m <- conv2_1m
I0701 02:35:53.459393 10927 net.cpp:399] conv2_2m -> conv2_2m
I0701 02:35:53.460485 10927 net.cpp:141] Setting up conv2_2m
I0701 02:35:53.460494 10927 net.cpp:148] Top shape: 4 128 196 196 (19668992)
I0701 02:35:53.460497 10927 net.cpp:156] Memory required for data: 2464886784
I0701 02:35:53.460505 10927 net.cpp:484] Sharing parameters 'conv2_2_w' owned by layer 'conv2_2c', param index 0
I0701 02:35:53.460508 10927 net.cpp:484] Sharing parameters 'conv2_2_b' owned by layer 'conv2_2c', param index 1
I0701 02:35:53.460510 10927 layer_factory.hpp:77] Creating layer relu2_2m
I0701 02:35:53.460515 10927 net.cpp:91] Creating Layer relu2_2m
I0701 02:35:53.460516 10927 net.cpp:425] relu2_2m <- conv2_2m
I0701 02:35:53.460520 10927 net.cpp:386] relu2_2m -> conv2_2m (in-place)
I0701 02:35:53.460635 10927 net.cpp:141] Setting up relu2_2m
I0701 02:35:53.460641 10927 net.cpp:148] Top shape: 4 128 196 196 (19668992)
I0701 02:35:53.460644 10927 net.cpp:156] Memory required for data: 2543562752
I0701 02:35:53.460645 10927 layer_factory.hpp:77] Creating layer pool2m
I0701 02:35:53.460651 10927 net.cpp:91] Creating Layer pool2m
I0701 02:35:53.460654 10927 net.cpp:425] pool2m <- conv2_2m
I0701 02:35:53.460657 10927 net.cpp:399] pool2m -> pool2m
I0701 02:35:53.460688 10927 net.cpp:141] Setting up pool2m
I0701 02:35:53.460693 10927 net.cpp:148] Top shape: 4 128 98 98 (4917248)
I0701 02:35:53.460695 10927 net.cpp:156] Memory required for data: 2563231744
I0701 02:35:53.460698 10927 layer_factory.hpp:77] Creating layer conv3_1m
I0701 02:35:53.460705 10927 net.cpp:91] Creating Layer conv3_1m
I0701 02:35:53.460706 10927 net.cpp:425] conv3_1m <- pool2m
I0701 02:35:53.460710 10927 net.cpp:399] conv3_1m -> conv3_1m
I0701 02:35:53.461773 10927 net.cpp:141] Setting up conv3_1m
I0701 02:35:53.461791 10927 net.cpp:148] Top shape: 4 256 98 98 (9834496)
I0701 02:35:53.461794 10927 net.cpp:156] Memory required for data: 2602569728
I0701 02:35:53.461801 10927 net.cpp:484] Sharing parameters 'conv3_1_w' owned by layer 'conv3_1c', param index 0
I0701 02:35:53.461807 10927 net.cpp:484] Sharing parameters 'conv3_1_b' owned by layer 'conv3_1c', param index 1
I0701 02:35:53.461809 10927 layer_factory.hpp:77] Creating layer relu3_1m
I0701 02:35:53.461822 10927 net.cpp:91] Creating Layer relu3_1m
I0701 02:35:53.461828 10927 net.cpp:425] relu3_1m <- conv3_1m
I0701 02:35:53.461833 10927 net.cpp:386] relu3_1m -> conv3_1m (in-place)
I0701 02:35:53.462069 10927 net.cpp:141] Setting up relu3_1m
I0701 02:35:53.462080 10927 net.cpp:148] Top shape: 4 256 98 98 (9834496)
I0701 02:35:53.462083 10927 net.cpp:156] Memory required for data: 2641907712
I0701 02:35:53.462087 10927 layer_factory.hpp:77] Creating layer conv3_2m
I0701 02:35:53.462100 10927 net.cpp:91] Creating Layer conv3_2m
I0701 02:35:53.462107 10927 net.cpp:425] conv3_2m <- conv3_1m
I0701 02:35:53.462115 10927 net.cpp:399] conv3_2m -> conv3_2m
I0701 02:35:53.463841 10927 net.cpp:141] Setting up conv3_2m
I0701 02:35:53.463857 10927 net.cpp:148] Top shape: 4 256 98 98 (9834496)
I0701 02:35:53.463860 10927 net.cpp:156] Memory required for data: 2681245696
I0701 02:35:53.463866 10927 net.cpp:484] Sharing parameters 'conv3_2_w' owned by layer 'conv3_2c', param index 0
I0701 02:35:53.463871 10927 net.cpp:484] Sharing parameters 'conv3_2_b' owned by layer 'conv3_2c', param index 1
I0701 02:35:53.463874 10927 layer_factory.hpp:77] Creating layer relu3_2m
I0701 02:35:53.463881 10927 net.cpp:91] Creating Layer relu3_2m
I0701 02:35:53.463884 10927 net.cpp:425] relu3_2m <- conv3_2m
I0701 02:35:53.463891 10927 net.cpp:386] relu3_2m -> conv3_2m (in-place)
I0701 02:35:53.464040 10927 net.cpp:141] Setting up relu3_2m
I0701 02:35:53.464048 10927 net.cpp:148] Top shape: 4 256 98 98 (9834496)
I0701 02:35:53.464052 10927 net.cpp:156] Memory required for data: 2720583680
I0701 02:35:53.464059 10927 layer_factory.hpp:77] Creating layer conv3_3m
I0701 02:35:53.464071 10927 net.cpp:91] Creating Layer conv3_3m
I0701 02:35:53.464076 10927 net.cpp:425] conv3_3m <- conv3_2m
I0701 02:35:53.464082 10927 net.cpp:399] conv3_3m -> conv3_3m
I0701 02:35:53.465764 10927 net.cpp:141] Setting up conv3_3m
I0701 02:35:53.465783 10927 net.cpp:148] Top shape: 4 256 98 98 (9834496)
I0701 02:35:53.465787 10927 net.cpp:156] Memory required for data: 2759921664
I0701 02:35:53.465791 10927 net.cpp:484] Sharing parameters 'conv3_3_w' owned by layer 'conv3_3c', param index 0
I0701 02:35:53.465798 10927 net.cpp:484] Sharing parameters 'conv3_3_b' owned by layer 'conv3_3c', param index 1
I0701 02:35:53.465802 10927 layer_factory.hpp:77] Creating layer relu3_3m
I0701 02:35:53.465808 10927 net.cpp:91] Creating Layer relu3_3m
I0701 02:35:53.465811 10927 net.cpp:425] relu3_3m <- conv3_3m
I0701 02:35:53.465816 10927 net.cpp:386] relu3_3m -> conv3_3m (in-place)
I0701 02:35:53.465977 10927 net.cpp:141] Setting up relu3_3m
I0701 02:35:53.465986 10927 net.cpp:148] Top shape: 4 256 98 98 (9834496)
I0701 02:35:53.465989 10927 net.cpp:156] Memory required for data: 2799259648
I0701 02:35:53.465993 10927 layer_factory.hpp:77] Creating layer pool3m
I0701 02:35:53.466001 10927 net.cpp:91] Creating Layer pool3m
I0701 02:35:53.466006 10927 net.cpp:425] pool3m <- conv3_3m
I0701 02:35:53.466011 10927 net.cpp:399] pool3m -> pool3m
I0701 02:35:53.466053 10927 net.cpp:141] Setting up pool3m
I0701 02:35:53.466060 10927 net.cpp:148] Top shape: 4 256 49 49 (2458624)
I0701 02:35:53.466063 10927 net.cpp:156] Memory required for data: 2809094144
I0701 02:35:53.466066 10927 layer_factory.hpp:77] Creating layer conv4_1m
I0701 02:35:53.466075 10927 net.cpp:91] Creating Layer conv4_1m
I0701 02:35:53.466079 10927 net.cpp:425] conv4_1m <- pool3m
I0701 02:35:53.466085 10927 net.cpp:399] conv4_1m -> conv4_1m
I0701 02:35:53.468688 10927 net.cpp:141] Setting up conv4_1m
I0701 02:35:53.468734 10927 net.cpp:148] Top shape: 4 512 49 49 (4917248)
I0701 02:35:53.468736 10927 net.cpp:156] Memory required for data: 2828763136
I0701 02:35:53.468742 10927 net.cpp:484] Sharing parameters 'conv4_1_w' owned by layer 'conv4_1c', param index 0
I0701 02:35:53.468746 10927 net.cpp:484] Sharing parameters 'conv4_1_b' owned by layer 'conv4_1c', param index 1
I0701 02:35:53.468751 10927 layer_factory.hpp:77] Creating layer relu4_1m
I0701 02:35:53.468757 10927 net.cpp:91] Creating Layer relu4_1m
I0701 02:35:53.468761 10927 net.cpp:425] relu4_1m <- conv4_1m
I0701 02:35:53.468766 10927 net.cpp:386] relu4_1m -> conv4_1m (in-place)
I0701 02:35:53.469000 10927 net.cpp:141] Setting up relu4_1m
I0701 02:35:53.469009 10927 net.cpp:148] Top shape: 4 512 49 49 (4917248)
I0701 02:35:53.469012 10927 net.cpp:156] Memory required for data: 2848432128
I0701 02:35:53.469014 10927 layer_factory.hpp:77] Creating layer conv4_2m
I0701 02:35:53.469022 10927 net.cpp:91] Creating Layer conv4_2m
I0701 02:35:53.469024 10927 net.cpp:425] conv4_2m <- conv4_1m
I0701 02:35:53.469029 10927 net.cpp:399] conv4_2m -> conv4_2m
I0701 02:35:53.474077 10927 net.cpp:141] Setting up conv4_2m
I0701 02:35:53.474104 10927 net.cpp:148] Top shape: 4 512 49 49 (4917248)
I0701 02:35:53.474107 10927 net.cpp:156] Memory required for data: 2868101120
I0701 02:35:53.474113 10927 net.cpp:484] Sharing parameters 'conv4_2_w' owned by layer 'conv4_2c', param index 0
I0701 02:35:53.474117 10927 net.cpp:484] Sharing parameters 'conv4_2_b' owned by layer 'conv4_2c', param index 1
I0701 02:35:53.474120 10927 layer_factory.hpp:77] Creating layer relu4_2m
I0701 02:35:53.474128 10927 net.cpp:91] Creating Layer relu4_2m
I0701 02:35:53.474131 10927 net.cpp:425] relu4_2m <- conv4_2m
I0701 02:35:53.474138 10927 net.cpp:386] relu4_2m -> conv4_2m (in-place)
I0701 02:35:53.474267 10927 net.cpp:141] Setting up relu4_2m
I0701 02:35:53.474275 10927 net.cpp:148] Top shape: 4 512 49 49 (4917248)
I0701 02:35:53.474277 10927 net.cpp:156] Memory required for data: 2887770112
I0701 02:35:53.474280 10927 layer_factory.hpp:77] Creating layer conv4_3m
I0701 02:35:53.474290 10927 net.cpp:91] Creating Layer conv4_3m
I0701 02:35:53.474293 10927 net.cpp:425] conv4_3m <- conv4_2m
I0701 02:35:53.474298 10927 net.cpp:399] conv4_3m -> conv4_3m
I0701 02:35:53.478695 10927 net.cpp:141] Setting up conv4_3m
I0701 02:35:53.478718 10927 net.cpp:148] Top shape: 4 512 49 49 (4917248)
I0701 02:35:53.478721 10927 net.cpp:156] Memory required for data: 2907439104
I0701 02:35:53.478727 10927 net.cpp:484] Sharing parameters 'conv4_3_w' owned by layer 'conv4_3c', param index 0
I0701 02:35:53.478732 10927 net.cpp:484] Sharing parameters 'conv4_3_b' owned by layer 'conv4_3c', param index 1
I0701 02:35:53.478739 10927 layer_factory.hpp:77] Creating layer relu4_3m
I0701 02:35:53.478749 10927 net.cpp:91] Creating Layer relu4_3m
I0701 02:35:53.478754 10927 net.cpp:425] relu4_3m <- conv4_3m
I0701 02:35:53.478761 10927 net.cpp:386] relu4_3m -> conv4_3m (in-place)
I0701 02:35:53.479040 10927 net.cpp:141] Setting up relu4_3m
I0701 02:35:53.479051 10927 net.cpp:148] Top shape: 4 512 49 49 (4917248)
I0701 02:35:53.479054 10927 net.cpp:156] Memory required for data: 2927108096
I0701 02:35:53.479058 10927 layer_factory.hpp:77] Creating layer conv5_1m
I0701 02:35:53.479071 10927 net.cpp:91] Creating Layer conv5_1m
I0701 02:35:53.479079 10927 net.cpp:425] conv5_1m <- conv4_3m
I0701 02:35:53.479089 10927 net.cpp:399] conv5_1m -> conv5_1m
I0701 02:35:53.482525 10927 net.cpp:141] Setting up conv5_1m
I0701 02:35:53.482548 10927 net.cpp:148] Top shape: 4 512 49 49 (4917248)
I0701 02:35:53.482553 10927 net.cpp:156] Memory required for data: 2946777088
I0701 02:35:53.482558 10927 net.cpp:484] Sharing parameters 'conv5_1_w' owned by layer 'conv5_1c', param index 0
I0701 02:35:53.482563 10927 net.cpp:484] Sharing parameters 'conv5_1_b' owned by layer 'conv5_1c', param index 1
I0701 02:35:53.482568 10927 layer_factory.hpp:77] Creating layer relu5_1m
I0701 02:35:53.482578 10927 net.cpp:91] Creating Layer relu5_1m
I0701 02:35:53.482581 10927 net.cpp:425] relu5_1m <- conv5_1m
I0701 02:35:53.482600 10927 net.cpp:386] relu5_1m -> conv5_1m (in-place)
I0701 02:35:53.482939 10927 net.cpp:141] Setting up relu5_1m
I0701 02:35:53.482949 10927 net.cpp:148] Top shape: 4 512 49 49 (4917248)
I0701 02:35:53.482954 10927 net.cpp:156] Memory required for data: 2966446080
I0701 02:35:53.482959 10927 layer_factory.hpp:77] Creating layer conv5_2m
I0701 02:35:53.482969 10927 net.cpp:91] Creating Layer conv5_2m
I0701 02:35:53.482975 10927 net.cpp:425] conv5_2m <- conv5_1m
I0701 02:35:53.482982 10927 net.cpp:399] conv5_2m -> conv5_2m
I0701 02:35:53.486659 10927 net.cpp:141] Setting up conv5_2m
I0701 02:35:53.486681 10927 net.cpp:148] Top shape: 4 512 49 49 (4917248)
I0701 02:35:53.486685 10927 net.cpp:156] Memory required for data: 2986115072
I0701 02:35:53.486691 10927 net.cpp:484] Sharing parameters 'conv5_2_w' owned by layer 'conv5_2c', param index 0
I0701 02:35:53.486696 10927 net.cpp:484] Sharing parameters 'conv5_2_b' owned by layer 'conv5_2c', param index 1
I0701 02:35:53.486701 10927 layer_factory.hpp:77] Creating layer relu5_2m
I0701 02:35:53.486711 10927 net.cpp:91] Creating Layer relu5_2m
I0701 02:35:53.486714 10927 net.cpp:425] relu5_2m <- conv5_2m
I0701 02:35:53.486722 10927 net.cpp:386] relu5_2m -> conv5_2m (in-place)
I0701 02:35:53.486934 10927 net.cpp:141] Setting up relu5_2m
I0701 02:35:53.486944 10927 net.cpp:148] Top shape: 4 512 49 49 (4917248)
I0701 02:35:53.486948 10927 net.cpp:156] Memory required for data: 3005784064
I0701 02:35:53.486951 10927 layer_factory.hpp:77] Creating layer conv5_3m
I0701 02:35:53.486961 10927 net.cpp:91] Creating Layer conv5_3m
I0701 02:35:53.486965 10927 net.cpp:425] conv5_3m <- conv5_2m
I0701 02:35:53.486971 10927 net.cpp:399] conv5_3m -> conv5_3m
I0701 02:35:53.490496 10927 net.cpp:141] Setting up conv5_3m
I0701 02:35:53.490520 10927 net.cpp:148] Top shape: 4 512 73 73 (10913792)
I0701 02:35:53.490523 10927 net.cpp:156] Memory required for data: 3049439232
I0701 02:35:53.490530 10927 net.cpp:484] Sharing parameters 'conv5_3_w' owned by layer 'conv5_3c', param index 0
I0701 02:35:53.490535 10927 net.cpp:484] Sharing parameters 'conv5_3_b' owned by layer 'conv5_3c', param index 1
I0701 02:35:53.490540 10927 layer_factory.hpp:77] Creating layer relu5_3m
I0701 02:35:53.490550 10927 net.cpp:91] Creating Layer relu5_3m
I0701 02:35:53.490556 10927 net.cpp:425] relu5_3m <- conv5_3m
I0701 02:35:53.490561 10927 net.cpp:386] relu5_3m -> conv5_3m (in-place)
I0701 02:35:53.490952 10927 net.cpp:141] Setting up relu5_3m
I0701 02:35:53.490963 10927 net.cpp:148] Top shape: 4 512 73 73 (10913792)
I0701 02:35:53.490967 10927 net.cpp:156] Memory required for data: 3093094400
I0701 02:35:53.490973 10927 layer_factory.hpp:77] Creating layer conv1_1n
I0701 02:35:53.490994 10927 net.cpp:91] Creating Layer conv1_1n
I0701 02:35:53.491000 10927 net.cpp:425] conv1_1n <- next_im_cur_im_2_split_0
I0701 02:35:53.491008 10927 net.cpp:399] conv1_1n -> conv1_1n
I0701 02:35:53.492457 10927 net.cpp:141] Setting up conv1_1n
I0701 02:35:53.492468 10927 net.cpp:148] Top shape: 4 64 584 584 (87310336)
I0701 02:35:53.492473 10927 net.cpp:156] Memory required for data: 3442335744
I0701 02:35:53.492477 10927 net.cpp:484] Sharing parameters 'conv1_1_w' owned by layer 'conv1_1c', param index 0
I0701 02:35:53.492482 10927 net.cpp:484] Sharing parameters 'conv1_1_b' owned by layer 'conv1_1c', param index 1
I0701 02:35:53.492486 10927 layer_factory.hpp:77] Creating layer relu1_1n
I0701 02:35:53.492491 10927 net.cpp:91] Creating Layer relu1_1n
I0701 02:35:53.492496 10927 net.cpp:425] relu1_1n <- conv1_1n
I0701 02:35:53.492501 10927 net.cpp:386] relu1_1n -> conv1_1n (in-place)
I0701 02:35:53.492667 10927 net.cpp:141] Setting up relu1_1n
I0701 02:35:53.492676 10927 net.cpp:148] Top shape: 4 64 584 584 (87310336)
I0701 02:35:53.492681 10927 net.cpp:156] Memory required for data: 3791577088
I0701 02:35:53.492686 10927 layer_factory.hpp:77] Creating layer conv1_2n
I0701 02:35:53.492694 10927 net.cpp:91] Creating Layer conv1_2n
I0701 02:35:53.492697 10927 net.cpp:425] conv1_2n <- conv1_1n
I0701 02:35:53.492715 10927 net.cpp:399] conv1_2n -> conv1_2n
I0701 02:35:53.494711 10927 net.cpp:141] Setting up conv1_2n
I0701 02:35:53.494753 10927 net.cpp:148] Top shape: 4 64 584 584 (87310336)
I0701 02:35:53.494757 10927 net.cpp:156] Memory required for data: 4140818432
I0701 02:35:53.494765 10927 net.cpp:484] Sharing parameters 'conv1_2_w' owned by layer 'conv1_2c', param index 0
I0701 02:35:53.494771 10927 net.cpp:484] Sharing parameters 'conv1_2_b' owned by layer 'conv1_2c', param index 1
I0701 02:35:53.494776 10927 layer_factory.hpp:77] Creating layer relu1_2n
I0701 02:35:53.494787 10927 net.cpp:91] Creating Layer relu1_2n
I0701 02:35:53.494791 10927 net.cpp:425] relu1_2n <- conv1_2n
I0701 02:35:53.494810 10927 net.cpp:386] relu1_2n -> conv1_2n (in-place)
I0701 02:35:53.495179 10927 net.cpp:141] Setting up relu1_2n
I0701 02:35:53.495193 10927 net.cpp:148] Top shape: 4 64 584 584 (87310336)
I0701 02:35:53.495196 10927 net.cpp:156] Memory required for data: 4490059776
I0701 02:35:53.495203 10927 layer_factory.hpp:77] Creating layer pool1n
I0701 02:35:53.495240 10927 net.cpp:91] Creating Layer pool1n
I0701 02:35:53.495245 10927 net.cpp:425] pool1n <- conv1_2n
I0701 02:35:53.495254 10927 net.cpp:399] pool1n -> pool1n
I0701 02:35:53.495334 10927 net.cpp:141] Setting up pool1n
I0701 02:35:53.495342 10927 net.cpp:148] Top shape: 4 64 292 292 (21827584)
I0701 02:35:53.495344 10927 net.cpp:156] Memory required for data: 4577370112
I0701 02:35:53.495348 10927 layer_factory.hpp:77] Creating layer conv2_1n
I0701 02:35:53.495362 10927 net.cpp:91] Creating Layer conv2_1n
I0701 02:35:53.495368 10927 net.cpp:425] conv2_1n <- pool1n
I0701 02:35:53.495373 10927 net.cpp:399] conv2_1n -> conv2_1n
I0701 02:35:53.496424 10927 net.cpp:141] Setting up conv2_1n
I0701 02:35:53.496444 10927 net.cpp:148] Top shape: 4 128 292 292 (43655168)
I0701 02:35:53.496448 10927 net.cpp:156] Memory required for data: 4751990784
I0701 02:35:53.496454 10927 net.cpp:484] Sharing parameters 'conv2_1_w' owned by layer 'conv2_1c', param index 0
I0701 02:35:53.496459 10927 net.cpp:484] Sharing parameters 'conv2_1_b' owned by layer 'conv2_1c', param index 1
I0701 02:35:53.496461 10927 layer_factory.hpp:77] Creating layer relu2_1n
I0701 02:35:53.496474 10927 net.cpp:91] Creating Layer relu2_1n
I0701 02:35:53.496479 10927 net.cpp:425] relu2_1n <- conv2_1n
I0701 02:35:53.496484 10927 net.cpp:386] relu2_1n -> conv2_1n (in-place)
I0701 02:35:53.496775 10927 net.cpp:141] Setting up relu2_1n
I0701 02:35:53.496786 10927 net.cpp:148] Top shape: 4 128 292 292 (43655168)
I0701 02:35:53.496788 10927 net.cpp:156] Memory required for data: 4926611456
I0701 02:35:53.496791 10927 layer_factory.hpp:77] Creating layer conv2_2n
I0701 02:35:53.496799 10927 net.cpp:91] Creating Layer conv2_2n
I0701 02:35:53.496803 10927 net.cpp:425] conv2_2n <- conv2_1n
I0701 02:35:53.496809 10927 net.cpp:399] conv2_2n -> conv2_2n
I0701 02:35:53.497993 10927 net.cpp:141] Setting up conv2_2n
I0701 02:35:53.498011 10927 net.cpp:148] Top shape: 4 128 292 292 (43655168)
I0701 02:35:53.498014 10927 net.cpp:156] Memory required for data: 5101232128
I0701 02:35:53.498018 10927 net.cpp:484] Sharing parameters 'conv2_2_w' owned by layer 'conv2_2c', param index 0
I0701 02:35:53.498023 10927 net.cpp:484] Sharing parameters 'conv2_2_b' owned by layer 'conv2_2c', param index 1
I0701 02:35:53.498028 10927 layer_factory.hpp:77] Creating layer relu2_2n
I0701 02:35:53.498034 10927 net.cpp:91] Creating Layer relu2_2n
I0701 02:35:53.498037 10927 net.cpp:425] relu2_2n <- conv2_2n
I0701 02:35:53.498042 10927 net.cpp:386] relu2_2n -> conv2_2n (in-place)
I0701 02:35:53.498162 10927 net.cpp:141] Setting up relu2_2n
I0701 02:35:53.498169 10927 net.cpp:148] Top shape: 4 128 292 292 (43655168)
I0701 02:35:53.498172 10927 net.cpp:156] Memory required for data: 5275852800
I0701 02:35:53.498173 10927 layer_factory.hpp:77] Creating layer pool2n
I0701 02:35:53.498179 10927 net.cpp:91] Creating Layer pool2n
I0701 02:35:53.498183 10927 net.cpp:425] pool2n <- conv2_2n
I0701 02:35:53.498186 10927 net.cpp:399] pool2n -> pool2n
I0701 02:35:53.498239 10927 net.cpp:141] Setting up pool2n
I0701 02:35:53.498245 10927 net.cpp:148] Top shape: 4 128 146 146 (10913792)
I0701 02:35:53.498248 10927 net.cpp:156] Memory required for data: 5319507968
I0701 02:35:53.498251 10927 layer_factory.hpp:77] Creating layer conv3_1n
I0701 02:35:53.498262 10927 net.cpp:91] Creating Layer conv3_1n
I0701 02:35:53.498267 10927 net.cpp:425] conv3_1n <- pool2n
I0701 02:35:53.498273 10927 net.cpp:399] conv3_1n -> conv3_1n
I0701 02:35:53.499418 10927 net.cpp:141] Setting up conv3_1n
I0701 02:35:53.499429 10927 net.cpp:148] Top shape: 4 256 146 146 (21827584)
I0701 02:35:53.499433 10927 net.cpp:156] Memory required for data: 5406818304
I0701 02:35:53.499439 10927 net.cpp:484] Sharing parameters 'conv3_1_w' owned by layer 'conv3_1c', param index 0
I0701 02:35:53.499444 10927 net.cpp:484] Sharing parameters 'conv3_1_b' owned by layer 'conv3_1c', param index 1
I0701 02:35:53.499447 10927 layer_factory.hpp:77] Creating layer relu3_1n
I0701 02:35:53.499454 10927 net.cpp:91] Creating Layer relu3_1n
I0701 02:35:53.499459 10927 net.cpp:425] relu3_1n <- conv3_1n
I0701 02:35:53.499465 10927 net.cpp:386] relu3_1n -> conv3_1n (in-place)
I0701 02:35:53.499670 10927 net.cpp:141] Setting up relu3_1n
I0701 02:35:53.499680 10927 net.cpp:148] Top shape: 4 256 146 146 (21827584)
I0701 02:35:53.499683 10927 net.cpp:156] Memory required for data: 5494128640
I0701 02:35:53.499689 10927 layer_factory.hpp:77] Creating layer conv3_2n
I0701 02:35:53.499697 10927 net.cpp:91] Creating Layer conv3_2n
I0701 02:35:53.499701 10927 net.cpp:425] conv3_2n <- conv3_1n
I0701 02:35:53.499711 10927 net.cpp:399] conv3_2n -> conv3_2n
I0701 02:35:53.500948 10927 net.cpp:141] Setting up conv3_2n
I0701 02:35:53.500962 10927 net.cpp:148] Top shape: 4 256 146 146 (21827584)
I0701 02:35:53.500965 10927 net.cpp:156] Memory required for data: 5581438976
I0701 02:35:53.500972 10927 net.cpp:484] Sharing parameters 'conv3_2_w' owned by layer 'conv3_2c', param index 0
I0701 02:35:53.500977 10927 net.cpp:484] Sharing parameters 'conv3_2_b' owned by layer 'conv3_2c', param index 1
I0701 02:35:53.500982 10927 layer_factory.hpp:77] Creating layer relu3_2n
I0701 02:35:53.500989 10927 net.cpp:91] Creating Layer relu3_2n
I0701 02:35:53.500993 10927 net.cpp:425] relu3_2n <- conv3_2n
I0701 02:35:53.500999 10927 net.cpp:386] relu3_2n -> conv3_2n (in-place)
I0701 02:35:53.501235 10927 net.cpp:141] Setting up relu3_2n
I0701 02:35:53.501243 10927 net.cpp:148] Top shape: 4 256 146 146 (21827584)
I0701 02:35:53.501246 10927 net.cpp:156] Memory required for data: 5668749312
I0701 02:35:53.501250 10927 layer_factory.hpp:77] Creating layer conv3_3n
I0701 02:35:53.501262 10927 net.cpp:91] Creating Layer conv3_3n
I0701 02:35:53.501267 10927 net.cpp:425] conv3_3n <- conv3_2n
I0701 02:35:53.501276 10927 net.cpp:399] conv3_3n -> conv3_3n
I0701 02:35:53.502974 10927 net.cpp:141] Setting up conv3_3n
I0701 02:35:53.502996 10927 net.cpp:148] Top shape: 4 256 146 146 (21827584)
I0701 02:35:53.503000 10927 net.cpp:156] Memory required for data: 5756059648
I0701 02:35:53.503018 10927 net.cpp:484] Sharing parameters 'conv3_3_w' owned by layer 'conv3_3c', param index 0
I0701 02:35:53.503026 10927 net.cpp:484] Sharing parameters 'conv3_3_b' owned by layer 'conv3_3c', param index 1
I0701 02:35:53.503031 10927 layer_factory.hpp:77] Creating layer relu3_3n
I0701 02:35:53.503039 10927 net.cpp:91] Creating Layer relu3_3n
I0701 02:35:53.503046 10927 net.cpp:425] relu3_3n <- conv3_3n
I0701 02:35:53.503053 10927 net.cpp:386] relu3_3n -> conv3_3n (in-place)
I0701 02:35:53.503204 10927 net.cpp:141] Setting up relu3_3n
I0701 02:35:53.503216 10927 net.cpp:148] Top shape: 4 256 146 146 (21827584)
I0701 02:35:53.503218 10927 net.cpp:156] Memory required for data: 5843369984
I0701 02:35:53.503224 10927 layer_factory.hpp:77] Creating layer pool3n
I0701 02:35:53.503237 10927 net.cpp:91] Creating Layer pool3n
I0701 02:35:53.503239 10927 net.cpp:425] pool3n <- conv3_3n
I0701 02:35:53.503252 10927 net.cpp:399] pool3n -> pool3n
I0701 02:35:53.503304 10927 net.cpp:141] Setting up pool3n
I0701 02:35:53.503324 10927 net.cpp:148] Top shape: 4 256 73 73 (5456896)
I0701 02:35:53.503329 10927 net.cpp:156] Memory required for data: 5865197568
I0701 02:35:53.503334 10927 layer_factory.hpp:77] Creating layer conv4_1n
I0701 02:35:53.503347 10927 net.cpp:91] Creating Layer conv4_1n
I0701 02:35:53.503351 10927 net.cpp:425] conv4_1n <- pool3n
I0701 02:35:53.503358 10927 net.cpp:399] conv4_1n -> conv4_1n
I0701 02:35:53.512389 10927 net.cpp:141] Setting up conv4_1n
I0701 02:35:53.512490 10927 net.cpp:148] Top shape: 4 512 73 73 (10913792)
I0701 02:35:53.512503 10927 net.cpp:156] Memory required for data: 5908852736
I0701 02:35:53.512521 10927 net.cpp:484] Sharing parameters 'conv4_1_w' owned by layer 'conv4_1c', param index 0
I0701 02:35:53.512533 10927 net.cpp:484] Sharing parameters 'conv4_1_b' owned by layer 'conv4_1c', param index 1
I0701 02:35:53.512543 10927 layer_factory.hpp:77] Creating layer relu4_1n
I0701 02:35:53.512586 10927 net.cpp:91] Creating Layer relu4_1n
I0701 02:35:53.512598 10927 net.cpp:425] relu4_1n <- conv4_1n
I0701 02:35:53.512614 10927 net.cpp:386] relu4_1n -> conv4_1n (in-place)
I0701 02:35:53.513505 10927 net.cpp:141] Setting up relu4_1n
I0701 02:35:53.513545 10927 net.cpp:148] Top shape: 4 512 73 73 (10913792)
I0701 02:35:53.513550 10927 net.cpp:156] Memory required for data: 5952507904
I0701 02:35:53.513559 10927 layer_factory.hpp:77] Creating layer conv4_2n
I0701 02:35:53.513608 10927 net.cpp:91] Creating Layer conv4_2n
I0701 02:35:53.513687 10927 net.cpp:425] conv4_2n <- conv4_1n
I0701 02:35:53.513738 10927 net.cpp:399] conv4_2n -> conv4_2n
I0701 02:35:53.521698 10927 net.cpp:141] Setting up conv4_2n
I0701 02:35:53.521756 10927 net.cpp:148] Top shape: 4 512 73 73 (10913792)
I0701 02:35:53.521761 10927 net.cpp:156] Memory required for data: 5996163072
I0701 02:35:53.521775 10927 net.cpp:484] Sharing parameters 'conv4_2_w' owned by layer 'conv4_2c', param index 0
I0701 02:35:53.521783 10927 net.cpp:484] Sharing parameters 'conv4_2_b' owned by layer 'conv4_2c', param index 1
I0701 02:35:53.521796 10927 layer_factory.hpp:77] Creating layer relu4_2n
I0701 02:35:53.521823 10927 net.cpp:91] Creating Layer relu4_2n
I0701 02:35:53.521832 10927 net.cpp:425] relu4_2n <- conv4_2n
I0701 02:35:53.521842 10927 net.cpp:386] relu4_2n -> conv4_2n (in-place)
I0701 02:35:53.522310 10927 net.cpp:141] Setting up relu4_2n
I0701 02:35:53.522332 10927 net.cpp:148] Top shape: 4 512 73 73 (10913792)
I0701 02:35:53.522336 10927 net.cpp:156] Memory required for data: 6039818240
I0701 02:35:53.522341 10927 layer_factory.hpp:77] Creating layer conv4_3n
I0701 02:35:53.522357 10927 net.cpp:91] Creating Layer conv4_3n
I0701 02:35:53.522362 10927 net.cpp:425] conv4_3n <- conv4_2n
I0701 02:35:53.522372 10927 net.cpp:399] conv4_3n -> conv4_3n
I0701 02:35:53.530971 10927 net.cpp:141] Setting up conv4_3n
I0701 02:35:53.531019 10927 net.cpp:148] Top shape: 4 512 73 73 (10913792)
I0701 02:35:53.531024 10927 net.cpp:156] Memory required for data: 6083473408
I0701 02:35:53.531044 10927 net.cpp:484] Sharing parameters 'conv4_3_w' owned by layer 'conv4_3c', param index 0
I0701 02:35:53.531051 10927 net.cpp:484] Sharing parameters 'conv4_3_b' owned by layer 'conv4_3c', param index 1
I0701 02:35:53.531056 10927 layer_factory.hpp:77] Creating layer relu4_3n
I0701 02:35:53.531069 10927 net.cpp:91] Creating Layer relu4_3n
I0701 02:35:53.531076 10927 net.cpp:425] relu4_3n <- conv4_3n
I0701 02:35:53.531090 10927 net.cpp:386] relu4_3n -> conv4_3n (in-place)
I0701 02:35:53.531349 10927 net.cpp:141] Setting up relu4_3n
I0701 02:35:53.531363 10927 net.cpp:148] Top shape: 4 512 73 73 (10913792)
I0701 02:35:53.531366 10927 net.cpp:156] Memory required for data: 6127128576
I0701 02:35:53.531374 10927 layer_factory.hpp:77] Creating layer conv5_1n
I0701 02:35:53.531389 10927 net.cpp:91] Creating Layer conv5_1n
I0701 02:35:53.531394 10927 net.cpp:425] conv5_1n <- conv4_3n
I0701 02:35:53.531401 10927 net.cpp:399] conv5_1n -> conv5_1n
I0701 02:35:53.536769 10927 net.cpp:141] Setting up conv5_1n
I0701 02:35:53.536804 10927 net.cpp:148] Top shape: 4 512 73 73 (10913792)
I0701 02:35:53.536829 10927 net.cpp:156] Memory required for data: 6170783744
I0701 02:35:53.536836 10927 net.cpp:484] Sharing parameters 'conv5_1_w' owned by layer 'conv5_1c', param index 0
I0701 02:35:53.536841 10927 net.cpp:484] Sharing parameters 'conv5_1_b' owned by layer 'conv5_1c', param index 1
I0701 02:35:53.536846 10927 layer_factory.hpp:77] Creating layer relu5_1n
I0701 02:35:53.536857 10927 net.cpp:91] Creating Layer relu5_1n
I0701 02:35:53.536862 10927 net.cpp:425] relu5_1n <- conv5_1n
I0701 02:35:53.536878 10927 net.cpp:386] relu5_1n -> conv5_1n (in-place)
I0701 02:35:53.537292 10927 net.cpp:141] Setting up relu5_1n
I0701 02:35:53.537302 10927 net.cpp:148] Top shape: 4 512 73 73 (10913792)
I0701 02:35:53.537307 10927 net.cpp:156] Memory required for data: 6214438912
I0701 02:35:53.537309 10927 layer_factory.hpp:77] Creating layer conv5_2n
I0701 02:35:53.537322 10927 net.cpp:91] Creating Layer conv5_2n
I0701 02:35:53.537325 10927 net.cpp:425] conv5_2n <- conv5_1n
I0701 02:35:53.537333 10927 net.cpp:399] conv5_2n -> conv5_2n
I0701 02:35:53.542006 10927 net.cpp:141] Setting up conv5_2n
I0701 02:35:53.542048 10927 net.cpp:148] Top shape: 4 512 73 73 (10913792)
I0701 02:35:53.542054 10927 net.cpp:156] Memory required for data: 6258094080
I0701 02:35:53.542073 10927 net.cpp:484] Sharing parameters 'conv5_2_w' owned by layer 'conv5_2c', param index 0
I0701 02:35:53.542081 10927 net.cpp:484] Sharing parameters 'conv5_2_b' owned by layer 'conv5_2c', param index 1
I0701 02:35:53.542086 10927 layer_factory.hpp:77] Creating layer relu5_2n
I0701 02:35:53.542100 10927 net.cpp:91] Creating Layer relu5_2n
I0701 02:35:53.542106 10927 net.cpp:425] relu5_2n <- conv5_2n
I0701 02:35:53.542119 10927 net.cpp:386] relu5_2n -> conv5_2n (in-place)
I0701 02:35:53.542414 10927 net.cpp:141] Setting up relu5_2n
I0701 02:35:53.542428 10927 net.cpp:148] Top shape: 4 512 73 73 (10913792)
I0701 02:35:53.542431 10927 net.cpp:156] Memory required for data: 6301749248
I0701 02:35:53.542439 10927 layer_factory.hpp:77] Creating layer conv5_3n
I0701 02:35:53.542451 10927 net.cpp:91] Creating Layer conv5_3n
I0701 02:35:53.542520 10927 net.cpp:425] conv5_3n <- conv5_2n
I0701 02:35:53.542544 10927 net.cpp:399] conv5_3n -> conv5_3n
I0701 02:35:53.546092 10927 net.cpp:141] Setting up conv5_3n
I0701 02:35:53.546110 10927 net.cpp:148] Top shape: 4 512 73 73 (10913792)
I0701 02:35:53.546113 10927 net.cpp:156] Memory required for data: 6345404416
I0701 02:35:53.546118 10927 net.cpp:484] Sharing parameters 'conv5_3_w' owned by layer 'conv5_3c', param index 0
I0701 02:35:53.546121 10927 net.cpp:484] Sharing parameters 'conv5_3_b' owned by layer 'conv5_3c', param index 1
I0701 02:35:53.546123 10927 layer_factory.hpp:77] Creating layer relu5_3n
I0701 02:35:53.546130 10927 net.cpp:91] Creating Layer relu5_3n
I0701 02:35:53.546134 10927 net.cpp:425] relu5_3n <- conv5_3n
I0701 02:35:53.546140 10927 net.cpp:386] relu5_3n -> conv5_3n (in-place)
I0701 02:35:53.546445 10927 net.cpp:141] Setting up relu5_3n
I0701 02:35:53.546453 10927 net.cpp:148] Top shape: 4 512 73 73 (10913792)
I0701 02:35:53.546455 10927 net.cpp:156] Memory required for data: 6389059584
I0701 02:35:53.546458 10927 layer_factory.hpp:77] Creating layer concat1
I0701 02:35:53.546464 10927 net.cpp:91] Creating Layer concat1
I0701 02:35:53.546468 10927 net.cpp:425] concat1 <- conv5_3c
I0701 02:35:53.546470 10927 net.cpp:425] concat1 <- conv5_3m
I0701 02:35:53.546473 10927 net.cpp:425] concat1 <- conv5_3n
I0701 02:35:53.546476 10927 net.cpp:399] concat1 -> concat1
I0701 02:35:53.546505 10927 net.cpp:141] Setting up concat1
I0701 02:35:53.546509 10927 net.cpp:148] Top shape: 4 1536 73 73 (32741376)
I0701 02:35:53.546511 10927 net.cpp:156] Memory required for data: 6520025088
I0701 02:35:53.546514 10927 layer_factory.hpp:77] Creating layer fc6
I0701 02:35:53.546519 10927 net.cpp:91] Creating Layer fc6
I0701 02:35:53.546521 10927 net.cpp:425] fc6 <- concat1
I0701 02:35:53.546525 10927 net.cpp:399] fc6 -> fc6
/usr/local/lib/python2.7/dist-packages/skimage/transform/_geometric.py:1312: UserWarning: Bi-quadratic interpolation behavior has changed due to a bug in the implementation of scikit-image. The new version now serves as a wrapper around SciPy's interpolation functions, which itself is not verified to be a correct implementation. Until skimage's implementation is fixed, we recommend to use bi-linear or bi-cubic interpolation instead.
  warnings.warn("Bi-quadratic interpolation behavior has changed due "
I0701 02:35:53.723876 10927 net.cpp:141] Setting up fc6
I0701 02:35:53.723912 10927 net.cpp:148] Top shape: 4 1024 49 49 (9834496)
I0701 02:35:53.723917 10927 net.cpp:156] Memory required for data: 6559363072
I0701 02:35:53.723929 10927 layer_factory.hpp:77] Creating layer relu6
I0701 02:35:53.723935 10927 net.cpp:91] Creating Layer relu6
I0701 02:35:53.723939 10927 net.cpp:425] relu6 <- fc6
I0701 02:35:53.723944 10927 net.cpp:386] relu6 -> fc6 (in-place)
I0701 02:35:53.724112 10927 net.cpp:141] Setting up relu6
I0701 02:35:53.724119 10927 net.cpp:148] Top shape: 4 1024 49 49 (9834496)
I0701 02:35:53.724122 10927 net.cpp:156] Memory required for data: 6598701056
I0701 02:35:53.724124 10927 layer_factory.hpp:77] Creating layer drop6
I0701 02:35:53.724130 10927 net.cpp:91] Creating Layer drop6
I0701 02:35:53.724133 10927 net.cpp:425] drop6 <- fc6
I0701 02:35:53.724136 10927 net.cpp:386] drop6 -> fc6 (in-place)
I0701 02:35:53.724164 10927 net.cpp:141] Setting up drop6
I0701 02:35:53.724169 10927 net.cpp:148] Top shape: 4 1024 49 49 (9834496)
I0701 02:35:53.724170 10927 net.cpp:156] Memory required for data: 6638039040
I0701 02:35:53.724172 10927 layer_factory.hpp:77] Creating layer fc7
I0701 02:35:53.724181 10927 net.cpp:91] Creating Layer fc7
I0701 02:35:53.724184 10927 net.cpp:425] fc7 <- fc6
I0701 02:35:53.724189 10927 net.cpp:399] fc7 -> fc7
I0701 02:35:53.725991 10927 net.cpp:141] Setting up fc7
I0701 02:35:53.726006 10927 net.cpp:148] Top shape: 4 1024 49 49 (9834496)
I0701 02:35:53.726008 10927 net.cpp:156] Memory required for data: 6677377024
I0701 02:35:53.726013 10927 layer_factory.hpp:77] Creating layer relu7
I0701 02:35:53.726019 10927 net.cpp:91] Creating Layer relu7
I0701 02:35:53.726022 10927 net.cpp:425] relu7 <- fc7
I0701 02:35:53.726027 10927 net.cpp:386] relu7 -> fc7 (in-place)
I0701 02:35:53.726238 10927 net.cpp:141] Setting up relu7
I0701 02:35:53.726245 10927 net.cpp:148] Top shape: 4 1024 49 49 (9834496)
I0701 02:35:53.726248 10927 net.cpp:156] Memory required for data: 6716715008
I0701 02:35:53.726249 10927 layer_factory.hpp:77] Creating layer drop7
I0701 02:35:53.726258 10927 net.cpp:91] Creating Layer drop7
I0701 02:35:53.726260 10927 net.cpp:425] drop7 <- fc7
I0701 02:35:53.726264 10927 net.cpp:386] drop7 -> fc7 (in-place)
I0701 02:35:53.726285 10927 net.cpp:141] Setting up drop7
I0701 02:35:53.726290 10927 net.cpp:148] Top shape: 4 1024 49 49 (9834496)
I0701 02:35:53.726294 10927 net.cpp:156] Memory required for data: 6756052992
I0701 02:35:53.726297 10927 layer_factory.hpp:77] Creating layer fc8
I0701 02:35:53.726302 10927 net.cpp:91] Creating Layer fc8
I0701 02:35:53.726305 10927 net.cpp:425] fc8 <- fc7
I0701 02:35:53.726308 10927 net.cpp:399] fc8 -> fc8
I0701 02:35:53.727118 10927 net.cpp:141] Setting up fc8
I0701 02:35:53.727126 10927 net.cpp:148] Top shape: 4 2 49 49 (19208)
I0701 02:35:53.727128 10927 net.cpp:156] Memory required for data: 6756129824
I0701 02:35:53.727135 10927 layer_factory.hpp:77] Creating layer upscore
I0701 02:35:53.727156 10927 net.cpp:91] Creating Layer upscore
I0701 02:35:53.727159 10927 net.cpp:425] upscore <- fc8
I0701 02:35:53.727164 10927 net.cpp:399] upscore -> upscore
I0701 02:35:53.727339 10927 net.cpp:141] Setting up upscore
I0701 02:35:53.727344 10927 net.cpp:148] Top shape: 4 2 400 400 (1280000)
I0701 02:35:53.727345 10927 net.cpp:156] Memory required for data: 6761249824
I0701 02:35:53.727350 10927 layer_factory.hpp:77] Creating layer score
I0701 02:35:53.727358 10927 net.cpp:91] Creating Layer score
I0701 02:35:53.727361 10927 net.cpp:425] score <- upscore
I0701 02:35:53.727363 10927 net.cpp:425] score <- next_im_cur_im_2_split_1
I0701 02:35:53.727368 10927 net.cpp:399] score -> score
I0701 02:35:53.727388 10927 net.cpp:141] Setting up score
I0701 02:35:53.727391 10927 net.cpp:148] Top shape: 4 2 384 384 (1179648)
I0701 02:35:53.727393 10927 net.cpp:156] Memory required for data: 6765968416
I0701 02:35:53.727396 10927 layer_factory.hpp:77] Creating layer score_score_0_split
I0701 02:35:53.727398 10927 net.cpp:91] Creating Layer score_score_0_split
I0701 02:35:53.727401 10927 net.cpp:425] score_score_0_split <- score
I0701 02:35:53.727412 10927 net.cpp:399] score_score_0_split -> score_score_0_split_0
I0701 02:35:53.727418 10927 net.cpp:399] score_score_0_split -> score_score_0_split_1
I0701 02:35:53.727445 10927 net.cpp:141] Setting up score_score_0_split
I0701 02:35:53.727450 10927 net.cpp:148] Top shape: 4 2 384 384 (1179648)
I0701 02:35:53.727452 10927 net.cpp:148] Top shape: 4 2 384 384 (1179648)
I0701 02:35:53.727454 10927 net.cpp:156] Memory required for data: 6775405600
I0701 02:35:53.727457 10927 layer_factory.hpp:77] Creating layer loss
I0701 02:35:53.727461 10927 net.cpp:91] Creating Layer loss
I0701 02:35:53.727464 10927 net.cpp:425] loss <- score_score_0_split_0
I0701 02:35:53.727466 10927 net.cpp:425] loss <- label
I0701 02:35:53.727470 10927 net.cpp:399] loss -> loss
I0701 02:35:53.727476 10927 layer_factory.hpp:77] Creating layer loss
I0701 02:35:53.728853 10927 net.cpp:141] Setting up loss
I0701 02:35:53.728866 10927 net.cpp:148] Top shape: (1)
I0701 02:35:53.728868 10927 net.cpp:151]     with loss weight 1
I0701 02:35:53.728886 10927 net.cpp:156] Memory required for data: 6775405604
I0701 02:35:53.728889 10927 layer_factory.hpp:77] Creating layer clinet_top
I0701 02:35:53.729363 10927 net.cpp:91] Creating Layer clinet_top
I0701 02:35:53.729372 10927 net.cpp:425] clinet_top <- score_score_0_split_1
I0701 02:35:53.729378 10927 net.cpp:399] clinet_top -> clinet_top
I0701 02:35:53.729701 10927 net.cpp:141] Setting up clinet_top
I0701 02:35:53.729709 10927 net.cpp:148] Top shape: 1 (1)
I0701 02:35:53.729712 10927 net.cpp:156] Memory required for data: 6775405608
I0701 02:35:53.729713 10927 net.cpp:219] clinet_top does not need backward computation.
I0701 02:35:53.729715 10927 net.cpp:217] loss needs backward computation.
I0701 02:35:53.729718 10927 net.cpp:217] score_score_0_split needs backward computation.
I0701 02:35:53.729722 10927 net.cpp:217] score needs backward computation.
…
