…
I0625 06:30:50.237978 21032 solver.cpp:81] Creating training net from train_net file: train_coco_deepmask.prototxt
I0625 06:30:50.239768 21032 net.cpp:49] Initializing net from parameters: 
state {
  phase: TRAIN
}
layer {
  name: "cur_im"
  type: "Python"
  top: "cur_im"
  top: "masked_im"
  top: "next_im"
  top: "label"
  python_param {
    module: "coco_transformed_datalayers_prefetch"
    layer: "CocoTransformedDataLayerPrefetch"
    param_str: "{\'im_shape\': (256, 256), \'num_threads\': 4, \'max_queue_size\': 48, \'split\': \'train\', \'batch_size\': 24}"
  }
}
layer {
  name: "conv1_1c"
  type: "Convolution"
  bottom: "cur_im"
  top: "conv1_1c"
  param {
    name: "conv1_1_w"
    lr_mult: 1
    decay_mult: 1
  }
  param {
    name: "conv1_1_b"
    lr_mult: 2
    decay_mult: 0
  }
  convolution_param {
    num_output: 64
    pad: 1
    kernel_size: 3
  }
}
layer {
  name: "relu1_1c"
  type: "ReLU"
  bottom: "conv1_1c"
  top: "conv1_1c"
}
layer {
  name: "conv1_2c"
  type: "Convolution"
  bottom: "conv1_1c"
  top: "conv1_2c"
  param {
    name: "conv1_2_w"
    lr_mult: 1
    decay_mult: 1
  }
  param {
    name: "conv1_2_b"
    lr_mult: 2
    decay_mult: 0
  }
  convolution_param {
    num_output: 64
    pad: 1
    kernel_size: 3
  }
}
layer {
  name: "relu1_2c"
  type: "ReLU"
  bottom: "conv1_2c"
  top: "conv1_2c"
}
layer {
  name: "pool1c"
  type: "Pooling"
  bottom: "conv1_2c"
  top: "pool1c"
  pooling_param {
    pool: MAX
    kernel_size: 2
    stride: 2
  }
}
layer {
  name: "conv2_1c"
  type: "Convolution"
  bottom: "pool1c"
  top: "conv2_1c"
  param {
    name: "conv2_1_w"
    lr_mult: 1
    decay_mult: 1
  }
  param {
    name: "conv2_1_b"
    lr_mult: 2
    decay_mult: 0
  }
  convolution_param {
    num_output: 128
    pad: 1
    kernel_size: 3
  }
}
layer {
  name: "relu2_1c"
  type: "ReLU"
  bottom: "conv2_1c"
  top: "conv2_1c"
}
layer {
  name: "conv2_2c"
  type: "Convolution"
  bottom: "conv2_1c"
  top: "conv2_2c"
  param {
    name: "conv2_2_w"
    lr_mult: 1
    decay_mult: 1
  }
  param {
    name: "conv2_2_b"
    lr_mult: 2
    decay_mult: 0
  }
  convolution_param {
    num_output: 128
    pad: 1
    kernel_size: 3
  }
}
layer {
  name: "relu2_2c"
  type: "ReLU"
  bottom: "conv2_2c"
  top: "conv2_2c"
}
layer {
  name: "pool2c"
  type: "Pooling"
  bottom: "conv2_2c"
  top: "pool2c"
  pooling_param {
    pool: MAX
    kernel_size: 2
    stride: 2
  }
}
layer {
  name: "conv3_1c"
  type: "Convolution"
  bottom: "pool2c"
  top: "conv3_1c"
  param {
    name: "conv3_1_w"
    lr_mult: 1
    decay_mult: 1
  }
  param {
    name: "conv3_1_b"
    lr_mult: 2
    decay_mult: 0
  }
  convolution_param {
    num_output: 256
    pad: 1
    kernel_size: 3
  }
}
layer {
  name: "relu3_1c"
  type: "ReLU"
  bottom: "conv3_1c"
  top: "conv3_1c"
}
layer {
  name: "conv3_2c"
  type: "Convolution"
  bottom: "conv3_1c"
  top: "conv3_2c"
  param {
    name: "conv3_2_w"
    lr_mult: 1
    decay_mult: 1
  }
  param {
    name: "conv3_2_b"
    lr_mult: 2
    decay_mult: 0
  }
  convolution_param {
    num_output: 256
    pad: 1
    kernel_size: 3
  }
}
layer {
  name: "relu3_2c"
  type: "ReLU"
  bottom: "conv3_2c"
  top: "conv3_2c"
}
layer {
  name: "conv3_3c"
  type: "Convolution"
  bottom: "conv3_2c"
  top: "conv3_3c"
  param {
    name: "conv3_3_w"
    lr_mult: 1
    decay_mult: 1
  }
  param {
    name: "conv3_3_b"
    lr_mult: 2
    decay_mult: 0
  }
  convolution_param {
    num_output: 256
    pad: 1
    kernel_size: 3
  }
}
layer {
  name: "relu3_3c"
  type: "ReLU"
  bottom: "conv3_3c"
  top: "conv3_3c"
}
layer {
  name: "pool3c"
  type: "Pooling"
  bottom: "conv3_3c"
  top: "pool3c"
  pooling_param {
    pool: MAX
    kernel_size: 2
    stride: 2
  }
}
layer {
  name: "conv4_1c"
  type: "Convolution"
  bottom: "pool3c"
  top: "conv4_1c"
  param {
    name: "conv4_1_w"
    lr_mult: 1
    decay_mult: 1
  }
  param {
    name: "conv4_1_b"
    lr_mult: 2
    decay_mult: 0
  }
  convolution_param {
    num_output: 512
    pad: 1
    kernel_size: 3
  }
}
layer {
  name: "relu4_1c"
  type: "ReLU"
  bottom: "conv4_1c"
  top: "conv4_1c"
}
layer {
  name: "conv4_2c"
  type: "Convolution"
  bottom: "conv4_1c"
  top: "conv4_2c"
  param {
    name: "conv4_2_w"
    lr_mult: 1
    decay_mult: 1
  }
  param {
    name: "conv4_2_b"
    lr_mult: 2
    decay_mult: 0
  }
  convolution_param {
    num_output: 512
    pad: 1
    kernel_size: 3
  }
}
layer {
  name: "relu4_2c"
  type: "ReLU"
  bottom: "conv4_2c"
  top: "conv4_2c"
}
layer {
  name: "conv4_3c"
  type: "Convolution"
  bottom: "conv4_2c"
  top: "conv4_3c"
  param {
    name: "conv4_3_w"
    lr_mult: 1
    decay_mult: 1
  }
  param {
    name: "conv4_3_b"
    lr_mult: 2
    decay_mult: 0
  }
  convolution_param {
    num_output: 512
    pad: 1
    kernel_size: 3
  }
}
layer {
  name: "relu4_3c"
  type: "ReLU"
  bottom: "conv4_3c"
  top: "conv4_3c"
}
layer {
  name: "pool4c"
  type: "Pooling"
  bottom: "conv4_3c"
  top: "pool4c"
  pooling_param {
    pool: MAX
    kernel_size: 2
    stride: 2
  }
}
layer {
  name: "conv5_1c"
  type: "Convolution"
  bottom: "pool4c"
  top: "conv5_1c"
  param {
    name: "conv5_1_w"
    lr_mult: 1
    decay_mult: 1
  }
  param {
    name: "conv5_1_b"
    lr_mult: 2
    decay_mult: 0
  }
  convolution_param {
    num_output: 512
    pad: 1
    kernel_size: 3
  }
}
layer {
  name: "relu5_1c"
  type: "ReLU"
  bottom: "conv5_1c"
  top: "conv5_1c"
}
layer {
  name: "conv5_2c"
  type: "Convolution"
  bottom: "conv5_1c"
  top: "conv5_2c"
  param {
    name: "conv5_2_w"
    lr_mult: 1
    decay_mult: 1
  }
  param {
    name: "conv5_2_b"
    lr_mult: 2
    decay_mult: 0
  }
  convolution_param {
    num_output: 512
    pad: 1
    kernel_size: 3
  }
}
layer {
  name: "relu5_2c"
  type: "ReLU"
  bottom: "conv5_2c"
  top: "conv5_2c"
}
layer {
  name: "conv5_3c"
  type: "Convolution"
  bottom: "conv5_2c"
  top: "conv5_3c"
  param {
    name: "conv5_3_w"
    lr_mult: 1
    decay_mult: 1
  }
  param {
    name: "conv5_3_b"
    lr_mult: 2
    decay_mult: 0
  }
  convolution_param {
    num_output: 512
    kernel_size: 3
    pad_h: 5
    pad_w: 5
  }
}
layer {
  name: "relu5_3c"
  type: "ReLU"
  bottom: "conv5_3c"
  top: "conv5_3c"
}
layer {
  name: "conv1_1m"
  type: "Convolution"
  bottom: "masked_im"
  top: "conv1_1m"
  param {
    name: "conv1_1_w"
    lr_mult: 1
    decay_mult: 1
  }
  param {
    name: "conv1_1_b"
    lr_mult: 2
    decay_mult: 0
  }
  convolution_param {
    num_output: 64
    pad: 1
    kernel_size: 3
  }
}
layer {
  name: "relu1_1m"
  type: "ReLU"
  bottom: "conv1_1m"
  top: "conv1_1m"
}
layer {
  name: "conv1_2m"
  type: "Convolution"
  bottom: "conv1_1m"
  top: "conv1_2m"
  param {
    name: "conv1_2_w"
    lr_mult: 1
    decay_mult: 1
  }
  param {
    name: "conv1_2_b"
    lr_mult: 2
    decay_mult: 0
  }
  convolution_param {
    num_output: 64
    pad: 1
    kernel_size: 3
  }
}
layer {
  name: "relu1_2m"
  type: "ReLU"
  bottom: "conv1_2m"
  top: "conv1_2m"
}
layer {
  name: "pool1m"
  type: "Pooling"
  bottom: "conv1_2m"
  top: "pool1m"
  pooling_param {
    pool: MAX
    kernel_size: 2
    stride: 2
  }
}
layer {
  name: "conv2_1m"
  type: "Convolution"
  bottom: "pool1m"
  top: "conv2_1m"
  param {
    name: "conv2_1_w"
    lr_mult: 1
    decay_mult: 1
  }
  param {
    name: "conv2_1_b"
    lr_mult: 2
    decay_mult: 0
  }
  convolution_param {
    num_output: 128
    pad: 1
    kernel_size: 3
  }
}
layer {
  name: "relu2_1m"
  type: "ReLU"
  bottom: "conv2_1m"
  top: "conv2_1m"
}
layer {
  name: "conv2_2m"
  type: "Convolution"
  bottom: "conv2_1m"
  top: "conv2_2m"
  param {
    name: "conv2_2_w"
    lr_mult: 1
    decay_mult: 1
  }
  param {
    name: "conv2_2_b"
    lr_mult: 2
    decay_mult: 0
  }
  convolution_param {
    num_output: 128
    pad: 1
    kernel_size: 3
  }
}
layer {
  name: "relu2_2m"
  type: "ReLU"
  bottom: "conv2_2m"
  top: "conv2_2m"
}
layer {
  name: "pool2m"
  type: "Pooling"
  bottom: "conv2_2m"
  top: "pool2m"
  pooling_param {
    pool: MAX
    kernel_size: 2
    stride: 2
  }
}
layer {
  name: "conv3_1m"
  type: "Convolution"
  bottom: "pool2m"
  top: "conv3_1m"
  param {
    name: "conv3_1_w"
    lr_mult: 1
    decay_mult: 1
  }
  param {
    name: "conv3_1_b"
    lr_mult: 2
    decay_mult: 0
  }
  convolution_param {
    num_output: 256
    pad: 1
    kernel_size: 3
  }
}
layer {
  name: "relu3_1m"
  type: "ReLU"
  bottom: "conv3_1m"
  top: "conv3_1m"
}
layer {
  name: "conv3_2m"
  type: "Convolution"
  bottom: "conv3_1m"
  top: "conv3_2m"
  param {
    name: "conv3_2_w"
    lr_mult: 1
    decay_mult: 1
  }
  param {
    name: "conv3_2_b"
    lr_mult: 2
    decay_mult: 0
  }
  convolution_param {
    num_output: 256
    pad: 1
    kernel_size: 3
  }
}
layer {
  name: "relu3_2m"
  type: "ReLU"
  bottom: "conv3_2m"
  top: "conv3_2m"
}
layer {
  name: "conv3_3m"
  type: "Convolution"
  bottom: "conv3_2m"
  top: "conv3_3m"
  param {
    name: "conv3_3_w"
    lr_mult: 1
    decay_mult: 1
  }
  param {
    name: "conv3_3_b"
    lr_mult: 2
    decay_mult: 0
  }
  convolution_param {
    num_output: 256
    pad: 1
    kernel_size: 3
  }
}
layer {
  name: "relu3_3m"
  type: "ReLU"
  bottom: "conv3_3m"
  top: "conv3_3m"
}
layer {
  name: "pool3m"
  type: "Pooling"
  bottom: "conv3_3m"
  top: "pool3m"
  pooling_param {
    pool: MAX
    kernel_size: 2
    stride: 2
  }
}
layer {
  name: "conv4_1m"
  type: "Convolution"
  bottom: "pool3m"
  top: "conv4_1m"
  param {
    name: "conv4_1_w"
    lr_mult: 1
    decay_mult: 1
  }
  param {
    name: "conv4_1_b"
    lr_mult: 2
    decay_mult: 0
  }
  convolution_param {
    num_output: 512
    pad: 1
    kernel_size: 3
  }
}
layer {
  name: "relu4_1m"
  type: "ReLU"
  bottom: "conv4_1m"
  top: "conv4_1m"
}
layer {
  name: "conv4_2m"
  type: "Convolution"
  bottom: "conv4_1m"
  top: "conv4_2m"
  param {
    name: "conv4_2_w"
    lr_mult: 1
    decay_mult: 1
  }
  param {
    name: "conv4_2_b"
    lr_mult: 2
    decay_mult: 0
  }
  convolution_param {
    num_output: 512
    pad: 1
    kernel_size: 3
  }
}
layer {
  name: "relu4_2m"
  type: "ReLU"
  bottom: "conv4_2m"
  top: "conv4_2m"
}
layer {
  name: "conv4_3m"
  type: "Convolution"
  bottom: "conv4_2m"
  top: "conv4_3m"
  param {
    name: "conv4_3_w"
    lr_mult: 1
    decay_mult: 1
  }
  param {
    name: "conv4_3_b"
    lr_mult: 2
    decay_mult: 0
  }
  convolution_param {
    num_output: 512
    pad: 1
    kernel_size: 3
  }
}
layer {
  name: "relu4_3m"
  type: "ReLU"
  bottom: "conv4_3m"
  top: "conv4_3m"
}
layer {
  name: "pool4m"
  type: "Pooling"
  bottom: "conv4_3m"
  top: "pool4m"
  pooling_param {
    pool: MAX
    kernel_size: 2
    stride: 2
  }
}
layer {
  name: "conv5_1m"
  type: "Convolution"
  bottom: "pool4m"
  top: "conv5_1m"
  param {
    name: "conv5_1_w"
    lr_mult: 1
    decay_mult: 1
  }
  param {
    name: "conv5_1_b"
    lr_mult: 2
    decay_mult: 0
  }
  convolution_param {
    num_output: 512
    pad: 1
    kernel_size: 3
  }
}
layer {
  name: "relu5_1m"
  type: "ReLU"
  bottom: "conv5_1m"
  top: "conv5_1m"
}
layer {
  name: "conv5_2m"
  type: "Convolution"
  bottom: "conv5_1m"
  top: "conv5_2m"
  param {
    name: "conv5_2_w"
    lr_mult: 1
    decay_mult: 1
  }
  param {
    name: "conv5_2_b"
    lr_mult: 2
    decay_mult: 0
  }
  convolution_param {
    num_output: 512
    pad: 1
    kernel_size: 3
  }
}
layer {
  name: "relu5_2m"
  type: "ReLU"
  bottom: "conv5_2m"
  top: "conv5_2m"
}
layer {
  name: "conv5_3m"
  type: "Convolution"
  bottom: "conv5_2m"
  top: "conv5_3m"
  param {
    name: "conv5_3_w"
    lr_mult: 1
    decay_mult: 1
  }
  param {
    name: "conv5_3_b"
    lr_mult: 2
    decay_mult: 0
  }
  convolution_param {
    num_output: 512
    kernel_size: 3
    pad_h: 5
    pad_w: 5
  }
}
layer {
  name: "relu5_3m"
  type: "ReLU"
  bottom: "conv5_3m"
  top: "conv5_3m"
}
layer {
  name: "conv1_1n"
  type: "Convolution"
  bottom: "next_im"
  top: "conv1_1n"
  param {
    name: "conv1_1_w"
    lr_mult: 1
    decay_mult: 1
  }
  param {
    name: "conv1_1_b"
    lr_mult: 2
    decay_mult: 0
  }
  convolution_param {
    num_output: 64
    pad: 1
    kernel_size: 3
  }
}
layer {
  name: "relu1_1n"
  type: "ReLU"
  bottom: "conv1_1n"
  top: "conv1_1n"
}
layer {
  name: "conv1_2n"
  type: "Convolution"
  bottom: "conv1_1n"
  top: "conv1_2n"
  param {
    name: "conv1_2_w"
    lr_mult: 1
    decay_mult: 1
  }
  param {
    name: "conv1_2_b"
    lr_mult: 2
    decay_mult: 0
  }
  convolution_param {
    num_output: 64
    pad: 1
    kernel_size: 3
  }
}
layer {
  name: "relu1_2n"
  type: "ReLU"
  bottom: "conv1_2n"
  top: "conv1_2n"
}
layer {
  name: "pool1n"
  type: "Pooling"
  bottom: "conv1_2n"
  top: "pool1n"
  pooling_param {
    pool: MAX
    kernel_size: 2
    stride: 2
  }
}
layer {
  name: "conv2_1n"
  type: "Convolution"
  bottom: "pool1n"
  top: "conv2_1n"
  param {
    name: "conv2_1_w"
    lr_mult: 1
    decay_mult: 1
  }
  param {
    name: "conv2_1_b"
    lr_mult: 2
    decay_mult: 0
  }
  convolution_param {
    num_output: 128
    pad: 1
    kernel_size: 3
  }
}
layer {
  name: "relu2_1n"
  type: "ReLU"
  bottom: "conv2_1n"
  top: "conv2_1n"
}
layer {
  name: "conv2_2n"
  type: "Convolution"
  bottom: "conv2_1n"
  top: "conv2_2n"
  param {
    name: "conv2_2_w"
    lr_mult: 1
    decay_mult: 1
  }
  param {
    name: "conv2_2_b"
    lr_mult: 2
    decay_mult: 0
  }
  convolution_param {
    num_output: 128
    pad: 1
    kernel_size: 3
  }
}
layer {
  name: "relu2_2n"
  type: "ReLU"
  bottom: "conv2_2n"
  top: "conv2_2n"
}
layer {
  name: "pool2n"
  type: "Pooling"
  bottom: "conv2_2n"
  top: "pool2n"
  pooling_param {
    pool: MAX
    kernel_size: 2
    stride: 2
  }
}
layer {
  name: "conv3_1n"
  type: "Convolution"
  bottom: "pool2n"
  top: "conv3_1n"
  param {
    name: "conv3_1_w"
    lr_mult: 1
    decay_mult: 1
  }
  param {
    name: "conv3_1_b"
    lr_mult: 2
    decay_mult: 0
  }
  convolution_param {
    num_output: 256
    pad: 1
    kernel_size: 3
  }
}
layer {
  name: "relu3_1n"
  type: "ReLU"
  bottom: "conv3_1n"
  top: "conv3_1n"
}
layer {
  name: "conv3_2n"
  type: "Convolution"
  bottom: "conv3_1n"
  top: "conv3_2n"
  param {
    name: "conv3_2_w"
    lr_mult: 1
    decay_mult: 1
  }
  param {
    name: "conv3_2_b"
    lr_mult: 2
    decay_mult: 0
  }
  convolution_param {
    num_output: 256
    pad: 1
    kernel_size: 3
  }
}
layer {
  name: "relu3_2n"
  type: "ReLU"
  bottom: "conv3_2n"
  top: "conv3_2n"
}
layer {
  name: "conv3_3n"
  type: "Convolution"
  bottom: "conv3_2n"
  top: "conv3_3n"
  param {
    name: "conv3_3_w"
    lr_mult: 1
    decay_mult: 1
  }
  param {
    name: "conv3_3_b"
    lr_mult: 2
    decay_mult: 0
  }
  convolution_param {
    num_output: 256
    pad: 1
    kernel_size: 3
  }
}
layer {
  name: "relu3_3n"
  type: "ReLU"
  bottom: "conv3_3n"
  top: "conv3_3n"
}
layer {
  name: "pool3n"
  type: "Pooling"
  bottom: "conv3_3n"
  top: "pool3n"
  pooling_param {
    pool: MAX
    kernel_size: 2
    stride: 2
  }
}
layer {
  name: "conv4_1n"
  type: "Convolution"
  bottom: "pool3n"
  top: "conv4_1n"
  param {
    name: "conv4_1_w"
    lr_mult: 1
    decay_mult: 1
  }
  param {
    name: "conv4_1_b"
    lr_mult: 2
    decay_mult: 0
  }
  convolution_param {
    num_output: 512
    pad: 1
    kernel_size: 3
  }
}
layer {
  name: "relu4_1n"
  type: "ReLU"
  bottom: "conv4_1n"
  top: "conv4_1n"
}
layer {
  name: "conv4_2n"
  type: "Convolution"
  bottom: "conv4_1n"
  top: "conv4_2n"
  param {
    name: "conv4_2_w"
    lr_mult: 1
    decay_mult: 1
  }
  param {
    name: "conv4_2_b"
    lr_mult: 2
    decay_mult: 0
  }
  convolution_param {
    num_output: 512
    pad: 1
    kernel_size: 3
  }
}
layer {
  name: "relu4_2n"
  type: "ReLU"
  bottom: "conv4_2n"
  top: "conv4_2n"
}
layer {
  name: "conv4_3n"
  type: "Convolution"
  bottom: "conv4_2n"
  top: "conv4_3n"
  param {
    name: "conv4_3_w"
    lr_mult: 1
    decay_mult: 1
  }
  param {
    name: "conv4_3_b"
    lr_mult: 2
    decay_mult: 0
  }
  convolution_param {
    num_output: 512
    pad: 1
    kernel_size: 3
  }
}
layer {
  name: "relu4_3n"
  type: "ReLU"
  bottom: "conv4_3n"
  top: "conv4_3n"
}
layer {
  name: "pool4n"
  type: "Pooling"
  bottom: "conv4_3n"
  top: "pool4n"
  pooling_param {
    pool: MAX
    kernel_size: 2
    stride: 2
  }
}
layer {
  name: "conv5_1n"
  type: "Convolution"
  bottom: "pool4n"
  top: "conv5_1n"
  param {
    name: "conv5_1_w"
    lr_mult: 1
    decay_mult: 1
  }
  param {
    name: "conv5_1_b"
    lr_mult: 2
    decay_mult: 0
  }
  convolution_param {
    num_output: 512
    pad: 1
    kernel_size: 3
  }
}
layer {
  name: "relu5_1n"
  type: "ReLU"
  bottom: "conv5_1n"
  top: "conv5_1n"
}
layer {
  name: "conv5_2n"
  type: "Convolution"
  bottom: "conv5_1n"
  top: "conv5_2n"
  param {
    name: "conv5_2_w"
    lr_mult: 1
    decay_mult: 1
  }
  param {
    name: "conv5_2_b"
    lr_mult: 2
    decay_mult: 0
  }
  convolution_param {
    num_output: 512
    pad: 1
    kernel_size: 3
  }
}
layer {
  name: "relu5_2n"
  type: "ReLU"
  bottom: "conv5_2n"
  top: "conv5_2n"
}
layer {
  name: "conv5_3n"
  type: "Convolution"
  bottom: "conv5_2n"
  top: "conv5_3n"
  param {
    name: "conv5_3_w"
    lr_mult: 1
    decay_mult: 1
  }
  param {
    name: "conv5_3_b"
    lr_mult: 2
    decay_mult: 0
  }
  convolution_param {
    num_output: 512
    pad: 1
    kernel_size: 3
  }
}
layer {
  name: "relu5_3n"
  type: "ReLU"
  bottom: "conv5_3n"
  top: "conv5_3n"
}
layer {
  name: "concat1"
  type: "Concat"
  bottom: "conv5_3c"
  bottom: "conv5_3m"
  bottom: "conv5_3n"
  top: "concat1"
}
layer {
  name: "fc6"
  type: "Convolution"
  bottom: "concat1"
  top: "fc6"
  param {
    lr_mult: 1
    decay_mult: 1
  }
  param {
    lr_mult: 2
    decay_mult: 0
  }
  convolution_param {
    num_output: 1024
    pad: 1
    kernel_size: 3
  }
}
layer {
  name: "relu6"
  type: "ReLU"
  bottom: "fc6"
  top: "fc6"
}
layer {
  name: "fc7"
  type: "InnerProduct"
  bottom: "fc6"
  top: "fc7"
  inner_product_param {
    num_output: 1024
  }
}
layer {
  name: "fc8"
  type: "InnerProduct"
  bottom: "fc7"
  top: "fc8"
  inner_product_param {
    num_output: 8192
  }
}
layer {
  name: "reshape"
  type: "Reshape"
  bottom: "fc8"
  top: "reshape"
  reshape_param {
    shape {
      dim: 0
      dim: 2
      dim: 64
      dim: 64
    }
  }
}
layer {
  name: "score"
  type: "Deconvolution"
  bottom: "reshape"
  top: "score"
  param {
    lr_mult: 0
    decay_mult: 0
  }
  convolution_param {
    num_output: 2
    bias_term: false
    pad: 2
    kernel_size: 8
    group: 2
    stride: 4
    weight_filler {
      type: "bilinear"
    }
  }
}
layer {
  name: "loss"
  type: "SoftmaxWithLoss"
  bottom: "score"
  bottom: "label"
  top: "loss"
  loss_param {
    ignore_label: 255
  }
}
I0625 06:30:50.240008 21032 layer_factory.hpp:77] Creating layer cur_im
I0625 06:30:50.711338 21032 net.cpp:91] Creating Layer cur_im
I0625 06:30:50.711369 21032 net.cpp:399] cur_im -> cur_im
I0625 06:30:50.711386 21032 net.cpp:399] cur_im -> masked_im
I0625 06:30:50.711395 21032 net.cpp:399] cur_im -> next_im
I0625 06:30:50.711400 21032 net.cpp:399] cur_im -> label
loading annotations into memory...
Done (t=10.10s)
creating index...
index created!
I0625 06:31:11.075559 21032 net.cpp:141] Setting up cur_im
I0625 06:31:11.075675 21032 net.cpp:148] Top shape: 24 3 128 128 (1179648)
I0625 06:31:11.075691 21032 net.cpp:148] Top shape: 24 3 128 128 (1179648)
I0625 06:31:11.075700 21032 net.cpp:148] Top shape: 24 3 256 256 (4718592)
I0625 06:31:11.075703 21032 net.cpp:148] Top shape: 24 1 256 256 (1572864)
I0625 06:31:11.075706 21032 net.cpp:156] Memory required for data: 34603008
I0625 06:31:11.075733 21032 layer_factory.hpp:77] Creating layer conv1_1c
I0625 06:31:11.075847 21032 net.cpp:91] Creating Layer conv1_1c
I0625 06:31:11.075856 21032 net.cpp:425] conv1_1c <- cur_im
I0625 06:31:11.075932 21032 net.cpp:399] conv1_1c -> conv1_1c
I0625 06:31:11.274226 21032 net.cpp:141] Setting up conv1_1c
I0625 06:31:11.274350 21032 net.cpp:148] Top shape: 24 64 128 128 (25165824)
I0625 06:31:11.274379 21032 net.cpp:156] Memory required for data: 135266304
I0625 06:31:11.274433 21032 layer_factory.hpp:77] Creating layer relu1_1c
I0625 06:31:11.274482 21032 net.cpp:91] Creating Layer relu1_1c
I0625 06:31:11.274499 21032 net.cpp:425] relu1_1c <- conv1_1c
I0625 06:31:11.274536 21032 net.cpp:386] relu1_1c -> conv1_1c (in-place)
I0625 06:31:11.274718 21032 net.cpp:141] Setting up relu1_1c
I0625 06:31:11.274740 21032 net.cpp:148] Top shape: 24 64 128 128 (25165824)
I0625 06:31:11.274755 21032 net.cpp:156] Memory required for data: 235929600
I0625 06:31:11.274770 21032 layer_factory.hpp:77] Creating layer conv1_2c
I0625 06:31:11.274811 21032 net.cpp:91] Creating Layer conv1_2c
I0625 06:31:11.274828 21032 net.cpp:425] conv1_2c <- conv1_1c
I0625 06:31:11.274866 21032 net.cpp:399] conv1_2c -> conv1_2c
I0625 06:31:11.276106 21032 net.cpp:141] Setting up conv1_2c
I0625 06:31:11.276135 21032 net.cpp:148] Top shape: 24 64 128 128 (25165824)
I0625 06:31:11.276150 21032 net.cpp:156] Memory required for data: 336592896
I0625 06:31:11.276170 21032 layer_factory.hpp:77] Creating layer relu1_2c
I0625 06:31:11.276201 21032 net.cpp:91] Creating Layer relu1_2c
I0625 06:31:11.276217 21032 net.cpp:425] relu1_2c <- conv1_2c
I0625 06:31:11.276244 21032 net.cpp:386] relu1_2c -> conv1_2c (in-place)
I0625 06:31:11.276500 21032 net.cpp:141] Setting up relu1_2c
I0625 06:31:11.276523 21032 net.cpp:148] Top shape: 24 64 128 128 (25165824)
I0625 06:31:11.276537 21032 net.cpp:156] Memory required for data: 437256192
I0625 06:31:11.276552 21032 layer_factory.hpp:77] Creating layer pool1c
I0625 06:31:11.276579 21032 net.cpp:91] Creating Layer pool1c
I0625 06:31:11.276595 21032 net.cpp:425] pool1c <- conv1_2c
I0625 06:31:11.276624 21032 net.cpp:399] pool1c -> pool1c
I0625 06:31:11.276701 21032 net.cpp:141] Setting up pool1c
I0625 06:31:11.276721 21032 net.cpp:148] Top shape: 24 64 64 64 (6291456)
I0625 06:31:11.276734 21032 net.cpp:156] Memory required for data: 462422016
I0625 06:31:11.276751 21032 layer_factory.hpp:77] Creating layer conv2_1c
I0625 06:31:11.276787 21032 net.cpp:91] Creating Layer conv2_1c
I0625 06:31:11.276801 21032 net.cpp:425] conv2_1c <- pool1c
I0625 06:31:11.276834 21032 net.cpp:399] conv2_1c -> conv2_1c
I0625 06:31:11.278269 21032 net.cpp:141] Setting up conv2_1c
I0625 06:31:11.278301 21032 net.cpp:148] Top shape: 24 128 64 64 (12582912)
I0625 06:31:11.278316 21032 net.cpp:156] Memory required for data: 512753664
I0625 06:31:11.278337 21032 layer_factory.hpp:77] Creating layer relu2_1c
I0625 06:31:11.278365 21032 net.cpp:91] Creating Layer relu2_1c
I0625 06:31:11.278383 21032 net.cpp:425] relu2_1c <- conv2_1c
I0625 06:31:11.278411 21032 net.cpp:386] relu2_1c -> conv2_1c (in-place)
I0625 06:31:11.278597 21032 net.cpp:141] Setting up relu2_1c
I0625 06:31:11.278625 21032 net.cpp:148] Top shape: 24 128 64 64 (12582912)
I0625 06:31:11.278640 21032 net.cpp:156] Memory required for data: 563085312
I0625 06:31:11.278656 21032 layer_factory.hpp:77] Creating layer conv2_2c
I0625 06:31:11.278703 21032 net.cpp:91] Creating Layer conv2_2c
I0625 06:31:11.278723 21032 net.cpp:425] conv2_2c <- conv2_1c
I0625 06:31:11.278764 21032 net.cpp:399] conv2_2c -> conv2_2c
I0625 06:31:11.280328 21032 net.cpp:141] Setting up conv2_2c
I0625 06:31:11.280359 21032 net.cpp:148] Top shape: 24 128 64 64 (12582912)
I0625 06:31:11.280375 21032 net.cpp:156] Memory required for data: 613416960
I0625 06:31:11.280397 21032 layer_factory.hpp:77] Creating layer relu2_2c
I0625 06:31:11.280424 21032 net.cpp:91] Creating Layer relu2_2c
I0625 06:31:11.280439 21032 net.cpp:425] relu2_2c <- conv2_2c
I0625 06:31:11.280469 21032 net.cpp:386] relu2_2c -> conv2_2c (in-place)
I0625 06:31:11.280645 21032 net.cpp:141] Setting up relu2_2c
I0625 06:31:11.280666 21032 net.cpp:148] Top shape: 24 128 64 64 (12582912)
I0625 06:31:11.280680 21032 net.cpp:156] Memory required for data: 663748608
I0625 06:31:11.280699 21032 layer_factory.hpp:77] Creating layer pool2c
I0625 06:31:11.280730 21032 net.cpp:91] Creating Layer pool2c
I0625 06:31:11.280753 21032 net.cpp:425] pool2c <- conv2_2c
I0625 06:31:11.280786 21032 net.cpp:399] pool2c -> pool2c
I0625 06:31:11.280855 21032 net.cpp:141] Setting up pool2c
I0625 06:31:11.280884 21032 net.cpp:148] Top shape: 24 128 32 32 (3145728)
I0625 06:31:11.280899 21032 net.cpp:156] Memory required for data: 676331520
I0625 06:31:11.280912 21032 layer_factory.hpp:77] Creating layer conv3_1c
I0625 06:31:11.280957 21032 net.cpp:91] Creating Layer conv3_1c
I0625 06:31:11.280973 21032 net.cpp:425] conv3_1c <- pool2c
I0625 06:31:11.281008 21032 net.cpp:399] conv3_1c -> conv3_1c
I0625 06:31:11.282677 21032 net.cpp:141] Setting up conv3_1c
I0625 06:31:11.282706 21032 net.cpp:148] Top shape: 24 256 32 32 (6291456)
I0625 06:31:11.282721 21032 net.cpp:156] Memory required for data: 701497344
I0625 06:31:11.282747 21032 layer_factory.hpp:77] Creating layer relu3_1c
I0625 06:31:11.282775 21032 net.cpp:91] Creating Layer relu3_1c
I0625 06:31:11.282791 21032 net.cpp:425] relu3_1c <- conv3_1c
I0625 06:31:11.282815 21032 net.cpp:386] relu3_1c -> conv3_1c (in-place)
I0625 06:31:11.283085 21032 net.cpp:141] Setting up relu3_1c
I0625 06:31:11.283109 21032 net.cpp:148] Top shape: 24 256 32 32 (6291456)
I0625 06:31:11.283123 21032 net.cpp:156] Memory required for data: 726663168
I0625 06:31:11.283138 21032 layer_factory.hpp:77] Creating layer conv3_2c
I0625 06:31:11.283176 21032 net.cpp:91] Creating Layer conv3_2c
I0625 06:31:11.283192 21032 net.cpp:425] conv3_2c <- conv3_1c
I0625 06:31:11.283231 21032 net.cpp:399] conv3_2c -> conv3_2c
I0625 06:31:11.284947 21032 net.cpp:141] Setting up conv3_2c
I0625 06:31:11.284984 21032 net.cpp:148] Top shape: 24 256 32 32 (6291456)
I0625 06:31:11.285001 21032 net.cpp:156] Memory required for data: 751828992
I0625 06:31:11.285027 21032 layer_factory.hpp:77] Creating layer relu3_2c
I0625 06:31:11.285056 21032 net.cpp:91] Creating Layer relu3_2c
I0625 06:31:11.285073 21032 net.cpp:425] relu3_2c <- conv3_2c
I0625 06:31:11.285102 21032 net.cpp:386] relu3_2c -> conv3_2c (in-place)
I0625 06:31:11.285276 21032 net.cpp:141] Setting up relu3_2c
I0625 06:31:11.285297 21032 net.cpp:148] Top shape: 24 256 32 32 (6291456)
I0625 06:31:11.285311 21032 net.cpp:156] Memory required for data: 776994816
I0625 06:31:11.285326 21032 layer_factory.hpp:77] Creating layer conv3_3c
I0625 06:31:11.285373 21032 net.cpp:91] Creating Layer conv3_3c
I0625 06:31:11.285389 21032 net.cpp:425] conv3_3c <- conv3_2c
I0625 06:31:11.285429 21032 net.cpp:399] conv3_3c -> conv3_3c
I0625 06:31:11.288043 21032 net.cpp:141] Setting up conv3_3c
I0625 06:31:11.288133 21032 net.cpp:148] Top shape: 24 256 32 32 (6291456)
I0625 06:31:11.288151 21032 net.cpp:156] Memory required for data: 802160640
I0625 06:31:11.288180 21032 layer_factory.hpp:77] Creating layer relu3_3c
I0625 06:31:11.288233 21032 net.cpp:91] Creating Layer relu3_3c
I0625 06:31:11.288250 21032 net.cpp:425] relu3_3c <- conv3_3c
I0625 06:31:11.288290 21032 net.cpp:386] relu3_3c -> conv3_3c (in-place)
I0625 06:31:11.288501 21032 net.cpp:141] Setting up relu3_3c
I0625 06:31:11.288524 21032 net.cpp:148] Top shape: 24 256 32 32 (6291456)
I0625 06:31:11.288539 21032 net.cpp:156] Memory required for data: 827326464
I0625 06:31:11.288554 21032 layer_factory.hpp:77] Creating layer pool3c
I0625 06:31:11.288589 21032 net.cpp:91] Creating Layer pool3c
I0625 06:31:11.288604 21032 net.cpp:425] pool3c <- conv3_3c
I0625 06:31:11.288646 21032 net.cpp:399] pool3c -> pool3c
I0625 06:31:11.288744 21032 net.cpp:141] Setting up pool3c
I0625 06:31:11.288765 21032 net.cpp:148] Top shape: 24 256 16 16 (1572864)
I0625 06:31:11.288779 21032 net.cpp:156] Memory required for data: 833617920
I0625 06:31:11.288796 21032 layer_factory.hpp:77] Creating layer conv4_1c
I0625 06:31:11.288851 21032 net.cpp:91] Creating Layer conv4_1c
I0625 06:31:11.288866 21032 net.cpp:425] conv4_1c <- pool3c
I0625 06:31:11.288929 21032 net.cpp:399] conv4_1c -> conv4_1c
I0625 06:31:11.292170 21032 net.cpp:141] Setting up conv4_1c
I0625 06:31:11.292235 21032 net.cpp:148] Top shape: 24 512 16 16 (3145728)
I0625 06:31:11.292251 21032 net.cpp:156] Memory required for data: 846200832
I0625 06:31:11.292282 21032 layer_factory.hpp:77] Creating layer relu4_1c
I0625 06:31:11.292316 21032 net.cpp:91] Creating Layer relu4_1c
I0625 06:31:11.292341 21032 net.cpp:425] relu4_1c <- conv4_1c
I0625 06:31:11.292372 21032 net.cpp:386] relu4_1c -> conv4_1c (in-place)
I0625 06:31:11.292649 21032 net.cpp:141] Setting up relu4_1c
I0625 06:31:11.292672 21032 net.cpp:148] Top shape: 24 512 16 16 (3145728)
I0625 06:31:11.292686 21032 net.cpp:156] Memory required for data: 858783744
I0625 06:31:11.292701 21032 layer_factory.hpp:77] Creating layer conv4_2c
I0625 06:31:11.292747 21032 net.cpp:91] Creating Layer conv4_2c
I0625 06:31:11.292763 21032 net.cpp:425] conv4_2c <- conv4_1c
I0625 06:31:11.292804 21032 net.cpp:399] conv4_2c -> conv4_2c
I0625 06:31:11.299192 21032 net.cpp:141] Setting up conv4_2c
I0625 06:31:11.299293 21032 net.cpp:148] Top shape: 24 512 16 16 (3145728)
I0625 06:31:11.299312 21032 net.cpp:156] Memory required for data: 871366656
I0625 06:31:11.299352 21032 layer_factory.hpp:77] Creating layer relu4_2c
I0625 06:31:11.299387 21032 net.cpp:91] Creating Layer relu4_2c
I0625 06:31:11.299407 21032 net.cpp:425] relu4_2c <- conv4_2c
I0625 06:31:11.299441 21032 net.cpp:386] relu4_2c -> conv4_2c (in-place)
I0625 06:31:11.299629 21032 net.cpp:141] Setting up relu4_2c
I0625 06:31:11.299651 21032 net.cpp:148] Top shape: 24 512 16 16 (3145728)
I0625 06:31:11.299665 21032 net.cpp:156] Memory required for data: 883949568
I0625 06:31:11.299680 21032 layer_factory.hpp:77] Creating layer conv4_3c
I0625 06:31:11.299733 21032 net.cpp:91] Creating Layer conv4_3c
I0625 06:31:11.299749 21032 net.cpp:425] conv4_3c <- conv4_2c
I0625 06:31:11.299795 21032 net.cpp:399] conv4_3c -> conv4_3c
I0625 06:31:11.305634 21032 net.cpp:141] Setting up conv4_3c
I0625 06:31:11.305692 21032 net.cpp:148] Top shape: 24 512 16 16 (3145728)
I0625 06:31:11.305708 21032 net.cpp:156] Memory required for data: 896532480
I0625 06:31:11.305732 21032 layer_factory.hpp:77] Creating layer relu4_3c
I0625 06:31:11.305763 21032 net.cpp:91] Creating Layer relu4_3c
I0625 06:31:11.305779 21032 net.cpp:425] relu4_3c <- conv4_3c
I0625 06:31:11.305810 21032 net.cpp:386] relu4_3c -> conv4_3c (in-place)
I0625 06:31:11.305984 21032 net.cpp:141] Setting up relu4_3c
I0625 06:31:11.306005 21032 net.cpp:148] Top shape: 24 512 16 16 (3145728)
I0625 06:31:11.306020 21032 net.cpp:156] Memory required for data: 909115392
I0625 06:31:11.306035 21032 layer_factory.hpp:77] Creating layer pool4c
I0625 06:31:11.306061 21032 net.cpp:91] Creating Layer pool4c
I0625 06:31:11.306076 21032 net.cpp:425] pool4c <- conv4_3c
I0625 06:31:11.306103 21032 net.cpp:399] pool4c -> pool4c
I0625 06:31:11.306166 21032 net.cpp:141] Setting up pool4c
I0625 06:31:11.306185 21032 net.cpp:148] Top shape: 24 512 8 8 (786432)
I0625 06:31:11.306198 21032 net.cpp:156] Memory required for data: 912261120
I0625 06:31:11.306212 21032 layer_factory.hpp:77] Creating layer conv5_1c
I0625 06:31:11.306252 21032 net.cpp:91] Creating Layer conv5_1c
I0625 06:31:11.306267 21032 net.cpp:425] conv5_1c <- pool4c
I0625 06:31:11.306303 21032 net.cpp:399] conv5_1c -> conv5_1c
I0625 06:31:11.311081 21032 net.cpp:141] Setting up conv5_1c
I0625 06:31:11.311187 21032 net.cpp:148] Top shape: 24 512 8 8 (786432)
I0625 06:31:11.311209 21032 net.cpp:156] Memory required for data: 915406848
I0625 06:31:11.311239 21032 layer_factory.hpp:77] Creating layer relu5_1c
I0625 06:31:11.311270 21032 net.cpp:91] Creating Layer relu5_1c
I0625 06:31:11.311288 21032 net.cpp:425] relu5_1c <- conv5_1c
I0625 06:31:11.311323 21032 net.cpp:386] relu5_1c -> conv5_1c (in-place)
I0625 06:31:11.311625 21032 net.cpp:141] Setting up relu5_1c
I0625 06:31:11.311648 21032 net.cpp:148] Top shape: 24 512 8 8 (786432)
I0625 06:31:11.311663 21032 net.cpp:156] Memory required for data: 918552576
I0625 06:31:11.311678 21032 layer_factory.hpp:77] Creating layer conv5_2c
I0625 06:31:11.311718 21032 net.cpp:91] Creating Layer conv5_2c
I0625 06:31:11.311735 21032 net.cpp:425] conv5_2c <- conv5_1c
I0625 06:31:11.311774 21032 net.cpp:399] conv5_2c -> conv5_2c
I0625 06:31:11.316220 21032 net.cpp:141] Setting up conv5_2c
I0625 06:31:11.316274 21032 net.cpp:148] Top shape: 24 512 8 8 (786432)
I0625 06:31:11.316300 21032 net.cpp:156] Memory required for data: 921698304
I0625 06:31:11.316325 21032 layer_factory.hpp:77] Creating layer relu5_2c
I0625 06:31:11.316359 21032 net.cpp:91] Creating Layer relu5_2c
I0625 06:31:11.316377 21032 net.cpp:425] relu5_2c <- conv5_2c
I0625 06:31:11.316412 21032 net.cpp:386] relu5_2c -> conv5_2c (in-place)
I0625 06:31:11.316596 21032 net.cpp:141] Setting up relu5_2c
I0625 06:31:11.316618 21032 net.cpp:148] Top shape: 24 512 8 8 (786432)
I0625 06:31:11.316632 21032 net.cpp:156] Memory required for data: 924844032
I0625 06:31:11.316649 21032 layer_factory.hpp:77] Creating layer conv5_3c
I0625 06:31:11.316687 21032 net.cpp:91] Creating Layer conv5_3c
I0625 06:31:11.316704 21032 net.cpp:425] conv5_3c <- conv5_2c
I0625 06:31:11.316738 21032 net.cpp:399] conv5_3c -> conv5_3c
I0625 06:31:11.320991 21032 net.cpp:141] Setting up conv5_3c
I0625 06:31:11.321076 21032 net.cpp:148] Top shape: 24 512 16 16 (3145728)
I0625 06:31:11.321092 21032 net.cpp:156] Memory required for data: 937426944
I0625 06:31:11.321118 21032 layer_factory.hpp:77] Creating layer relu5_3c
I0625 06:31:11.321147 21032 net.cpp:91] Creating Layer relu5_3c
I0625 06:31:11.321163 21032 net.cpp:425] relu5_3c <- conv5_3c
I0625 06:31:11.321192 21032 net.cpp:386] relu5_3c -> conv5_3c (in-place)
I0625 06:31:11.321480 21032 net.cpp:141] Setting up relu5_3c
I0625 06:31:11.321508 21032 net.cpp:148] Top shape: 24 512 16 16 (3145728)
I0625 06:31:11.321523 21032 net.cpp:156] Memory required for data: 950009856
I0625 06:31:11.321537 21032 layer_factory.hpp:77] Creating layer conv1_1m
I0625 06:31:11.321575 21032 net.cpp:91] Creating Layer conv1_1m
I0625 06:31:11.321591 21032 net.cpp:425] conv1_1m <- masked_im
I0625 06:31:11.321630 21032 net.cpp:399] conv1_1m -> conv1_1m
I0625 06:31:11.322618 21032 net.cpp:141] Setting up conv1_1m
I0625 06:31:11.322643 21032 net.cpp:148] Top shape: 24 64 128 128 (25165824)
I0625 06:31:11.322657 21032 net.cpp:156] Memory required for data: 1050673152
I0625 06:31:11.322675 21032 net.cpp:484] Sharing parameters 'conv1_1_w' owned by layer 'conv1_1c', param index 0
I0625 06:31:11.322695 21032 net.cpp:484] Sharing parameters 'conv1_1_b' owned by layer 'conv1_1c', param index 1
I0625 06:31:11.322710 21032 layer_factory.hpp:77] Creating layer relu1_1m
I0625 06:31:11.322739 21032 net.cpp:91] Creating Layer relu1_1m
I0625 06:31:11.322754 21032 net.cpp:425] relu1_1m <- conv1_1m
I0625 06:31:11.322780 21032 net.cpp:386] relu1_1m -> conv1_1m (in-place)
I0625 06:31:11.323052 21032 net.cpp:141] Setting up relu1_1m
I0625 06:31:11.323076 21032 net.cpp:148] Top shape: 24 64 128 128 (25165824)
I0625 06:31:11.323089 21032 net.cpp:156] Memory required for data: 1151336448
I0625 06:31:11.323106 21032 layer_factory.hpp:77] Creating layer conv1_2m
I0625 06:31:11.323144 21032 net.cpp:91] Creating Layer conv1_2m
I0625 06:31:11.323159 21032 net.cpp:425] conv1_2m <- conv1_1m
I0625 06:31:11.323195 21032 net.cpp:399] conv1_2m -> conv1_2m
I0625 06:31:11.324264 21032 net.cpp:141] Setting up conv1_2m
I0625 06:31:11.324293 21032 net.cpp:148] Top shape: 24 64 128 128 (25165824)
I0625 06:31:11.324307 21032 net.cpp:156] Memory required for data: 1251999744
I0625 06:31:11.324327 21032 net.cpp:484] Sharing parameters 'conv1_2_w' owned by layer 'conv1_2c', param index 0
I0625 06:31:11.324347 21032 net.cpp:484] Sharing parameters 'conv1_2_b' owned by layer 'conv1_2c', param index 1
I0625 06:31:11.324363 21032 layer_factory.hpp:77] Creating layer relu1_2m
I0625 06:31:11.324388 21032 net.cpp:91] Creating Layer relu1_2m
I0625 06:31:11.324403 21032 net.cpp:425] relu1_2m <- conv1_2m
I0625 06:31:11.324430 21032 net.cpp:386] relu1_2m -> conv1_2m (in-place)
I0625 06:31:11.324607 21032 net.cpp:141] Setting up relu1_2m
I0625 06:31:11.324628 21032 net.cpp:148] Top shape: 24 64 128 128 (25165824)
I0625 06:31:11.324642 21032 net.cpp:156] Memory required for data: 1352663040
I0625 06:31:11.324656 21032 layer_factory.hpp:77] Creating layer pool1m
I0625 06:31:11.324692 21032 net.cpp:91] Creating Layer pool1m
I0625 06:31:11.324707 21032 net.cpp:425] pool1m <- conv1_2m
I0625 06:31:11.324744 21032 net.cpp:399] pool1m -> pool1m
I0625 06:31:11.324818 21032 net.cpp:141] Setting up pool1m
I0625 06:31:11.324838 21032 net.cpp:148] Top shape: 24 64 64 64 (6291456)
I0625 06:31:11.324851 21032 net.cpp:156] Memory required for data: 1377828864
I0625 06:31:11.324865 21032 layer_factory.hpp:77] Creating layer conv2_1m
I0625 06:31:11.324905 21032 net.cpp:91] Creating Layer conv2_1m
I0625 06:31:11.324921 21032 net.cpp:425] conv2_1m <- pool1m
I0625 06:31:11.324965 21032 net.cpp:399] conv2_1m -> conv2_1m
I0625 06:31:11.326427 21032 net.cpp:141] Setting up conv2_1m
I0625 06:31:11.326462 21032 net.cpp:148] Top shape: 24 128 64 64 (12582912)
I0625 06:31:11.326478 21032 net.cpp:156] Memory required for data: 1428160512
I0625 06:31:11.326498 21032 net.cpp:484] Sharing parameters 'conv2_1_w' owned by layer 'conv2_1c', param index 0
I0625 06:31:11.326519 21032 net.cpp:484] Sharing parameters 'conv2_1_b' owned by layer 'conv2_1c', param index 1
I0625 06:31:11.326537 21032 layer_factory.hpp:77] Creating layer relu2_1m
I0625 06:31:11.326570 21032 net.cpp:91] Creating Layer relu2_1m
I0625 06:31:11.326586 21032 net.cpp:425] relu2_1m <- conv2_1m
I0625 06:31:11.326622 21032 net.cpp:386] relu2_1m -> conv2_1m (in-place)
I0625 06:31:11.326807 21032 net.cpp:141] Setting up relu2_1m
I0625 06:31:11.326830 21032 net.cpp:148] Top shape: 24 128 64 64 (12582912)
I0625 06:31:11.326844 21032 net.cpp:156] Memory required for data: 1478492160
I0625 06:31:11.326859 21032 layer_factory.hpp:77] Creating layer conv2_2m
I0625 06:31:11.326902 21032 net.cpp:91] Creating Layer conv2_2m
I0625 06:31:11.326918 21032 net.cpp:425] conv2_2m <- conv2_1m
I0625 06:31:11.326954 21032 net.cpp:399] conv2_2m -> conv2_2m
I0625 06:31:11.328099 21032 net.cpp:141] Setting up conv2_2m
I0625 06:31:11.328130 21032 net.cpp:148] Top shape: 24 128 64 64 (12582912)
I0625 06:31:11.328145 21032 net.cpp:156] Memory required for data: 1528823808
I0625 06:31:11.328171 21032 net.cpp:484] Sharing parameters 'conv2_2_w' owned by layer 'conv2_2c', param index 0
I0625 06:31:11.328191 21032 net.cpp:484] Sharing parameters 'conv2_2_b' owned by layer 'conv2_2c', param index 1
I0625 06:31:11.328205 21032 layer_factory.hpp:77] Creating layer relu2_2m
I0625 06:31:11.328230 21032 net.cpp:91] Creating Layer relu2_2m
I0625 06:31:11.328246 21032 net.cpp:425] relu2_2m <- conv2_2m
I0625 06:31:11.328274 21032 net.cpp:386] relu2_2m -> conv2_2m (in-place)
I0625 06:31:11.328558 21032 net.cpp:141] Setting up relu2_2m
I0625 06:31:11.328583 21032 net.cpp:148] Top shape: 24 128 64 64 (12582912)
I0625 06:31:11.328598 21032 net.cpp:156] Memory required for data: 1579155456
I0625 06:31:11.328613 21032 layer_factory.hpp:77] Creating layer pool2m
I0625 06:31:11.328639 21032 net.cpp:91] Creating Layer pool2m
I0625 06:31:11.328654 21032 net.cpp:425] pool2m <- conv2_2m
I0625 06:31:11.328681 21032 net.cpp:399] pool2m -> pool2m
I0625 06:31:11.328750 21032 net.cpp:141] Setting up pool2m
I0625 06:31:11.328769 21032 net.cpp:148] Top shape: 24 128 32 32 (3145728)
I0625 06:31:11.328783 21032 net.cpp:156] Memory required for data: 1591738368
I0625 06:31:11.328799 21032 layer_factory.hpp:77] Creating layer conv3_1m
I0625 06:31:11.328835 21032 net.cpp:91] Creating Layer conv3_1m
I0625 06:31:11.328850 21032 net.cpp:425] conv3_1m <- pool2m
I0625 06:31:11.328879 21032 net.cpp:399] conv3_1m -> conv3_1m
I0625 06:31:11.330353 21032 net.cpp:141] Setting up conv3_1m
I0625 06:31:11.330385 21032 net.cpp:148] Top shape: 24 256 32 32 (6291456)
I0625 06:31:11.330401 21032 net.cpp:156] Memory required for data: 1616904192
I0625 06:31:11.330417 21032 net.cpp:484] Sharing parameters 'conv3_1_w' owned by layer 'conv3_1c', param index 0
I0625 06:31:11.330435 21032 net.cpp:484] Sharing parameters 'conv3_1_b' owned by layer 'conv3_1c', param index 1
I0625 06:31:11.330451 21032 layer_factory.hpp:77] Creating layer relu3_1m
I0625 06:31:11.330481 21032 net.cpp:91] Creating Layer relu3_1m
I0625 06:31:11.330502 21032 net.cpp:425] relu3_1m <- conv3_1m
I0625 06:31:11.330536 21032 net.cpp:386] relu3_1m -> conv3_1m (in-place)
I0625 06:31:11.330732 21032 net.cpp:141] Setting up relu3_1m
I0625 06:31:11.330755 21032 net.cpp:148] Top shape: 24 256 32 32 (6291456)
I0625 06:31:11.330770 21032 net.cpp:156] Memory required for data: 1642070016
I0625 06:31:11.330785 21032 layer_factory.hpp:77] Creating layer conv3_2m
I0625 06:31:11.330829 21032 net.cpp:91] Creating Layer conv3_2m
I0625 06:31:11.330845 21032 net.cpp:425] conv3_2m <- conv3_1m
I0625 06:31:11.330885 21032 net.cpp:399] conv3_2m -> conv3_2m
I0625 06:31:11.332896 21032 net.cpp:141] Setting up conv3_2m
I0625 06:31:11.332963 21032 net.cpp:148] Top shape: 24 256 32 32 (6291456)
I0625 06:31:11.332980 21032 net.cpp:156] Memory required for data: 1667235840
I0625 06:31:11.333001 21032 net.cpp:484] Sharing parameters 'conv3_2_w' owned by layer 'conv3_2c', param index 0
I0625 06:31:11.333020 21032 net.cpp:484] Sharing parameters 'conv3_2_b' owned by layer 'conv3_2c', param index 1
I0625 06:31:11.333036 21032 layer_factory.hpp:77] Creating layer relu3_2m
I0625 06:31:11.333065 21032 net.cpp:91] Creating Layer relu3_2m
I0625 06:31:11.333081 21032 net.cpp:425] relu3_2m <- conv3_2m
I0625 06:31:11.333112 21032 net.cpp:386] relu3_2m -> conv3_2m (in-place)
I0625 06:31:11.333305 21032 net.cpp:141] Setting up relu3_2m
I0625 06:31:11.333328 21032 net.cpp:148] Top shape: 24 256 32 32 (6291456)
I0625 06:31:11.333341 21032 net.cpp:156] Memory required for data: 1692401664
I0625 06:31:11.333358 21032 layer_factory.hpp:77] Creating layer conv3_3m
I0625 06:31:11.333397 21032 net.cpp:91] Creating Layer conv3_3m
I0625 06:31:11.333415 21032 net.cpp:425] conv3_3m <- conv3_2m
I0625 06:31:11.333451 21032 net.cpp:399] conv3_3m -> conv3_3m
I0625 06:31:11.335283 21032 net.cpp:141] Setting up conv3_3m
I0625 06:31:11.335322 21032 net.cpp:148] Top shape: 24 256 32 32 (6291456)
I0625 06:31:11.335337 21032 net.cpp:156] Memory required for data: 1717567488
I0625 06:31:11.335355 21032 net.cpp:484] Sharing parameters 'conv3_3_w' owned by layer 'conv3_3c', param index 0
I0625 06:31:11.335374 21032 net.cpp:484] Sharing parameters 'conv3_3_b' owned by layer 'conv3_3c', param index 1
I0625 06:31:11.335389 21032 layer_factory.hpp:77] Creating layer relu3_3m
I0625 06:31:11.335415 21032 net.cpp:91] Creating Layer relu3_3m
I0625 06:31:11.335432 21032 net.cpp:425] relu3_3m <- conv3_3m
I0625 06:31:11.335463 21032 net.cpp:386] relu3_3m -> conv3_3m (in-place)
I0625 06:31:11.335741 21032 net.cpp:141] Setting up relu3_3m
I0625 06:31:11.335767 21032 net.cpp:148] Top shape: 24 256 32 32 (6291456)
I0625 06:31:11.335780 21032 net.cpp:156] Memory required for data: 1742733312
I0625 06:31:11.335803 21032 layer_factory.hpp:77] Creating layer pool3m
I0625 06:31:11.335827 21032 net.cpp:91] Creating Layer pool3m
I0625 06:31:11.335842 21032 net.cpp:425] pool3m <- conv3_3m
I0625 06:31:11.335872 21032 net.cpp:399] pool3m -> pool3m
I0625 06:31:11.335944 21032 net.cpp:141] Setting up pool3m
I0625 06:31:11.335963 21032 net.cpp:148] Top shape: 24 256 16 16 (1572864)
I0625 06:31:11.335978 21032 net.cpp:156] Memory required for data: 1749024768
I0625 06:31:11.335991 21032 layer_factory.hpp:77] Creating layer conv4_1m
I0625 06:31:11.336031 21032 net.cpp:91] Creating Layer conv4_1m
I0625 06:31:11.336047 21032 net.cpp:425] conv4_1m <- pool3m
I0625 06:31:11.336086 21032 net.cpp:399] conv4_1m -> conv4_1m
I0625 06:31:11.338755 21032 net.cpp:141] Setting up conv4_1m
I0625 06:31:11.338810 21032 net.cpp:148] Top shape: 24 512 16 16 (3145728)
I0625 06:31:11.338824 21032 net.cpp:156] Memory required for data: 1761607680
I0625 06:31:11.338842 21032 net.cpp:484] Sharing parameters 'conv4_1_w' owned by layer 'conv4_1c', param index 0
I0625 06:31:11.338860 21032 net.cpp:484] Sharing parameters 'conv4_1_b' owned by layer 'conv4_1c', param index 1
I0625 06:31:11.338877 21032 layer_factory.hpp:77] Creating layer relu4_1m
I0625 06:31:11.338907 21032 net.cpp:91] Creating Layer relu4_1m
I0625 06:31:11.338923 21032 net.cpp:425] relu4_1m <- conv4_1m
I0625 06:31:11.338958 21032 net.cpp:386] relu4_1m -> conv4_1m (in-place)
I0625 06:31:11.339136 21032 net.cpp:141] Setting up relu4_1m
I0625 06:31:11.339167 21032 net.cpp:148] Top shape: 24 512 16 16 (3145728)
I0625 06:31:11.339182 21032 net.cpp:156] Memory required for data: 1774190592
I0625 06:31:11.339196 21032 layer_factory.hpp:77] Creating layer conv4_2m
I0625 06:31:11.339237 21032 net.cpp:91] Creating Layer conv4_2m
I0625 06:31:11.339253 21032 net.cpp:425] conv4_2m <- conv4_1m
I0625 06:31:11.339290 21032 net.cpp:399] conv4_2m -> conv4_2m
I0625 06:31:11.343891 21032 net.cpp:141] Setting up conv4_2m
I0625 06:31:11.343947 21032 net.cpp:148] Top shape: 24 512 16 16 (3145728)
I0625 06:31:11.343962 21032 net.cpp:156] Memory required for data: 1786773504
I0625 06:31:11.343981 21032 net.cpp:484] Sharing parameters 'conv4_2_w' owned by layer 'conv4_2c', param index 0
I0625 06:31:11.343999 21032 net.cpp:484] Sharing parameters 'conv4_2_b' owned by layer 'conv4_2c', param index 1
I0625 06:31:11.344014 21032 layer_factory.hpp:77] Creating layer relu4_2m
I0625 06:31:11.344040 21032 net.cpp:91] Creating Layer relu4_2m
I0625 06:31:11.344056 21032 net.cpp:425] relu4_2m <- conv4_2m
I0625 06:31:11.344086 21032 net.cpp:386] relu4_2m -> conv4_2m (in-place)
I0625 06:31:11.344264 21032 net.cpp:141] Setting up relu4_2m
I0625 06:31:11.344285 21032 net.cpp:148] Top shape: 24 512 16 16 (3145728)
I0625 06:31:11.344300 21032 net.cpp:156] Memory required for data: 1799356416
I0625 06:31:11.344313 21032 layer_factory.hpp:77] Creating layer conv4_3m
I0625 06:31:11.344358 21032 net.cpp:91] Creating Layer conv4_3m
I0625 06:31:11.344374 21032 net.cpp:425] conv4_3m <- conv4_2m
I0625 06:31:11.344409 21032 net.cpp:399] conv4_3m -> conv4_3m
I0625 06:31:11.348533 21032 net.cpp:141] Setting up conv4_3m
I0625 06:31:11.348593 21032 net.cpp:148] Top shape: 24 512 16 16 (3145728)
I0625 06:31:11.348608 21032 net.cpp:156] Memory required for data: 1811939328
I0625 06:31:11.348628 21032 net.cpp:484] Sharing parameters 'conv4_3_w' owned by layer 'conv4_3c', param index 0
I0625 06:31:11.348647 21032 net.cpp:484] Sharing parameters 'conv4_3_b' owned by layer 'conv4_3c', param index 1
I0625 06:31:11.348665 21032 layer_factory.hpp:77] Creating layer relu4_3m
I0625 06:31:11.348698 21032 net.cpp:91] Creating Layer relu4_3m
I0625 06:31:11.348714 21032 net.cpp:425] relu4_3m <- conv4_3m
I0625 06:31:11.348743 21032 net.cpp:386] relu4_3m -> conv4_3m (in-place)
I0625 06:31:11.349040 21032 net.cpp:141] Setting up relu4_3m
I0625 06:31:11.349062 21032 net.cpp:148] Top shape: 24 512 16 16 (3145728)
I0625 06:31:11.349076 21032 net.cpp:156] Memory required for data: 1824522240
I0625 06:31:11.349090 21032 layer_factory.hpp:77] Creating layer pool4m
I0625 06:31:11.349123 21032 net.cpp:91] Creating Layer pool4m
I0625 06:31:11.349138 21032 net.cpp:425] pool4m <- conv4_3m
I0625 06:31:11.349165 21032 net.cpp:399] pool4m -> pool4m
I0625 06:31:11.349234 21032 net.cpp:141] Setting up pool4m
I0625 06:31:11.349252 21032 net.cpp:148] Top shape: 24 512 8 8 (786432)
I0625 06:31:11.349267 21032 net.cpp:156] Memory required for data: 1827667968
I0625 06:31:11.349280 21032 layer_factory.hpp:77] Creating layer conv5_1m
I0625 06:31:11.349319 21032 net.cpp:91] Creating Layer conv5_1m
I0625 06:31:11.349336 21032 net.cpp:425] conv5_1m <- pool4m
I0625 06:31:11.349370 21032 net.cpp:399] conv5_1m -> conv5_1m
I0625 06:31:11.353338 21032 net.cpp:141] Setting up conv5_1m
I0625 06:31:11.353395 21032 net.cpp:148] Top shape: 24 512 8 8 (786432)
I0625 06:31:11.353410 21032 net.cpp:156] Memory required for data: 1830813696
I0625 06:31:11.353427 21032 net.cpp:484] Sharing parameters 'conv5_1_w' owned by layer 'conv5_1c', param index 0
I0625 06:31:11.353446 21032 net.cpp:484] Sharing parameters 'conv5_1_b' owned by layer 'conv5_1c', param index 1
I0625 06:31:11.353462 21032 layer_factory.hpp:77] Creating layer relu5_1m
I0625 06:31:11.353489 21032 net.cpp:91] Creating Layer relu5_1m
I0625 06:31:11.353505 21032 net.cpp:425] relu5_1m <- conv5_1m
I0625 06:31:11.353533 21032 net.cpp:386] relu5_1m -> conv5_1m (in-place)
I0625 06:31:11.353718 21032 net.cpp:141] Setting up relu5_1m
I0625 06:31:11.353740 21032 net.cpp:148] Top shape: 24 512 8 8 (786432)
I0625 06:31:11.353762 21032 net.cpp:156] Memory required for data: 1833959424
I0625 06:31:11.353780 21032 layer_factory.hpp:77] Creating layer conv5_2m
I0625 06:31:11.353816 21032 net.cpp:91] Creating Layer conv5_2m
I0625 06:31:11.353832 21032 net.cpp:425] conv5_2m <- conv5_1m
I0625 06:31:11.353868 21032 net.cpp:399] conv5_2m -> conv5_2m
I0625 06:31:11.357801 21032 net.cpp:141] Setting up conv5_2m
I0625 06:31:11.357863 21032 net.cpp:148] Top shape: 24 512 8 8 (786432)
I0625 06:31:11.357878 21032 net.cpp:156] Memory required for data: 1837105152
I0625 06:31:11.357897 21032 net.cpp:484] Sharing parameters 'conv5_2_w' owned by layer 'conv5_2c', param index 0
I0625 06:31:11.357915 21032 net.cpp:484] Sharing parameters 'conv5_2_b' owned by layer 'conv5_2c', param index 1
I0625 06:31:11.357931 21032 layer_factory.hpp:77] Creating layer relu5_2m
I0625 06:31:11.357960 21032 net.cpp:91] Creating Layer relu5_2m
I0625 06:31:11.357976 21032 net.cpp:425] relu5_2m <- conv5_2m
I0625 06:31:11.358006 21032 net.cpp:386] relu5_2m -> conv5_2m (in-place)
I0625 06:31:11.358188 21032 net.cpp:141] Setting up relu5_2m
I0625 06:31:11.358209 21032 net.cpp:148] Top shape: 24 512 8 8 (786432)
I0625 06:31:11.358223 21032 net.cpp:156] Memory required for data: 1840250880
I0625 06:31:11.358237 21032 layer_factory.hpp:77] Creating layer conv5_3m
I0625 06:31:11.358273 21032 net.cpp:91] Creating Layer conv5_3m
I0625 06:31:11.358288 21032 net.cpp:425] conv5_3m <- conv5_2m
I0625 06:31:11.358326 21032 net.cpp:399] conv5_3m -> conv5_3m
I0625 06:31:11.362259 21032 net.cpp:141] Setting up conv5_3m
I0625 06:31:11.362314 21032 net.cpp:148] Top shape: 24 512 16 16 (3145728)
I0625 06:31:11.362329 21032 net.cpp:156] Memory required for data: 1852833792
I0625 06:31:11.362347 21032 net.cpp:484] Sharing parameters 'conv5_3_w' owned by layer 'conv5_3c', param index 0
I0625 06:31:11.362367 21032 net.cpp:484] Sharing parameters 'conv5_3_b' owned by layer 'conv5_3c', param index 1
I0625 06:31:11.362382 21032 layer_factory.hpp:77] Creating layer relu5_3m
I0625 06:31:11.362411 21032 net.cpp:91] Creating Layer relu5_3m
I0625 06:31:11.362426 21032 net.cpp:425] relu5_3m <- conv5_3m
I0625 06:31:11.362458 21032 net.cpp:386] relu5_3m -> conv5_3m (in-place)
I0625 06:31:11.362803 21032 net.cpp:141] Setting up relu5_3m
I0625 06:31:11.362812 21032 net.cpp:148] Top shape: 24 512 16 16 (3145728)
I0625 06:31:11.362815 21032 net.cpp:156] Memory required for data: 1865416704
I0625 06:31:11.362821 21032 layer_factory.hpp:77] Creating layer conv1_1n
I0625 06:31:11.362848 21032 net.cpp:91] Creating Layer conv1_1n
I0625 06:31:11.362869 21032 net.cpp:425] conv1_1n <- next_im
I0625 06:31:11.362903 21032 net.cpp:399] conv1_1n -> conv1_1n
I0625 06:31:11.363790 21032 net.cpp:141] Setting up conv1_1n
I0625 06:31:11.363801 21032 net.cpp:148] Top shape: 24 64 256 256 (100663296)
I0625 06:31:11.363804 21032 net.cpp:156] Memory required for data: 2268069888
I0625 06:31:11.363812 21032 net.cpp:484] Sharing parameters 'conv1_1_w' owned by layer 'conv1_1c', param index 0
I0625 06:31:11.363821 21032 net.cpp:484] Sharing parameters 'conv1_1_b' owned by layer 'conv1_1c', param index 1
I0625 06:31:11.363824 21032 layer_factory.hpp:77] Creating layer relu1_1n
I0625 06:31:11.363840 21032 net.cpp:91] Creating Layer relu1_1n
I0625 06:31:11.363845 21032 net.cpp:425] relu1_1n <- conv1_1n
I0625 06:31:11.363858 21032 net.cpp:386] relu1_1n -> conv1_1n (in-place)
I0625 06:31:11.364032 21032 net.cpp:141] Setting up relu1_1n
I0625 06:31:11.364040 21032 net.cpp:148] Top shape: 24 64 256 256 (100663296)
I0625 06:31:11.364043 21032 net.cpp:156] Memory required for data: 2670723072
I0625 06:31:11.364047 21032 layer_factory.hpp:77] Creating layer conv1_2n
I0625 06:31:11.364070 21032 net.cpp:91] Creating Layer conv1_2n
I0625 06:31:11.364076 21032 net.cpp:425] conv1_2n <- conv1_1n
I0625 06:31:11.364101 21032 net.cpp:399] conv1_2n -> conv1_2n
I0625 06:31:11.364974 21032 net.cpp:141] Setting up conv1_2n
I0625 06:31:11.364984 21032 net.cpp:148] Top shape: 24 64 256 256 (100663296)
I0625 06:31:11.364989 21032 net.cpp:156] Memory required for data: 3073376256
I0625 06:31:11.365006 21032 net.cpp:484] Sharing parameters 'conv1_2_w' owned by layer 'conv1_2c', param index 0
I0625 06:31:11.365013 21032 net.cpp:484] Sharing parameters 'conv1_2_b' owned by layer 'conv1_2c', param index 1
I0625 06:31:11.365018 21032 layer_factory.hpp:77] Creating layer relu1_2n
I0625 06:31:11.365043 21032 net.cpp:91] Creating Layer relu1_2n
I0625 06:31:11.365063 21032 net.cpp:425] relu1_2n <- conv1_2n
I0625 06:31:11.365093 21032 net.cpp:386] relu1_2n -> conv1_2n (in-place)
I0625 06:31:11.365258 21032 net.cpp:141] Setting up relu1_2n
I0625 06:31:11.365268 21032 net.cpp:148] Top shape: 24 64 256 256 (100663296)
I0625 06:31:11.365272 21032 net.cpp:156] Memory required for data: 3476029440
I0625 06:31:11.365280 21032 layer_factory.hpp:77] Creating layer pool1n
I0625 06:31:11.365296 21032 net.cpp:91] Creating Layer pool1n
I0625 06:31:11.365301 21032 net.cpp:425] pool1n <- conv1_2n
I0625 06:31:11.365319 21032 net.cpp:399] pool1n -> pool1n
I0625 06:31:11.365381 21032 net.cpp:141] Setting up pool1n
I0625 06:31:11.365389 21032 net.cpp:148] Top shape: 24 64 128 128 (25165824)
I0625 06:31:11.365393 21032 net.cpp:156] Memory required for data: 3576692736
I0625 06:31:11.365396 21032 layer_factory.hpp:77] Creating layer conv2_1n
I0625 06:31:11.365423 21032 net.cpp:91] Creating Layer conv2_1n
I0625 06:31:11.365429 21032 net.cpp:425] conv2_1n <- pool1n
I0625 06:31:11.365450 21032 net.cpp:399] conv2_1n -> conv2_1n
I0625 06:31:11.366569 21032 net.cpp:141] Setting up conv2_1n
I0625 06:31:11.366580 21032 net.cpp:148] Top shape: 24 128 128 128 (50331648)
I0625 06:31:11.366585 21032 net.cpp:156] Memory required for data: 3778019328
I0625 06:31:11.366591 21032 net.cpp:484] Sharing parameters 'conv2_1_w' owned by layer 'conv2_1c', param index 0
I0625 06:31:11.366600 21032 net.cpp:484] Sharing parameters 'conv2_1_b' owned by layer 'conv2_1c', param index 1
I0625 06:31:11.366603 21032 layer_factory.hpp:77] Creating layer relu2_1n
I0625 06:31:11.366622 21032 net.cpp:91] Creating Layer relu2_1n
I0625 06:31:11.366628 21032 net.cpp:425] relu2_1n <- conv2_1n
I0625 06:31:11.366647 21032 net.cpp:386] relu2_1n -> conv2_1n (in-place)
I0625 06:31:11.366895 21032 net.cpp:141] Setting up relu2_1n
I0625 06:31:11.366904 21032 net.cpp:148] Top shape: 24 128 128 128 (50331648)
I0625 06:31:11.366909 21032 net.cpp:156] Memory required for data: 3979345920
I0625 06:31:11.366911 21032 layer_factory.hpp:77] Creating layer conv2_2n
I0625 06:31:11.366950 21032 net.cpp:91] Creating Layer conv2_2n
I0625 06:31:11.366957 21032 net.cpp:425] conv2_2n <- conv2_1n
I0625 06:31:11.366992 21032 net.cpp:399] conv2_2n -> conv2_2n
I0625 06:31:11.368077 21032 net.cpp:141] Setting up conv2_2n
I0625 06:31:11.368088 21032 net.cpp:148] Top shape: 24 128 128 128 (50331648)
I0625 06:31:11.368091 21032 net.cpp:156] Memory required for data: 4180672512
I0625 06:31:11.368098 21032 net.cpp:484] Sharing parameters 'conv2_2_w' owned by layer 'conv2_2c', param index 0
I0625 06:31:11.368106 21032 net.cpp:484] Sharing parameters 'conv2_2_b' owned by layer 'conv2_2c', param index 1
I0625 06:31:11.368113 21032 layer_factory.hpp:77] Creating layer relu2_2n
I0625 06:31:11.368129 21032 net.cpp:91] Creating Layer relu2_2n
I0625 06:31:11.368134 21032 net.cpp:425] relu2_2n <- conv2_2n
I0625 06:31:11.368150 21032 net.cpp:386] relu2_2n -> conv2_2n (in-place)
I0625 06:31:11.368342 21032 net.cpp:141] Setting up relu2_2n
I0625 06:31:11.368351 21032 net.cpp:148] Top shape: 24 128 128 128 (50331648)
I0625 06:31:11.368355 21032 net.cpp:156] Memory required for data: 4381999104
I0625 06:31:11.368358 21032 layer_factory.hpp:77] Creating layer pool2n
I0625 06:31:11.368378 21032 net.cpp:91] Creating Layer pool2n
I0625 06:31:11.368384 21032 net.cpp:425] pool2n <- conv2_2n
I0625 06:31:11.368403 21032 net.cpp:399] pool2n -> pool2n
I0625 06:31:11.368466 21032 net.cpp:141] Setting up pool2n
I0625 06:31:11.368487 21032 net.cpp:148] Top shape: 24 128 64 64 (12582912)
I0625 06:31:11.368508 21032 net.cpp:156] Memory required for data: 4432330752
I0625 06:31:11.368535 21032 layer_factory.hpp:77] Creating layer conv3_1n
I0625 06:31:11.368571 21032 net.cpp:91] Creating Layer conv3_1n
I0625 06:31:11.368577 21032 net.cpp:425] conv3_1n <- pool2n
I0625 06:31:11.368599 21032 net.cpp:399] conv3_1n -> conv3_1n
I0625 06:31:11.369799 21032 net.cpp:141] Setting up conv3_1n
I0625 06:31:11.369809 21032 net.cpp:148] Top shape: 24 256 64 64 (25165824)
I0625 06:31:11.369813 21032 net.cpp:156] Memory required for data: 4532994048
I0625 06:31:11.369820 21032 net.cpp:484] Sharing parameters 'conv3_1_w' owned by layer 'conv3_1c', param index 0
I0625 06:31:11.369827 21032 net.cpp:484] Sharing parameters 'conv3_1_b' owned by layer 'conv3_1c', param index 1
I0625 06:31:11.369832 21032 layer_factory.hpp:77] Creating layer relu3_1n
I0625 06:31:11.369848 21032 net.cpp:91] Creating Layer relu3_1n
I0625 06:31:11.369854 21032 net.cpp:425] relu3_1n <- conv3_1n
I0625 06:31:11.369873 21032 net.cpp:386] relu3_1n -> conv3_1n (in-place)
I0625 06:31:11.370035 21032 net.cpp:141] Setting up relu3_1n
I0625 06:31:11.370044 21032 net.cpp:148] Top shape: 24 256 64 64 (25165824)
I0625 06:31:11.370048 21032 net.cpp:156] Memory required for data: 4633657344
I0625 06:31:11.370052 21032 layer_factory.hpp:77] Creating layer conv3_2n
I0625 06:31:11.370081 21032 net.cpp:91] Creating Layer conv3_2n
I0625 06:31:11.370087 21032 net.cpp:425] conv3_2n <- conv3_1n
I0625 06:31:11.370111 21032 net.cpp:399] conv3_2n -> conv3_2n
I0625 06:31:11.371544 21032 net.cpp:141] Setting up conv3_2n
I0625 06:31:11.371556 21032 net.cpp:148] Top shape: 24 256 64 64 (25165824)
I0625 06:31:11.371559 21032 net.cpp:156] Memory required for data: 4734320640
I0625 06:31:11.371565 21032 net.cpp:484] Sharing parameters 'conv3_2_w' owned by layer 'conv3_2c', param index 0
I0625 06:31:11.371570 21032 net.cpp:484] Sharing parameters 'conv3_2_b' owned by layer 'conv3_2c', param index 1
I0625 06:31:11.371574 21032 layer_factory.hpp:77] Creating layer relu3_2n
I0625 06:31:11.371588 21032 net.cpp:91] Creating Layer relu3_2n
I0625 06:31:11.371592 21032 net.cpp:425] relu3_2n <- conv3_2n
I0625 06:31:11.371611 21032 net.cpp:386] relu3_2n -> conv3_2n (in-place)
I0625 06:31:11.371881 21032 net.cpp:141] Setting up relu3_2n
I0625 06:31:11.371891 21032 net.cpp:148] Top shape: 24 256 64 64 (25165824)
I0625 06:31:11.371896 21032 net.cpp:156] Memory required for data: 4834983936
I0625 06:31:11.371899 21032 layer_factory.hpp:77] Creating layer conv3_3n
I0625 06:31:11.371939 21032 net.cpp:91] Creating Layer conv3_3n
I0625 06:31:11.371945 21032 net.cpp:425] conv3_3n <- conv3_2n
I0625 06:31:11.371978 21032 net.cpp:399] conv3_3n -> conv3_3n
I0625 06:31:11.373884 21032 net.cpp:141] Setting up conv3_3n
I0625 06:31:11.373904 21032 net.cpp:148] Top shape: 24 256 64 64 (25165824)
I0625 06:31:11.373908 21032 net.cpp:156] Memory required for data: 4935647232
I0625 06:31:11.373932 21032 net.cpp:484] Sharing parameters 'conv3_3_w' owned by layer 'conv3_3c', param index 0
I0625 06:31:11.373941 21032 net.cpp:484] Sharing parameters 'conv3_3_b' owned by layer 'conv3_3c', param index 1
I0625 06:31:11.373947 21032 layer_factory.hpp:77] Creating layer relu3_3n
I0625 06:31:11.373966 21032 net.cpp:91] Creating Layer relu3_3n
I0625 06:31:11.373973 21032 net.cpp:425] relu3_3n <- conv3_3n
I0625 06:31:11.373996 21032 net.cpp:386] relu3_3n -> conv3_3n (in-place)
I0625 06:31:11.374166 21032 net.cpp:141] Setting up relu3_3n
I0625 06:31:11.374178 21032 net.cpp:148] Top shape: 24 256 64 64 (25165824)
I0625 06:31:11.374182 21032 net.cpp:156] Memory required for data: 5036310528
I0625 06:31:11.374186 21032 layer_factory.hpp:77] Creating layer pool3n
I0625 06:31:11.374204 21032 net.cpp:91] Creating Layer pool3n
I0625 06:31:11.374210 21032 net.cpp:425] pool3n <- conv3_3n
I0625 06:31:11.374228 21032 net.cpp:399] pool3n -> pool3n
I0625 06:31:11.374300 21032 net.cpp:141] Setting up pool3n
I0625 06:31:11.374308 21032 net.cpp:148] Top shape: 24 256 32 32 (6291456)
I0625 06:31:11.374312 21032 net.cpp:156] Memory required for data: 5061476352
I0625 06:31:11.374315 21032 layer_factory.hpp:77] Creating layer conv4_1n
I0625 06:31:11.374361 21032 net.cpp:91] Creating Layer conv4_1n
I0625 06:31:11.374367 21032 net.cpp:425] conv4_1n <- pool3n
I0625 06:31:11.374394 21032 net.cpp:399] conv4_1n -> conv4_1n
I0625 06:31:11.376613 21032 net.cpp:141] Setting up conv4_1n
I0625 06:31:11.376631 21032 net.cpp:148] Top shape: 24 512 32 32 (12582912)
I0625 06:31:11.376636 21032 net.cpp:156] Memory required for data: 5111808000
I0625 06:31:11.376643 21032 net.cpp:484] Sharing parameters 'conv4_1_w' owned by layer 'conv4_1c', param index 0
I0625 06:31:11.376652 21032 net.cpp:484] Sharing parameters 'conv4_1_b' owned by layer 'conv4_1c', param index 1
I0625 06:31:11.376655 21032 layer_factory.hpp:77] Creating layer relu4_1n
I0625 06:31:11.376669 21032 net.cpp:91] Creating Layer relu4_1n
I0625 06:31:11.376674 21032 net.cpp:425] relu4_1n <- conv4_1n
I0625 06:31:11.376691 21032 net.cpp:386] relu4_1n -> conv4_1n (in-place)
I0625 06:31:11.376883 21032 net.cpp:141] Setting up relu4_1n
I0625 06:31:11.376893 21032 net.cpp:148] Top shape: 24 512 32 32 (12582912)
I0625 06:31:11.376896 21032 net.cpp:156] Memory required for data: 5162139648
I0625 06:31:11.376900 21032 layer_factory.hpp:77] Creating layer conv4_2n
I0625 06:31:11.376929 21032 net.cpp:91] Creating Layer conv4_2n
I0625 06:31:11.376936 21032 net.cpp:425] conv4_2n <- conv4_1n
I0625 06:31:11.376961 21032 net.cpp:399] conv4_2n -> conv4_2n
I0625 06:31:11.380498 21032 net.cpp:141] Setting up conv4_2n
I0625 06:31:11.380522 21032 net.cpp:148] Top shape: 24 512 32 32 (12582912)
I0625 06:31:11.380525 21032 net.cpp:156] Memory required for data: 5212471296
I0625 06:31:11.380534 21032 net.cpp:484] Sharing parameters 'conv4_2_w' owned by layer 'conv4_2c', param index 0
I0625 06:31:11.380544 21032 net.cpp:484] Sharing parameters 'conv4_2_b' owned by layer 'conv4_2c', param index 1
I0625 06:31:11.380551 21032 layer_factory.hpp:77] Creating layer relu4_2n
I0625 06:31:11.380574 21032 net.cpp:91] Creating Layer relu4_2n
I0625 06:31:11.380580 21032 net.cpp:425] relu4_2n <- conv4_2n
I0625 06:31:11.380602 21032 net.cpp:386] relu4_2n -> conv4_2n (in-place)
I0625 06:31:11.380873 21032 net.cpp:141] Setting up relu4_2n
I0625 06:31:11.380884 21032 net.cpp:148] Top shape: 24 512 32 32 (12582912)
I0625 06:31:11.380888 21032 net.cpp:156] Memory required for data: 5262802944
I0625 06:31:11.380892 21032 layer_factory.hpp:77] Creating layer conv4_3n
I0625 06:31:11.380923 21032 net.cpp:91] Creating Layer conv4_3n
I0625 06:31:11.380929 21032 net.cpp:425] conv4_3n <- conv4_2n
I0625 06:31:11.380965 21032 net.cpp:399] conv4_3n -> conv4_3n
I0625 06:31:11.384415 21032 net.cpp:141] Setting up conv4_3n
I0625 06:31:11.384435 21032 net.cpp:148] Top shape: 24 512 32 32 (12582912)
I0625 06:31:11.384439 21032 net.cpp:156] Memory required for data: 5313134592
I0625 06:31:11.384448 21032 net.cpp:484] Sharing parameters 'conv4_3_w' owned by layer 'conv4_3c', param index 0
I0625 06:31:11.384454 21032 net.cpp:484] Sharing parameters 'conv4_3_b' owned by layer 'conv4_3c', param index 1
I0625 06:31:11.384459 21032 layer_factory.hpp:77] Creating layer relu4_3n
I0625 06:31:11.384477 21032 net.cpp:91] Creating Layer relu4_3n
I0625 06:31:11.384482 21032 net.cpp:425] relu4_3n <- conv4_3n
I0625 06:31:11.384498 21032 net.cpp:386] relu4_3n -> conv4_3n (in-place)
I0625 06:31:11.384677 21032 net.cpp:141] Setting up relu4_3n
I0625 06:31:11.384686 21032 net.cpp:148] Top shape: 24 512 32 32 (12582912)
I0625 06:31:11.384690 21032 net.cpp:156] Memory required for data: 5363466240
I0625 06:31:11.384696 21032 layer_factory.hpp:77] Creating layer pool4n
I0625 06:31:11.384716 21032 net.cpp:91] Creating Layer pool4n
I0625 06:31:11.384722 21032 net.cpp:425] pool4n <- conv4_3n
I0625 06:31:11.384740 21032 net.cpp:399] pool4n -> pool4n
I0625 06:31:11.384805 21032 net.cpp:141] Setting up pool4n
I0625 06:31:11.384814 21032 net.cpp:148] Top shape: 24 512 16 16 (3145728)
I0625 06:31:11.384817 21032 net.cpp:156] Memory required for data: 5376049152
I0625 06:31:11.384821 21032 layer_factory.hpp:77] Creating layer conv5_1n
I0625 06:31:11.384846 21032 net.cpp:91] Creating Layer conv5_1n
I0625 06:31:11.384861 21032 net.cpp:425] conv5_1n <- pool4n
I0625 06:31:11.384886 21032 net.cpp:399] conv5_1n -> conv5_1n
I0625 06:31:11.388505 21032 net.cpp:141] Setting up conv5_1n
I0625 06:31:11.388537 21032 net.cpp:148] Top shape: 24 512 16 16 (3145728)
I0625 06:31:11.388541 21032 net.cpp:156] Memory required for data: 5388632064
I0625 06:31:11.388551 21032 net.cpp:484] Sharing parameters 'conv5_1_w' owned by layer 'conv5_1c', param index 0
I0625 06:31:11.388561 21032 net.cpp:484] Sharing parameters 'conv5_1_b' owned by layer 'conv5_1c', param index 1
I0625 06:31:11.388566 21032 layer_factory.hpp:77] Creating layer relu5_1n
I0625 06:31:11.388589 21032 net.cpp:91] Creating Layer relu5_1n
I0625 06:31:11.388597 21032 net.cpp:425] relu5_1n <- conv5_1n
I0625 06:31:11.388617 21032 net.cpp:386] relu5_1n -> conv5_1n (in-place)
I0625 06:31:11.388805 21032 net.cpp:141] Setting up relu5_1n
I0625 06:31:11.388815 21032 net.cpp:148] Top shape: 24 512 16 16 (3145728)
I0625 06:31:11.388818 21032 net.cpp:156] Memory required for data: 5401214976
I0625 06:31:11.388823 21032 layer_factory.hpp:77] Creating layer conv5_2n
I0625 06:31:11.388859 21032 net.cpp:91] Creating Layer conv5_2n
I0625 06:31:11.388865 21032 net.cpp:425] conv5_2n <- conv5_1n
I0625 06:31:11.388898 21032 net.cpp:399] conv5_2n -> conv5_2n
I0625 06:31:11.392640 21032 net.cpp:141] Setting up conv5_2n
I0625 06:31:11.392660 21032 net.cpp:148] Top shape: 24 512 16 16 (3145728)
I0625 06:31:11.392664 21032 net.cpp:156] Memory required for data: 5413797888
I0625 06:31:11.392671 21032 net.cpp:484] Sharing parameters 'conv5_2_w' owned by layer 'conv5_2c', param index 0
I0625 06:31:11.392679 21032 net.cpp:484] Sharing parameters 'conv5_2_b' owned by layer 'conv5_2c', param index 1
I0625 06:31:11.392684 21032 layer_factory.hpp:77] Creating layer relu5_2n
I0625 06:31:11.392701 21032 net.cpp:91] Creating Layer relu5_2n
I0625 06:31:11.392706 21032 net.cpp:425] relu5_2n <- conv5_2n
I0625 06:31:11.392725 21032 net.cpp:386] relu5_2n -> conv5_2n (in-place)
I0625 06:31:11.392988 21032 net.cpp:141] Setting up relu5_2n
I0625 06:31:11.392998 21032 net.cpp:148] Top shape: 24 512 16 16 (3145728)
I0625 06:31:11.393002 21032 net.cpp:156] Memory required for data: 5426380800
I0625 06:31:11.393005 21032 layer_factory.hpp:77] Creating layer conv5_3n
I0625 06:31:11.393038 21032 net.cpp:91] Creating Layer conv5_3n
I0625 06:31:11.393045 21032 net.cpp:425] conv5_3n <- conv5_2n
I0625 06:31:11.393069 21032 net.cpp:399] conv5_3n -> conv5_3n
I0625 06:31:11.396610 21032 net.cpp:141] Setting up conv5_3n
I0625 06:31:11.396643 21032 net.cpp:148] Top shape: 24 512 16 16 (3145728)
I0625 06:31:11.396647 21032 net.cpp:156] Memory required for data: 5438963712
I0625 06:31:11.396657 21032 net.cpp:484] Sharing parameters 'conv5_3_w' owned by layer 'conv5_3c', param index 0
I0625 06:31:11.396667 21032 net.cpp:484] Sharing parameters 'conv5_3_b' owned by layer 'conv5_3c', param index 1
I0625 06:31:11.396672 21032 layer_factory.hpp:77] Creating layer relu5_3n
I0625 06:31:11.396697 21032 net.cpp:91] Creating Layer relu5_3n
I0625 06:31:11.396704 21032 net.cpp:425] relu5_3n <- conv5_3n
I0625 06:31:11.396734 21032 net.cpp:386] relu5_3n -> conv5_3n (in-place)
I0625 06:31:11.397048 21032 net.cpp:141] Setting up relu5_3n
I0625 06:31:11.397058 21032 net.cpp:148] Top shape: 24 512 16 16 (3145728)
I0625 06:31:11.397061 21032 net.cpp:156] Memory required for data: 5451546624
I0625 06:31:11.397065 21032 layer_factory.hpp:77] Creating layer concat1
I0625 06:31:11.397094 21032 net.cpp:91] Creating Layer concat1
I0625 06:31:11.397100 21032 net.cpp:425] concat1 <- conv5_3c
I0625 06:31:11.397111 21032 net.cpp:425] concat1 <- conv5_3m
I0625 06:31:11.397119 21032 net.cpp:425] concat1 <- conv5_3n
I0625 06:31:11.397142 21032 net.cpp:399] concat1 -> concat1
I0625 06:31:11.397182 21032 net.cpp:141] Setting up concat1
I0625 06:31:11.397192 21032 net.cpp:148] Top shape: 24 1536 16 16 (9437184)
I0625 06:31:11.397197 21032 net.cpp:156] Memory required for data: 5489295360
I0625 06:31:11.397202 21032 layer_factory.hpp:77] Creating layer fc6
I0625 06:31:11.397251 21032 net.cpp:91] Creating Layer fc6
I0625 06:31:11.397258 21032 net.cpp:425] fc6 <- concat1
I0625 06:31:11.397287 21032 net.cpp:399] fc6 -> fc6
I0625 06:31:11.419708 21032 net.cpp:141] Setting up fc6
I0625 06:31:11.419736 21032 net.cpp:148] Top shape: 24 1024 16 16 (6291456)
I0625 06:31:11.419740 21032 net.cpp:156] Memory required for data: 5514461184
I0625 06:31:11.419755 21032 layer_factory.hpp:77] Creating layer relu6
I0625 06:31:11.419780 21032 net.cpp:91] Creating Layer relu6
I0625 06:31:11.419791 21032 net.cpp:425] relu6 <- fc6
I0625 06:31:11.419811 21032 net.cpp:386] relu6 -> fc6 (in-place)
I0625 06:31:11.420009 21032 net.cpp:141] Setting up relu6
I0625 06:31:11.420019 21032 net.cpp:148] Top shape: 24 1024 16 16 (6291456)
I0625 06:31:11.420022 21032 net.cpp:156] Memory required for data: 5539627008
I0625 06:31:11.420027 21032 layer_factory.hpp:77] Creating layer fc7
I0625 06:31:11.420040 21032 net.cpp:91] Creating Layer fc7
I0625 06:31:11.420047 21032 net.cpp:425] fc7 <- fc6
I0625 06:31:11.420063 21032 net.cpp:399] fc7 -> fc7
/usr/local/lib/python2.7/dist-packages/skimage/util/dtype.py:111: UserWarning: Possible precision loss when converting from float32 to uint8
  "%s to %s" % (dtypeobj_in, dtypeobj))
I0625 06:31:11.846858 21032 net.cpp:141] Setting up fc7
I0625 06:31:11.846968 21032 net.cpp:148] Top shape: 24 1024 (24576)
I0625 06:31:11.847008 21032 net.cpp:156] Memory required for data: 5539725312
I0625 06:31:11.847048 21032 layer_factory.hpp:77] Creating layer fc8
I0625 06:31:11.847090 21032 net.cpp:91] Creating Layer fc8
I0625 06:31:11.847120 21032 net.cpp:425] fc8 <- fc7
I0625 06:31:11.847159 21032 net.cpp:399] fc8 -> fc8
I0625 06:31:11.859256 21032 net.cpp:141] Setting up fc8
I0625 06:31:11.859395 21032 net.cpp:148] Top shape: 24 8192 (196608)
I0625 06:31:11.859433 21032 net.cpp:156] Memory required for data: 5540511744
I0625 06:31:11.859479 21032 layer_factory.hpp:77] Creating layer reshape
I0625 06:31:11.859529 21032 net.cpp:91] Creating Layer reshape
I0625 06:31:11.859558 21032 net.cpp:425] reshape <- fc8
I0625 06:31:11.859601 21032 net.cpp:399] reshape -> reshape
I0625 06:31:11.859693 21032 net.cpp:141] Setting up reshape
I0625 06:31:11.859729 21032 net.cpp:148] Top shape: 24 2 64 64 (196608)
I0625 06:31:11.859755 21032 net.cpp:156] Memory required for data: 5541298176
I0625 06:31:11.859783 21032 layer_factory.hpp:77] Creating layer score
I0625 06:31:11.859843 21032 net.cpp:91] Creating Layer score
I0625 06:31:11.859876 21032 net.cpp:425] score <- reshape
I0625 06:31:11.859921 21032 net.cpp:399] score -> score
I0625 06:31:11.860237 21032 net.cpp:141] Setting up score
I0625 06:31:11.860277 21032 net.cpp:148] Top shape: 24 2 256 256 (3145728)
I0625 06:31:11.860306 21032 net.cpp:156] Memory required for data: 5553881088
I0625 06:31:11.860337 21032 layer_factory.hpp:77] Creating layer loss
I0625 06:31:11.860378 21032 net.cpp:91] Creating Layer loss
I0625 06:31:11.860406 21032 net.cpp:425] loss <- score
I0625 06:31:11.860442 21032 net.cpp:425] loss <- label
I0625 06:31:11.860484 21032 net.cpp:399] loss -> loss
I0625 06:31:11.860550 21032 layer_factory.hpp:77] Creating layer loss
…
