…
I0707 19:33:00.881220 12122 net.cpp:49] Initializing net from parameters: 
state {
  phase: TRAIN
}
layer {
  name: "cur_im"
  type: "Python"
  top: "cur_im"
  top: "masked_im"
  top: "next_im"
  top: "label"
  python_param {
    module: "coco_transformed_datalayers_prefetch"
    layer: "CocoTransformedDataLayerPrefetch"
    param_str: "{\'num_threads\': 2, \'data_dir\': \'/home/amir/coco\', \'noisy_mask\': True, \'im_shape\': (384, 384), \'batch_size\': 6, \'max_queue_size\': 8, \'split\': \'training\', \'mean\': (0.48501961, 0.45795686, 0.40760392)}"
  }
}
layer {
  name: "conv1_1n"
  type: "Convolution"
  bottom: "next_im"
  top: "conv1_1n"
  param {
    name: "conv1_1_w"
    lr_mult: 1
    decay_mult: 1
  }
  param {
    name: "conv1_1_b"
    lr_mult: 2
    decay_mult: 0
  }
  convolution_param {
    num_output: 64
    pad: 101
    kernel_size: 3
  }
}
layer {
  name: "relu1_1n"
  type: "ReLU"
  bottom: "conv1_1n"
  top: "conv1_1n"
}
layer {
  name: "conv1_2n"
  type: "Convolution"
  bottom: "conv1_1n"
  top: "conv1_2n"
  param {
    name: "conv1_2_w"
    lr_mult: 1
    decay_mult: 1
  }
  param {
    name: "conv1_2_b"
    lr_mult: 2
    decay_mult: 0
  }
  convolution_param {
    num_output: 64
    pad: 1
    kernel_size: 3
  }
}
layer {
  name: "relu1_2n"
  type: "ReLU"
  bottom: "conv1_2n"
  top: "conv1_2n"
}
layer {
  name: "pool1n"
  type: "Pooling"
  bottom: "conv1_2n"
  top: "pool1n"
  pooling_param {
    pool: MAX
    kernel_size: 2
    stride: 2
  }
}
layer {
  name: "conv2_1n"
  type: "Convolution"
  bottom: "pool1n"
  top: "conv2_1n"
  param {
    name: "conv2_1_w"
    lr_mult: 1
    decay_mult: 1
  }
  param {
    name: "conv2_1_b"
    lr_mult: 2
    decay_mult: 0
  }
  convolution_param {
    num_output: 128
    pad: 1
    kernel_size: 3
  }
}
layer {
  name: "relu2_1n"
  type: "ReLU"
  bottom: "conv2_1n"
  top: "conv2_1n"
}
layer {
  name: "conv2_2n"
  type: "Convolution"
  bottom: "conv2_1n"
  top: "conv2_2n"
  param {
    name: "conv2_2_w"
    lr_mult: 1
    decay_mult: 1
  }
  param {
    name: "conv2_2_b"
    lr_mult: 2
    decay_mult: 0
  }
  convolution_param {
    num_output: 128
    pad: 1
    kernel_size: 3
  }
}
layer {
  name: "relu2_2n"
  type: "ReLU"
  bottom: "conv2_2n"
  top: "conv2_2n"
}
layer {
  name: "pool2n"
  type: "Pooling"
  bottom: "conv2_2n"
  top: "pool2n"
  pooling_param {
    pool: MAX
    kernel_size: 2
    stride: 2
  }
}
layer {
  name: "conv3_1n"
  type: "Convolution"
  bottom: "pool2n"
  top: "conv3_1n"
  param {
    name: "conv3_1_w"
    lr_mult: 1
    decay_mult: 1
  }
  param {
    name: "conv3_1_b"
    lr_mult: 2
    decay_mult: 0
  }
  convolution_param {
    num_output: 256
    pad: 1
    kernel_size: 3
  }
}
layer {
  name: "relu3_1n"
  type: "ReLU"
  bottom: "conv3_1n"
  top: "conv3_1n"
}
layer {
  name: "conv3_2n"
  type: "Convolution"
  bottom: "conv3_1n"
  top: "conv3_2n"
  param {
    name: "conv3_2_w"
    lr_mult: 1
    decay_mult: 1
  }
  param {
    name: "conv3_2_b"
    lr_mult: 2
    decay_mult: 0
  }
  convolution_param {
    num_output: 256
    pad: 1
    kernel_size: 3
  }
}
layer {
  name: "relu3_2n"
  type: "ReLU"
  bottom: "conv3_2n"
  top: "conv3_2n"
}
layer {
  name: "conv3_3n"
  type: "Convolution"
  bottom: "conv3_2n"
  top: "conv3_3n"
  param {
    name: "conv3_3_w"
    lr_mult: 1
    decay_mult: 1
  }
  param {
    name: "conv3_3_b"
    lr_mult: 2
    decay_mult: 0
  }
  convolution_param {
    num_output: 256
    pad: 1
    kernel_size: 3
  }
}
layer {
  name: "relu3_3n"
  type: "ReLU"
  bottom: "conv3_3n"
  top: "conv3_3n"
}
layer {
  name: "pool3n"
  type: "Pooling"
  bottom: "conv3_3n"
  top: "pool3n"
  pooling_param {
    pool: MAX
    kernel_size: 2
    stride: 2
  }
}
layer {
  name: "conv4_1n"
  type: "Convolution"
  bottom: "pool3n"
  top: "conv4_1n"
  param {
    name: "conv4_1_w"
    lr_mult: 1
    decay_mult: 1
  }
  param {
    name: "conv4_1_b"
    lr_mult: 2
    decay_mult: 0
  }
  convolution_param {
    num_output: 512
    pad: 1
    kernel_size: 3
  }
}
layer {
  name: "relu4_1n"
  type: "ReLU"
  bottom: "conv4_1n"
  top: "conv4_1n"
}
layer {
  name: "conv4_2n"
  type: "Convolution"
  bottom: "conv4_1n"
  top: "conv4_2n"
  param {
    name: "conv4_2_w"
    lr_mult: 1
    decay_mult: 1
  }
  param {
    name: "conv4_2_b"
    lr_mult: 2
    decay_mult: 0
  }
  convolution_param {
    num_output: 512
    pad: 1
    kernel_size: 3
  }
}
layer {
  name: "relu4_2n"
  type: "ReLU"
  bottom: "conv4_2n"
  top: "conv4_2n"
}
layer {
  name: "conv4_3n"
  type: "Convolution"
  bottom: "conv4_2n"
  top: "conv4_3n"
  param {
    name: "conv4_3_w"
    lr_mult: 1
    decay_mult: 1
  }
  param {
    name: "conv4_3_b"
    lr_mult: 2
    decay_mult: 0
  }
  convolution_param {
    num_output: 512
    pad: 1
    kernel_size: 3
  }
}
layer {
  name: "relu4_3n"
  type: "ReLU"
  bottom: "conv4_3n"
  top: "conv4_3n"
}
layer {
  name: "pool4n"
  type: "Pooling"
  bottom: "conv4_3n"
  top: "pool4n"
  pooling_param {
    pool: MAX
    kernel_size: 2
    stride: 2
  }
}
layer {
  name: "conv5_1n"
  type: "Convolution"
  bottom: "pool4n"
  top: "conv5_1n"
  param {
    name: "conv5_1_w"
    lr_mult: 1
    decay_mult: 1
  }
  param {
    name: "conv5_1_b"
    lr_mult: 2
    decay_mult: 0
  }
  convolution_param {
    num_output: 512
    pad: 1
    kernel_size: 3
  }
}
layer {
  name: "relu5_1n"
  type: "ReLU"
  bottom: "conv5_1n"
  top: "conv5_1n"
}
layer {
  name: "conv5_2n"
  type: "Convolution"
  bottom: "conv5_1n"
  top: "conv5_2n"
  param {
    name: "conv5_2_w"
    lr_mult: 1
    decay_mult: 1
  }
  param {
    name: "conv5_2_b"
    lr_mult: 2
    decay_mult: 0
  }
  convolution_param {
    num_output: 512
    pad: 1
    kernel_size: 3
  }
}
layer {
  name: "relu5_2n"
  type: "ReLU"
  bottom: "conv5_2n"
  top: "conv5_2n"
}
layer {
  name: "conv5_3n"
  type: "Convolution"
  bottom: "conv5_2n"
  top: "conv5_3n"
  param {
    name: "conv5_3_w"
    lr_mult: 1
    decay_mult: 1
  }
  param {
    name: "conv5_3_b"
    lr_mult: 2
    decay_mult: 0
  }
  convolution_param {
    num_output: 512
    pad: 1
    kernel_size: 3
  }
}
layer {
  name: "relu5_3n"
  type: "ReLU"
  bottom: "conv5_3n"
  top: "conv5_3n"
}
layer {
  name: "pool5n"
  type: "Pooling"
  bottom: "conv5_3n"
  top: "pool5n"
  pooling_param {
    pool: MAX
    kernel_size: 2
    stride: 2
  }
}
layer {
  name: "conv1_1m"
  type: "Convolution"
  bottom: "masked_im"
  top: "conv1_1m"
  param {
    name: "conv1_1_w"
    lr_mult: 1
    decay_mult: 1
  }
  param {
    name: "conv1_1_b"
    lr_mult: 2
    decay_mult: 0
  }
  convolution_param {
    num_output: 64
    pad: 101
    kernel_size: 3
  }
}
layer {
  name: "relu1_1m"
  type: "ReLU"
  bottom: "conv1_1m"
  top: "conv1_1m"
}
layer {
  name: "conv1_2m"
  type: "Convolution"
  bottom: "conv1_1m"
  top: "conv1_2m"
  param {
    name: "conv1_2_w"
    lr_mult: 1
    decay_mult: 1
  }
  param {
    name: "conv1_2_b"
    lr_mult: 2
    decay_mult: 0
  }
  convolution_param {
    num_output: 64
    pad: 1
    kernel_size: 3
  }
}
layer {
  name: "relu1_2m"
  type: "ReLU"
  bottom: "conv1_2m"
  top: "conv1_2m"
}
layer {
  name: "pool1m"
  type: "Pooling"
  bottom: "conv1_2m"
  top: "pool1m"
  pooling_param {
    pool: MAX
    kernel_size: 2
    stride: 2
  }
}
layer {
  name: "conv2_1m"
  type: "Convolution"
  bottom: "pool1m"
  top: "conv2_1m"
  param {
    name: "conv2_1_w"
    lr_mult: 1
    decay_mult: 1
  }
  param {
    name: "conv2_1_b"
    lr_mult: 2
    decay_mult: 0
  }
  convolution_param {
    num_output: 128
    pad: 1
    kernel_size: 3
  }
}
layer {
  name: "relu2_1m"
  type: "ReLU"
  bottom: "conv2_1m"
  top: "conv2_1m"
}
layer {
  name: "conv2_2m"
  type: "Convolution"
  bottom: "conv2_1m"
  top: "conv2_2m"
  param {
    name: "conv2_2_w"
    lr_mult: 1
    decay_mult: 1
  }
  param {
    name: "conv2_2_b"
    lr_mult: 2
    decay_mult: 0
  }
  convolution_param {
    num_output: 128
    pad: 1
    kernel_size: 3
  }
}
layer {
  name: "relu2_2m"
  type: "ReLU"
  bottom: "conv2_2m"
  top: "conv2_2m"
}
layer {
  name: "pool2m"
  type: "Pooling"
  bottom: "conv2_2m"
  top: "pool2m"
  pooling_param {
    pool: MAX
    kernel_size: 2
    stride: 2
  }
}
layer {
  name: "conv3_1m"
  type: "Convolution"
  bottom: "pool2m"
  top: "conv3_1m"
  param {
    name: "conv3_1_w"
    lr_mult: 1
    decay_mult: 1
  }
  param {
    name: "conv3_1_b"
    lr_mult: 2
    decay_mult: 0
  }
  convolution_param {
    num_output: 256
    pad: 1
    kernel_size: 3
  }
}
layer {
  name: "relu3_1m"
  type: "ReLU"
  bottom: "conv3_1m"
  top: "conv3_1m"
}
layer {
  name: "conv3_2m"
  type: "Convolution"
  bottom: "conv3_1m"
  top: "conv3_2m"
  param {
    name: "conv3_2_w"
    lr_mult: 1
    decay_mult: 1
  }
  param {
    name: "conv3_2_b"
    lr_mult: 2
    decay_mult: 0
  }
  convolution_param {
    num_output: 256
    pad: 1
    kernel_size: 3
  }
}
layer {
  name: "relu3_2m"
  type: "ReLU"
  bottom: "conv3_2m"
  top: "conv3_2m"
}
layer {
  name: "conv3_3m"
  type: "Convolution"
  bottom: "conv3_2m"
  top: "conv3_3m"
  param {
    name: "conv3_3_w"
    lr_mult: 1
    decay_mult: 1
  }
  param {
    name: "conv3_3_b"
    lr_mult: 2
    decay_mult: 0
  }
  convolution_param {
    num_output: 256
    pad: 1
    kernel_size: 3
  }
}
layer {
  name: "relu3_3m"
  type: "ReLU"
  bottom: "conv3_3m"
  top: "conv3_3m"
}
layer {
  name: "pool3m"
  type: "Pooling"
  bottom: "conv3_3m"
  top: "pool3m"
  pooling_param {
    pool: MAX
    kernel_size: 2
    stride: 2
  }
}
layer {
  name: "conv4_1m"
  type: "Convolution"
  bottom: "pool3m"
  top: "conv4_1m"
  param {
    name: "conv4_1_w"
    lr_mult: 1
    decay_mult: 1
  }
  param {
    name: "conv4_1_b"
    lr_mult: 2
    decay_mult: 0
  }
  convolution_param {
    num_output: 512
    pad: 1
    kernel_size: 3
  }
}
layer {
  name: "relu4_1m"
  type: "ReLU"
  bottom: "conv4_1m"
  top: "conv4_1m"
}
layer {
  name: "conv4_2m"
  type: "Convolution"
  bottom: "conv4_1m"
  top: "conv4_2m"
  param {
    name: "conv4_2_w"
    lr_mult: 1
    decay_mult: 1
  }
  param {
    name: "conv4_2_b"
    lr_mult: 2
    decay_mult: 0
  }
  convolution_param {
    num_output: 512
    pad: 1
    kernel_size: 3
  }
}
layer {
  name: "relu4_2m"
  type: "ReLU"
  bottom: "conv4_2m"
  top: "conv4_2m"
}
layer {
  name: "conv4_3m"
  type: "Convolution"
  bottom: "conv4_2m"
  top: "conv4_3m"
  param {
    name: "conv4_3_w"
    lr_mult: 1
    decay_mult: 1
  }
  param {
    name: "conv4_3_b"
    lr_mult: 2
    decay_mult: 0
  }
  convolution_param {
    num_output: 512
    pad: 1
    kernel_size: 3
  }
}
layer {
  name: "relu4_3m"
  type: "ReLU"
  bottom: "conv4_3m"
  top: "conv4_3m"
}
layer {
  name: "pool4m"
  type: "Pooling"
  bottom: "conv4_3m"
  top: "pool4m"
  pooling_param {
    pool: MAX
    kernel_size: 2
    stride: 2
  }
}
layer {
  name: "conv5_1m"
  type: "Convolution"
  bottom: "pool4m"
  top: "conv5_1m"
  param {
    name: "conv5_1_w"
    lr_mult: 1
    decay_mult: 1
  }
  param {
    name: "conv5_1_b"
    lr_mult: 2
    decay_mult: 0
  }
  convolution_param {
    num_output: 512
    pad: 1
    kernel_size: 3
  }
}
layer {
  name: "relu5_1m"
  type: "ReLU"
  bottom: "conv5_1m"
  top: "conv5_1m"
}
layer {
  name: "conv5_2m"
  type: "Convolution"
  bottom: "conv5_1m"
  top: "conv5_2m"
  param {
    name: "conv5_2_w"
    lr_mult: 1
    decay_mult: 1
  }
  param {
    name: "conv5_2_b"
    lr_mult: 2
    decay_mult: 0
  }
  convolution_param {
    num_output: 512
    pad: 1
    kernel_size: 3
  }
}
layer {
  name: "relu5_2m"
  type: "ReLU"
  bottom: "conv5_2m"
  top: "conv5_2m"
}
layer {
  name: "conv5_3m"
  type: "Convolution"
  bottom: "conv5_2m"
  top: "conv5_3m"
  param {
    name: "conv5_3_w"
    lr_mult: 1
    decay_mult: 1
  }
  param {
    name: "conv5_3_b"
    lr_mult: 2
    decay_mult: 0
  }
  convolution_param {
    num_output: 512
    kernel_size: 3
    pad_h: 7
    pad_w: 7
  }
}
layer {
  name: "relu5_3m"
  type: "ReLU"
  bottom: "conv5_3m"
  top: "conv5_3m"
}
layer {
  name: "pool5m"
  type: "Pooling"
  bottom: "conv5_3m"
  top: "pool5m"
  pooling_param {
    pool: MAX
    kernel_size: 2
    stride: 2
  }
}
layer {
  name: "silence_cur"
  type: "Silence"
  bottom: "cur_im"
}
layer {
  name: "concat1"
  type: "Concat"
  bottom: "pool5m"
  bottom: "pool5n"
  top: "concat1"
}
layer {
  name: "fc6"
  type: "Convolution"
  bottom: "concat1"
  top: "fc6"
  param {
    lr_mult: 1
    decay_mult: 1
  }
  param {
    lr_mult: 2
    decay_mult: 0
  }
  convolution_param {
    num_output: 4096
    kernel_size: 7
  }
}
layer {
  name: "relu6"
  type: "ReLU"
  bottom: "fc6"
  top: "fc6"
}
layer {
  name: "drop6"
  type: "Dropout"
  bottom: "fc6"
  top: "fc6"
  dropout_param {
    dropout_ratio: 0.5
  }
}
layer {
  name: "fc7"
  type: "Convolution"
  bottom: "fc6"
  top: "fc7"
  param {
    lr_mult: 1
    decay_mult: 1
  }
  param {
    lr_mult: 2
    decay_mult: 0
  }
  convolution_param {
    num_output: 4096
    kernel_size: 1
  }
}
layer {
  name: "relu7"
  type: "ReLU"
  bottom: "fc7"
  top: "fc7"
}
layer {
  name: "drop7"
  type: "Dropout"
  bottom: "fc7"
  top: "fc7"
  dropout_param {
    dropout_ratio: 0.5
  }
}
layer {
  name: "score_fc"
  type: "Convolution"
  bottom: "fc7"
  top: "score_fc"
  param {
    lr_mult: 1
    decay_mult: 1
  }
  param {
    lr_mult: 2
    decay_mult: 0
  }
  convolution_param {
    num_output: 21
    kernel_size: 1
  }
}
layer {
  name: "upscore2"
  type: "Deconvolution"
  bottom: "score_fc"
  top: "upscore2"
  param {
    lr_mult: 0
  }
  convolution_param {
    num_output: 21
    kernel_size: 4
    stride: 2
  }
}
layer {
  name: "score_pool4"
  type: "Convolution"
  bottom: "pool4n"
  top: "score_pool4"
  param {
    lr_mult: 1
    decay_mult: 1
  }
  param {
    lr_mult: 2
    decay_mult: 0
  }
  convolution_param {
    num_output: 21
    kernel_size: 1
  }
}
layer {
  name: "score_pool4c"
  type: "Crop"
  bottom: "score_pool4"
  bottom: "upscore2"
  top: "score_pool4c"
  crop_param {
    axis: 2
    offset: 5
  }
}
layer {
  name: "fuse_pool4"
  type: "Eltwise"
  bottom: "upscore2"
  bottom: "score_pool4c"
  top: "fuse_pool4"
  eltwise_param {
    operation: SUM
  }
}
layer {
  name: "upscore_pool4"
  type: "Deconvolution"
  bottom: "fuse_pool4"
  top: "upscore_pool4"
  param {
    lr_mult: 0
  }
  convolution_param {
    num_output: 21
    bias_term: false
    kernel_size: 4
    stride: 2
  }
}
layer {
  name: "score_pool3"
  type: "Convolution"
  bottom: "pool3n"
  top: "score_pool3"
  param {
    lr_mult: 1
    decay_mult: 1
  }
  param {
    lr_mult: 2
    decay_mult: 0
  }
  convolution_param {
    num_output: 21
    kernel_size: 1
  }
}
layer {
  name: "Crop1"
  type: "Crop"
  bottom: "score_pool3"
  bottom: "upscore_pool4"
  top: "Crop1"
  crop_param {
    axis: 2
    offset: 9
  }
}
layer {
  name: "fuse_pool3"
  type: "Eltwise"
  bottom: "upscore_pool4"
  bottom: "Crop1"
  top: "fuse_pool3"
  eltwise_param {
    operation: SUM
  }
}
layer {
  name: "upscore8"
  type: "Deconvolution"
  bottom: "fuse_pool3"
  top: "upscore8"
  param {
    lr_mult: 0
  }
  convolution_param {
    num_output: 21
    bias_term: false
    kernel_size: 16
    stride: 8
  }
}
layer {
  name: "score_pool3c"
  type: "Crop"
  bottom: "upscore8"
  bottom: "next_im"
  top: "score_pool3c"
  crop_param {
    axis: 2
    offset: 32
  }
}
layer {
  name: "score"
  type: "Convolution"
  bottom: "score_pool3c"
  top: "score"
  param {
    lr_mult: 10
    decay_mult: 1
  }
  param {
    lr_mult: 20
    decay_mult: 0
  }
  convolution_param {
    num_output: 2
    kernel_size: 1
  }
}
layer {
  name: "loss"
  type: "SoftmaxWithLoss"
  bottom: "score"
  bottom: "label"
  top: "loss"
  loss_param {
    ignore_label: 255
  }
}
I0707 19:33:00.881623 12122 layer_factory.hpp:77] Creating layer cur_im
/home/amir/davis/python/lib/davis/measures/t_stability.py:6: RuntimeWarning: to-Python converter for std::vector<bool, std::allocator<bool> > already registered; second conversion method ignored.
  from tstab import *
I0707 19:33:01.429004 12122 net.cpp:91] Creating Layer cur_im
I0707 19:33:01.429023 12122 net.cpp:399] cur_im -> cur_im
I0707 19:33:01.429059 12122 net.cpp:399] cur_im -> masked_im
I0707 19:33:01.429070 12122 net.cpp:399] cur_im -> next_im
I0707 19:33:01.429078 12122 net.cpp:399] cur_im -> label
loading annotations into memory...
Done (t=9.86s)
creating index...
index created!
I0707 19:33:14.197870 12122 net.cpp:141] Setting up cur_im
I0707 19:33:14.197911 12122 net.cpp:148] Top shape: 6 3 192 192 (663552)
I0707 19:33:14.197917 12122 net.cpp:148] Top shape: 6 3 192 192 (663552)
I0707 19:33:14.197923 12122 net.cpp:148] Top shape: 6 3 384 384 (2654208)
I0707 19:33:14.197929 12122 net.cpp:148] Top shape: 6 1 384 384 (884736)
I0707 19:33:14.197935 12122 net.cpp:156] Memory required for data: 19464192
I0707 19:33:14.197952 12122 layer_factory.hpp:77] Creating layer next_im_cur_im_2_split
I0707 19:33:14.197984 12122 net.cpp:91] Creating Layer next_im_cur_im_2_split
I0707 19:33:14.197993 12122 net.cpp:425] next_im_cur_im_2_split <- next_im
I0707 19:33:14.198031 12122 net.cpp:399] next_im_cur_im_2_split -> next_im_cur_im_2_split_0
I0707 19:33:14.198056 12122 net.cpp:399] next_im_cur_im_2_split -> next_im_cur_im_2_split_1
I0707 19:33:14.198112 12122 net.cpp:141] Setting up next_im_cur_im_2_split
I0707 19:33:14.198122 12122 net.cpp:148] Top shape: 6 3 384 384 (2654208)
I0707 19:33:14.198127 12122 net.cpp:148] Top shape: 6 3 384 384 (2654208)
I0707 19:33:14.198130 12122 net.cpp:156] Memory required for data: 40697856
I0707 19:33:14.198137 12122 layer_factory.hpp:77] Creating layer conv1_1n
I0707 19:33:14.198176 12122 net.cpp:91] Creating Layer conv1_1n
I0707 19:33:14.198181 12122 net.cpp:425] conv1_1n <- next_im_cur_im_2_split_0
I0707 19:33:14.198211 12122 net.cpp:399] conv1_1n -> conv1_1n
I0707 19:33:14.368181 12122 net.cpp:141] Setting up conv1_1n
I0707 19:33:14.368206 12122 net.cpp:148] Top shape: 6 64 584 584 (130965504)
I0707 19:33:14.368211 12122 net.cpp:156] Memory required for data: 564559872
I0707 19:33:14.368248 12122 layer_factory.hpp:77] Creating layer relu1_1n
I0707 19:33:14.368271 12122 net.cpp:91] Creating Layer relu1_1n
I0707 19:33:14.368278 12122 net.cpp:425] relu1_1n <- conv1_1n
I0707 19:33:14.368299 12122 net.cpp:386] relu1_1n -> conv1_1n (in-place)
I0707 19:33:14.368441 12122 net.cpp:141] Setting up relu1_1n
I0707 19:33:14.368449 12122 net.cpp:148] Top shape: 6 64 584 584 (130965504)
I0707 19:33:14.368453 12122 net.cpp:156] Memory required for data: 1088421888
I0707 19:33:14.368456 12122 layer_factory.hpp:77] Creating layer conv1_2n
I0707 19:33:14.368489 12122 net.cpp:91] Creating Layer conv1_2n
I0707 19:33:14.368492 12122 net.cpp:425] conv1_2n <- conv1_1n
I0707 19:33:14.368520 12122 net.cpp:399] conv1_2n -> conv1_2n
I0707 19:33:14.369911 12122 net.cpp:141] Setting up conv1_2n
I0707 19:33:14.369920 12122 net.cpp:148] Top shape: 6 64 584 584 (130965504)
I0707 19:33:14.369925 12122 net.cpp:156] Memory required for data: 1612283904
I0707 19:33:14.369933 12122 layer_factory.hpp:77] Creating layer relu1_2n
I0707 19:33:14.369961 12122 net.cpp:91] Creating Layer relu1_2n
I0707 19:33:14.369966 12122 net.cpp:425] relu1_2n <- conv1_2n
I0707 19:33:14.369979 12122 net.cpp:386] relu1_2n -> conv1_2n (in-place)
I0707 19:33:14.370205 12122 net.cpp:141] Setting up relu1_2n
I0707 19:33:14.370213 12122 net.cpp:148] Top shape: 6 64 584 584 (130965504)
I0707 19:33:14.370218 12122 net.cpp:156] Memory required for data: 2136145920
I0707 19:33:14.370223 12122 layer_factory.hpp:77] Creating layer pool1n
I0707 19:33:14.370241 12122 net.cpp:91] Creating Layer pool1n
I0707 19:33:14.370245 12122 net.cpp:425] pool1n <- conv1_2n
I0707 19:33:14.370263 12122 net.cpp:399] pool1n -> pool1n
I0707 19:33:14.370318 12122 net.cpp:141] Setting up pool1n
I0707 19:33:14.370326 12122 net.cpp:148] Top shape: 6 64 292 292 (32741376)
I0707 19:33:14.370329 12122 net.cpp:156] Memory required for data: 2267111424
I0707 19:33:14.370332 12122 layer_factory.hpp:77] Creating layer conv2_1n
I0707 19:33:14.370368 12122 net.cpp:91] Creating Layer conv2_1n
I0707 19:33:14.370373 12122 net.cpp:425] conv2_1n <- pool1n
I0707 19:33:14.370393 12122 net.cpp:399] conv2_1n -> conv2_1n
I0707 19:33:14.371523 12122 net.cpp:141] Setting up conv2_1n
I0707 19:33:14.371541 12122 net.cpp:148] Top shape: 6 128 292 292 (65482752)
I0707 19:33:14.371543 12122 net.cpp:156] Memory required for data: 2529042432
I0707 19:33:14.371556 12122 layer_factory.hpp:77] Creating layer relu2_1n
I0707 19:33:14.371572 12122 net.cpp:91] Creating Layer relu2_1n
I0707 19:33:14.371577 12122 net.cpp:425] relu2_1n <- conv2_1n
I0707 19:33:14.371594 12122 net.cpp:386] relu2_1n -> conv2_1n (in-place)
I0707 19:33:14.371726 12122 net.cpp:141] Setting up relu2_1n
I0707 19:33:14.371732 12122 net.cpp:148] Top shape: 6 128 292 292 (65482752)
I0707 19:33:14.371737 12122 net.cpp:156] Memory required for data: 2790973440
I0707 19:33:14.371742 12122 layer_factory.hpp:77] Creating layer conv2_2n
I0707 19:33:14.371765 12122 net.cpp:91] Creating Layer conv2_2n
I0707 19:33:14.371769 12122 net.cpp:425] conv2_2n <- conv2_1n
I0707 19:33:14.371793 12122 net.cpp:399] conv2_2n -> conv2_2n
I0707 19:33:14.372838 12122 net.cpp:141] Setting up conv2_2n
I0707 19:33:14.372848 12122 net.cpp:148] Top shape: 6 128 292 292 (65482752)
I0707 19:33:14.372853 12122 net.cpp:156] Memory required for data: 3052904448
I0707 19:33:14.372861 12122 layer_factory.hpp:77] Creating layer relu2_2n
I0707 19:33:14.372879 12122 net.cpp:91] Creating Layer relu2_2n
I0707 19:33:14.372884 12122 net.cpp:425] relu2_2n <- conv2_2n
I0707 19:33:14.372908 12122 net.cpp:386] relu2_2n -> conv2_2n (in-place)
I0707 19:33:14.373028 12122 net.cpp:141] Setting up relu2_2n
I0707 19:33:14.373036 12122 net.cpp:148] Top shape: 6 128 292 292 (65482752)
I0707 19:33:14.373040 12122 net.cpp:156] Memory required for data: 3314835456
I0707 19:33:14.373044 12122 layer_factory.hpp:77] Creating layer pool2n
I0707 19:33:14.373057 12122 net.cpp:91] Creating Layer pool2n
I0707 19:33:14.373062 12122 net.cpp:425] pool2n <- conv2_2n
I0707 19:33:14.373080 12122 net.cpp:399] pool2n -> pool2n
I0707 19:33:14.373122 12122 net.cpp:141] Setting up pool2n
I0707 19:33:14.373128 12122 net.cpp:148] Top shape: 6 128 146 146 (16370688)
I0707 19:33:14.373132 12122 net.cpp:156] Memory required for data: 3380318208
I0707 19:33:14.373136 12122 layer_factory.hpp:77] Creating layer conv3_1n
I0707 19:33:14.373169 12122 net.cpp:91] Creating Layer conv3_1n
I0707 19:33:14.373174 12122 net.cpp:425] conv3_1n <- pool2n
I0707 19:33:14.373198 12122 net.cpp:399] conv3_1n -> conv3_1n
I0707 19:33:14.374294 12122 net.cpp:141] Setting up conv3_1n
I0707 19:33:14.374303 12122 net.cpp:148] Top shape: 6 256 146 146 (32741376)
I0707 19:33:14.374306 12122 net.cpp:156] Memory required for data: 3511283712
I0707 19:33:14.374322 12122 layer_factory.hpp:77] Creating layer relu3_1n
I0707 19:33:14.374344 12122 net.cpp:91] Creating Layer relu3_1n
I0707 19:33:14.374348 12122 net.cpp:425] relu3_1n <- conv3_1n
I0707 19:33:14.374367 12122 net.cpp:386] relu3_1n -> conv3_1n (in-place)
I0707 19:33:14.374586 12122 net.cpp:141] Setting up relu3_1n
I0707 19:33:14.374594 12122 net.cpp:148] Top shape: 6 256 146 146 (32741376)
I0707 19:33:14.374598 12122 net.cpp:156] Memory required for data: 3642249216
I0707 19:33:14.374601 12122 layer_factory.hpp:77] Creating layer conv3_2n
I0707 19:33:14.374630 12122 net.cpp:91] Creating Layer conv3_2n
I0707 19:33:14.374634 12122 net.cpp:425] conv3_2n <- conv3_1n
I0707 19:33:14.374661 12122 net.cpp:399] conv3_2n -> conv3_2n
I0707 19:33:14.376142 12122 net.cpp:141] Setting up conv3_2n
I0707 19:33:14.376166 12122 net.cpp:148] Top shape: 6 256 146 146 (32741376)
I0707 19:33:14.376170 12122 net.cpp:156] Memory required for data: 3773214720
I0707 19:33:14.376180 12122 layer_factory.hpp:77] Creating layer relu3_2n
I0707 19:33:14.376199 12122 net.cpp:91] Creating Layer relu3_2n
I0707 19:33:14.376205 12122 net.cpp:425] relu3_2n <- conv3_2n
I0707 19:33:14.376230 12122 net.cpp:386] relu3_2n -> conv3_2n (in-place)
I0707 19:33:14.376359 12122 net.cpp:141] Setting up relu3_2n
I0707 19:33:14.376368 12122 net.cpp:148] Top shape: 6 256 146 146 (32741376)
I0707 19:33:14.376371 12122 net.cpp:156] Memory required for data: 3904180224
I0707 19:33:14.376374 12122 layer_factory.hpp:77] Creating layer conv3_3n
I0707 19:33:14.376405 12122 net.cpp:91] Creating Layer conv3_3n
I0707 19:33:14.376418 12122 net.cpp:425] conv3_3n <- conv3_2n
I0707 19:33:14.376443 12122 net.cpp:399] conv3_3n -> conv3_3n
I0707 19:33:14.377794 12122 net.cpp:141] Setting up conv3_3n
I0707 19:33:14.377802 12122 net.cpp:148] Top shape: 6 256 146 146 (32741376)
I0707 19:33:14.377806 12122 net.cpp:156] Memory required for data: 4035145728
I0707 19:33:14.377817 12122 layer_factory.hpp:77] Creating layer relu3_3n
I0707 19:33:14.377840 12122 net.cpp:91] Creating Layer relu3_3n
I0707 19:33:14.377843 12122 net.cpp:425] relu3_3n <- conv3_3n
I0707 19:33:14.377858 12122 net.cpp:386] relu3_3n -> conv3_3n (in-place)
I0707 19:33:14.377980 12122 net.cpp:141] Setting up relu3_3n
I0707 19:33:14.377987 12122 net.cpp:148] Top shape: 6 256 146 146 (32741376)
I0707 19:33:14.377992 12122 net.cpp:156] Memory required for data: 4166111232
I0707 19:33:14.377995 12122 layer_factory.hpp:77] Creating layer pool3n
I0707 19:33:14.378011 12122 net.cpp:91] Creating Layer pool3n
I0707 19:33:14.378016 12122 net.cpp:425] pool3n <- conv3_3n
I0707 19:33:14.378031 12122 net.cpp:399] pool3n -> pool3n
I0707 19:33:14.378074 12122 net.cpp:141] Setting up pool3n
I0707 19:33:14.378082 12122 net.cpp:148] Top shape: 6 256 73 73 (8185344)
I0707 19:33:14.378084 12122 net.cpp:156] Memory required for data: 4198852608
I0707 19:33:14.378088 12122 layer_factory.hpp:77] Creating layer pool3n_pool3n_0_split
I0707 19:33:14.378103 12122 net.cpp:91] Creating Layer pool3n_pool3n_0_split
I0707 19:33:14.378108 12122 net.cpp:425] pool3n_pool3n_0_split <- pool3n
I0707 19:33:14.378126 12122 net.cpp:399] pool3n_pool3n_0_split -> pool3n_pool3n_0_split_0
I0707 19:33:14.378141 12122 net.cpp:399] pool3n_pool3n_0_split -> pool3n_pool3n_0_split_1
I0707 19:33:14.378175 12122 net.cpp:141] Setting up pool3n_pool3n_0_split
I0707 19:33:14.378182 12122 net.cpp:148] Top shape: 6 256 73 73 (8185344)
I0707 19:33:14.378187 12122 net.cpp:148] Top shape: 6 256 73 73 (8185344)
I0707 19:33:14.378190 12122 net.cpp:156] Memory required for data: 4264335360
I0707 19:33:14.378193 12122 layer_factory.hpp:77] Creating layer conv4_1n
I0707 19:33:14.378444 12122 net.cpp:91] Creating Layer conv4_1n
I0707 19:33:14.378449 12122 net.cpp:425] conv4_1n <- pool3n_pool3n_0_split_0
I0707 19:33:14.378456 12122 net.cpp:399] conv4_1n -> conv4_1n
I0707 19:33:14.380867 12122 net.cpp:141] Setting up conv4_1n
I0707 19:33:14.380894 12122 net.cpp:148] Top shape: 6 512 73 73 (16370688)
I0707 19:33:14.380897 12122 net.cpp:156] Memory required for data: 4329818112
I0707 19:33:14.380908 12122 layer_factory.hpp:77] Creating layer relu4_1n
I0707 19:33:14.380918 12122 net.cpp:91] Creating Layer relu4_1n
I0707 19:33:14.380923 12122 net.cpp:425] relu4_1n <- conv4_1n
I0707 19:33:14.380933 12122 net.cpp:386] relu4_1n -> conv4_1n (in-place)
I0707 19:33:14.381131 12122 net.cpp:141] Setting up relu4_1n
I0707 19:33:14.381144 12122 net.cpp:148] Top shape: 6 512 73 73 (16370688)
I0707 19:33:14.381147 12122 net.cpp:156] Memory required for data: 4395300864
I0707 19:33:14.381150 12122 layer_factory.hpp:77] Creating layer conv4_2n
I0707 19:33:14.381161 12122 net.cpp:91] Creating Layer conv4_2n
I0707 19:33:14.381165 12122 net.cpp:425] conv4_2n <- conv4_1n
I0707 19:33:14.381176 12122 net.cpp:399] conv4_2n -> conv4_2n
I0707 19:33:14.385165 12122 net.cpp:141] Setting up conv4_2n
I0707 19:33:14.385185 12122 net.cpp:148] Top shape: 6 512 73 73 (16370688)
I0707 19:33:14.385188 12122 net.cpp:156] Memory required for data: 4460783616
I0707 19:33:14.385207 12122 layer_factory.hpp:77] Creating layer relu4_2n
I0707 19:33:14.385224 12122 net.cpp:91] Creating Layer relu4_2n
I0707 19:33:14.385231 12122 net.cpp:425] relu4_2n <- conv4_2n
I0707 19:33:14.385251 12122 net.cpp:386] relu4_2n -> conv4_2n (in-place)
I0707 19:33:14.385392 12122 net.cpp:141] Setting up relu4_2n
I0707 19:33:14.385399 12122 net.cpp:148] Top shape: 6 512 73 73 (16370688)
I0707 19:33:14.385402 12122 net.cpp:156] Memory required for data: 4526266368
I0707 19:33:14.385406 12122 layer_factory.hpp:77] Creating layer conv4_3n
I0707 19:33:14.385433 12122 net.cpp:91] Creating Layer conv4_3n
I0707 19:33:14.385444 12122 net.cpp:425] conv4_3n <- conv4_2n
I0707 19:33:14.385470 12122 net.cpp:399] conv4_3n -> conv4_3n
I0707 19:33:14.388964 12122 net.cpp:141] Setting up conv4_3n
I0707 19:33:14.388983 12122 net.cpp:148] Top shape: 6 512 73 73 (16370688)
I0707 19:33:14.388988 12122 net.cpp:156] Memory required for data: 4591749120
I0707 19:33:14.389000 12122 layer_factory.hpp:77] Creating layer relu4_3n
I0707 19:33:14.389020 12122 net.cpp:91] Creating Layer relu4_3n
I0707 19:33:14.389029 12122 net.cpp:425] relu4_3n <- conv4_3n
I0707 19:33:14.389046 12122 net.cpp:386] relu4_3n -> conv4_3n (in-place)
I0707 19:33:14.389178 12122 net.cpp:141] Setting up relu4_3n
I0707 19:33:14.389188 12122 net.cpp:148] Top shape: 6 512 73 73 (16370688)
I0707 19:33:14.389190 12122 net.cpp:156] Memory required for data: 4657231872
I0707 19:33:14.389194 12122 layer_factory.hpp:77] Creating layer pool4n
I0707 19:33:14.389210 12122 net.cpp:91] Creating Layer pool4n
I0707 19:33:14.389215 12122 net.cpp:425] pool4n <- conv4_3n
I0707 19:33:14.389233 12122 net.cpp:399] pool4n -> pool4n
I0707 19:33:14.389278 12122 net.cpp:141] Setting up pool4n
I0707 19:33:14.389286 12122 net.cpp:148] Top shape: 6 512 37 37 (4205568)
I0707 19:33:14.389289 12122 net.cpp:156] Memory required for data: 4674054144
I0707 19:33:14.389292 12122 layer_factory.hpp:77] Creating layer pool4n_pool4n_0_split
I0707 19:33:14.389309 12122 net.cpp:91] Creating Layer pool4n_pool4n_0_split
I0707 19:33:14.389313 12122 net.cpp:425] pool4n_pool4n_0_split <- pool4n
I0707 19:33:14.389339 12122 net.cpp:399] pool4n_pool4n_0_split -> pool4n_pool4n_0_split_0
I0707 19:33:14.389353 12122 net.cpp:399] pool4n_pool4n_0_split -> pool4n_pool4n_0_split_1
I0707 19:33:14.389386 12122 net.cpp:141] Setting up pool4n_pool4n_0_split
I0707 19:33:14.389392 12122 net.cpp:148] Top shape: 6 512 37 37 (4205568)
I0707 19:33:14.389397 12122 net.cpp:148] Top shape: 6 512 37 37 (4205568)
I0707 19:33:14.389400 12122 net.cpp:156] Memory required for data: 4707698688
I0707 19:33:14.389403 12122 layer_factory.hpp:77] Creating layer conv5_1n
I0707 19:33:14.389430 12122 net.cpp:91] Creating Layer conv5_1n
I0707 19:33:14.389436 12122 net.cpp:425] conv5_1n <- pool4n_pool4n_0_split_0
I0707 19:33:14.389461 12122 net.cpp:399] conv5_1n -> conv5_1n
I0707 19:33:14.393337 12122 net.cpp:141] Setting up conv5_1n
I0707 19:33:14.393357 12122 net.cpp:148] Top shape: 6 512 37 37 (4205568)
I0707 19:33:14.393360 12122 net.cpp:156] Memory required for data: 4724520960
I0707 19:33:14.393374 12122 layer_factory.hpp:77] Creating layer relu5_1n
I0707 19:33:14.393391 12122 net.cpp:91] Creating Layer relu5_1n
I0707 19:33:14.393398 12122 net.cpp:425] relu5_1n <- conv5_1n
I0707 19:33:14.393425 12122 net.cpp:386] relu5_1n -> conv5_1n (in-place)
I0707 19:33:14.393641 12122 net.cpp:141] Setting up relu5_1n
I0707 19:33:14.393651 12122 net.cpp:148] Top shape: 6 512 37 37 (4205568)
I0707 19:33:14.393654 12122 net.cpp:156] Memory required for data: 4741343232
I0707 19:33:14.393658 12122 layer_factory.hpp:77] Creating layer conv5_2n
I0707 19:33:14.393692 12122 net.cpp:91] Creating Layer conv5_2n
I0707 19:33:14.393697 12122 net.cpp:425] conv5_2n <- conv5_1n
I0707 19:33:14.393721 12122 net.cpp:399] conv5_2n -> conv5_2n
I0707 19:33:14.398154 12122 net.cpp:141] Setting up conv5_2n
I0707 19:33:14.398174 12122 net.cpp:148] Top shape: 6 512 37 37 (4205568)
I0707 19:33:14.398177 12122 net.cpp:156] Memory required for data: 4758165504
I0707 19:33:14.398193 12122 layer_factory.hpp:77] Creating layer relu5_2n
I0707 19:33:14.398214 12122 net.cpp:91] Creating Layer relu5_2n
I0707 19:33:14.398221 12122 net.cpp:425] relu5_2n <- conv5_2n
I0707 19:33:14.398242 12122 net.cpp:386] relu5_2n -> conv5_2n (in-place)
I0707 19:33:14.398382 12122 net.cpp:141] Setting up relu5_2n
I0707 19:33:14.398389 12122 net.cpp:148] Top shape: 6 512 37 37 (4205568)
I0707 19:33:14.398393 12122 net.cpp:156] Memory required for data: 4774987776
I0707 19:33:14.398396 12122 layer_factory.hpp:77] Creating layer conv5_3n
I0707 19:33:14.398428 12122 net.cpp:91] Creating Layer conv5_3n
I0707 19:33:14.398439 12122 net.cpp:425] conv5_3n <- conv5_2n
I0707 19:33:14.398466 12122 net.cpp:399] conv5_3n -> conv5_3n
I0707 19:33:14.402243 12122 net.cpp:141] Setting up conv5_3n
I0707 19:33:14.402266 12122 net.cpp:148] Top shape: 6 512 37 37 (4205568)
I0707 19:33:14.402269 12122 net.cpp:156] Memory required for data: 4791810048
I0707 19:33:14.402283 12122 layer_factory.hpp:77] Creating layer relu5_3n
I0707 19:33:14.402312 12122 net.cpp:91] Creating Layer relu5_3n
I0707 19:33:14.402317 12122 net.cpp:425] relu5_3n <- conv5_3n
I0707 19:33:14.402339 12122 net.cpp:386] relu5_3n -> conv5_3n (in-place)
I0707 19:33:14.402572 12122 net.cpp:141] Setting up relu5_3n
I0707 19:33:14.402581 12122 net.cpp:148] Top shape: 6 512 37 37 (4205568)
I0707 19:33:14.402585 12122 net.cpp:156] Memory required for data: 4808632320
I0707 19:33:14.402588 12122 layer_factory.hpp:77] Creating layer pool5n
I0707 19:33:14.402608 12122 net.cpp:91] Creating Layer pool5n
I0707 19:33:14.402613 12122 net.cpp:425] pool5n <- conv5_3n
I0707 19:33:14.402631 12122 net.cpp:399] pool5n -> pool5n
I0707 19:33:14.402680 12122 net.cpp:141] Setting up pool5n
I0707 19:33:14.402688 12122 net.cpp:148] Top shape: 6 512 19 19 (1108992)
I0707 19:33:14.402690 12122 net.cpp:156] Memory required for data: 4813068288
I0707 19:33:14.402693 12122 layer_factory.hpp:77] Creating layer conv1_1m
I0707 19:33:14.402720 12122 net.cpp:91] Creating Layer conv1_1m
I0707 19:33:14.402725 12122 net.cpp:425] conv1_1m <- masked_im
I0707 19:33:14.402748 12122 net.cpp:399] conv1_1m -> conv1_1m
I0707 19:33:14.403851 12122 net.cpp:141] Setting up conv1_1m
I0707 19:33:14.403861 12122 net.cpp:148] Top shape: 6 64 392 392 (59006976)
I0707 19:33:14.403864 12122 net.cpp:156] Memory required for data: 5049096192
I0707 19:33:14.403872 12122 net.cpp:484] Sharing parameters 'conv1_1_w' owned by layer 'conv1_1n', param index 0
I0707 19:33:14.403879 12122 net.cpp:484] Sharing parameters 'conv1_1_b' owned by layer 'conv1_1n', param index 1
I0707 19:33:14.403883 12122 layer_factory.hpp:77] Creating layer relu1_1m
I0707 19:33:14.403899 12122 net.cpp:91] Creating Layer relu1_1m
I0707 19:33:14.403904 12122 net.cpp:425] relu1_1m <- conv1_1m
I0707 19:33:14.403926 12122 net.cpp:386] relu1_1m -> conv1_1m (in-place)
I0707 19:33:14.404144 12122 net.cpp:141] Setting up relu1_1m
I0707 19:33:14.404151 12122 net.cpp:148] Top shape: 6 64 392 392 (59006976)
I0707 19:33:14.404155 12122 net.cpp:156] Memory required for data: 5285124096
I0707 19:33:14.404160 12122 layer_factory.hpp:77] Creating layer conv1_2m
I0707 19:33:14.404187 12122 net.cpp:91] Creating Layer conv1_2m
I0707 19:33:14.404192 12122 net.cpp:425] conv1_2m <- conv1_1m
I0707 19:33:14.404217 12122 net.cpp:399] conv1_2m -> conv1_2m
I0707 19:33:14.405318 12122 net.cpp:141] Setting up conv1_2m
I0707 19:33:14.405328 12122 net.cpp:148] Top shape: 6 64 392 392 (59006976)
I0707 19:33:14.405331 12122 net.cpp:156] Memory required for data: 5521152000
I0707 19:33:14.405349 12122 net.cpp:484] Sharing parameters 'conv1_2_w' owned by layer 'conv1_2n', param index 0
I0707 19:33:14.405356 12122 net.cpp:484] Sharing parameters 'conv1_2_b' owned by layer 'conv1_2n', param index 1
I0707 19:33:14.405360 12122 layer_factory.hpp:77] Creating layer relu1_2m
I0707 19:33:14.405376 12122 net.cpp:91] Creating Layer relu1_2m
I0707 19:33:14.405381 12122 net.cpp:425] relu1_2m <- conv1_2m
I0707 19:33:14.405400 12122 net.cpp:386] relu1_2m -> conv1_2m (in-place)
I0707 19:33:14.405532 12122 net.cpp:141] Setting up relu1_2m
I0707 19:33:14.405539 12122 net.cpp:148] Top shape: 6 64 392 392 (59006976)
I0707 19:33:14.405542 12122 net.cpp:156] Memory required for data: 5757179904
I0707 19:33:14.405546 12122 layer_factory.hpp:77] Creating layer pool1m
I0707 19:33:14.405562 12122 net.cpp:91] Creating Layer pool1m
I0707 19:33:14.405566 12122 net.cpp:425] pool1m <- conv1_2m
I0707 19:33:14.405582 12122 net.cpp:399] pool1m -> pool1m
I0707 19:33:14.405635 12122 net.cpp:141] Setting up pool1m
I0707 19:33:14.405642 12122 net.cpp:148] Top shape: 6 64 196 196 (14751744)
I0707 19:33:14.405645 12122 net.cpp:156] Memory required for data: 5816186880
I0707 19:33:14.405659 12122 layer_factory.hpp:77] Creating layer conv2_1m
I0707 19:33:14.405684 12122 net.cpp:91] Creating Layer conv2_1m
I0707 19:33:14.405689 12122 net.cpp:425] conv2_1m <- pool1m
I0707 19:33:14.405712 12122 net.cpp:399] conv2_1m -> conv2_1m
I0707 19:33:14.406622 12122 net.cpp:141] Setting up conv2_1m
I0707 19:33:14.406632 12122 net.cpp:148] Top shape: 6 128 196 196 (29503488)
I0707 19:33:14.406635 12122 net.cpp:156] Memory required for data: 5934200832
I0707 19:33:14.406642 12122 net.cpp:484] Sharing parameters 'conv2_1_w' owned by layer 'conv2_1n', param index 0
I0707 19:33:14.406651 12122 net.cpp:484] Sharing parameters 'conv2_1_b' owned by layer 'conv2_1n', param index 1
I0707 19:33:14.406656 12122 layer_factory.hpp:77] Creating layer relu2_1m
I0707 19:33:14.406671 12122 net.cpp:91] Creating Layer relu2_1m
I0707 19:33:14.406677 12122 net.cpp:425] relu2_1m <- conv2_1m
I0707 19:33:14.406699 12122 net.cpp:386] relu2_1m -> conv2_1m (in-place)
I0707 19:33:14.406834 12122 net.cpp:141] Setting up relu2_1m
I0707 19:33:14.406841 12122 net.cpp:148] Top shape: 6 128 196 196 (29503488)
I0707 19:33:14.406846 12122 net.cpp:156] Memory required for data: 6052214784
I0707 19:33:14.406848 12122 layer_factory.hpp:77] Creating layer conv2_2m
I0707 19:33:14.406891 12122 net.cpp:91] Creating Layer conv2_2m
I0707 19:33:14.406896 12122 net.cpp:425] conv2_2m <- conv2_1m
I0707 19:33:14.406924 12122 net.cpp:399] conv2_2m -> conv2_2m
I0707 19:33:14.408129 12122 net.cpp:141] Setting up conv2_2m
I0707 19:33:14.408140 12122 net.cpp:148] Top shape: 6 128 196 196 (29503488)
I0707 19:33:14.408144 12122 net.cpp:156] Memory required for data: 6170228736
I0707 19:33:14.408164 12122 net.cpp:484] Sharing parameters 'conv2_2_w' owned by layer 'conv2_2n', param index 0
I0707 19:33:14.408172 12122 net.cpp:484] Sharing parameters 'conv2_2_b' owned by layer 'conv2_2n', param index 1
I0707 19:33:14.408177 12122 layer_factory.hpp:77] Creating layer relu2_2m
I0707 19:33:14.408193 12122 net.cpp:91] Creating Layer relu2_2m
I0707 19:33:14.408198 12122 net.cpp:425] relu2_2m <- conv2_2m
I0707 19:33:14.408213 12122 net.cpp:386] relu2_2m -> conv2_2m (in-place)
I0707 19:33:14.408440 12122 net.cpp:141] Setting up relu2_2m
I0707 19:33:14.408448 12122 net.cpp:148] Top shape: 6 128 196 196 (29503488)
I0707 19:33:14.408452 12122 net.cpp:156] Memory required for data: 6288242688
I0707 19:33:14.408457 12122 layer_factory.hpp:77] Creating layer pool2m
I0707 19:33:14.408475 12122 net.cpp:91] Creating Layer pool2m
I0707 19:33:14.408480 12122 net.cpp:425] pool2m <- conv2_2m
I0707 19:33:14.408499 12122 net.cpp:399] pool2m -> pool2m
I0707 19:33:14.408545 12122 net.cpp:141] Setting up pool2m
I0707 19:33:14.408551 12122 net.cpp:148] Top shape: 6 128 98 98 (7375872)
I0707 19:33:14.408555 12122 net.cpp:156] Memory required for data: 6317746176
I0707 19:33:14.408558 12122 layer_factory.hpp:77] Creating layer conv3_1m
I0707 19:33:14.408592 12122 net.cpp:91] Creating Layer conv3_1m
I0707 19:33:14.408596 12122 net.cpp:425] conv3_1m <- pool2m
I0707 19:33:14.408622 12122 net.cpp:399] conv3_1m -> conv3_1m
I0707 19:33:14.409965 12122 net.cpp:141] Setting up conv3_1m
I0707 19:33:14.409982 12122 net.cpp:148] Top shape: 6 256 98 98 (14751744)
I0707 19:33:14.409986 12122 net.cpp:156] Memory required for data: 6376753152
I0707 19:33:14.409993 12122 net.cpp:484] Sharing parameters 'conv3_1_w' owned by layer 'conv3_1n', param index 0
I0707 19:33:14.409998 12122 net.cpp:484] Sharing parameters 'conv3_1_b' owned by layer 'conv3_1n', param index 1
I0707 19:33:14.410002 12122 layer_factory.hpp:77] Creating layer relu3_1m
I0707 19:33:14.410020 12122 net.cpp:91] Creating Layer relu3_1m
I0707 19:33:14.410027 12122 net.cpp:425] relu3_1m <- conv3_1m
I0707 19:33:14.410045 12122 net.cpp:386] relu3_1m -> conv3_1m (in-place)
I0707 19:33:14.410181 12122 net.cpp:141] Setting up relu3_1m
I0707 19:33:14.410188 12122 net.cpp:148] Top shape: 6 256 98 98 (14751744)
I0707 19:33:14.410192 12122 net.cpp:156] Memory required for data: 6435760128
I0707 19:33:14.410208 12122 layer_factory.hpp:77] Creating layer conv3_2m
I0707 19:33:14.410230 12122 net.cpp:91] Creating Layer conv3_2m
I0707 19:33:14.410235 12122 net.cpp:425] conv3_2m <- conv3_1m
I0707 19:33:14.410257 12122 net.cpp:399] conv3_2m -> conv3_2m
I0707 19:33:14.411871 12122 net.cpp:141] Setting up conv3_2m
I0707 19:33:14.411902 12122 net.cpp:148] Top shape: 6 256 98 98 (14751744)
I0707 19:33:14.411906 12122 net.cpp:156] Memory required for data: 6494767104
I0707 19:33:14.411913 12122 net.cpp:484] Sharing parameters 'conv3_2_w' owned by layer 'conv3_2n', param index 0
I0707 19:33:14.411922 12122 net.cpp:484] Sharing parameters 'conv3_2_b' owned by layer 'conv3_2n', param index 1
I0707 19:33:14.411932 12122 layer_factory.hpp:77] Creating layer relu3_2m
I0707 19:33:14.411957 12122 net.cpp:91] Creating Layer relu3_2m
I0707 19:33:14.411963 12122 net.cpp:425] relu3_2m <- conv3_2m
I0707 19:33:14.411998 12122 net.cpp:386] relu3_2m -> conv3_2m (in-place)
I0707 19:33:14.412174 12122 net.cpp:141] Setting up relu3_2m
I0707 19:33:14.412183 12122 net.cpp:148] Top shape: 6 256 98 98 (14751744)
I0707 19:33:14.412186 12122 net.cpp:156] Memory required for data: 6553774080
I0707 19:33:14.412189 12122 layer_factory.hpp:77] Creating layer conv3_3m
I0707 19:33:14.412230 12122 net.cpp:91] Creating Layer conv3_3m
I0707 19:33:14.412238 12122 net.cpp:425] conv3_3m <- conv3_2m
I0707 19:33:14.412276 12122 net.cpp:399] conv3_3m -> conv3_3m
I0707 19:33:14.414418 12122 net.cpp:141] Setting up conv3_3m
I0707 19:33:14.414439 12122 net.cpp:148] Top shape: 6 256 98 98 (14751744)
I0707 19:33:14.414448 12122 net.cpp:156] Memory required for data: 6612781056
I0707 19:33:14.414458 12122 net.cpp:484] Sharing parameters 'conv3_3_w' owned by layer 'conv3_3n', param index 0
I0707 19:33:14.414465 12122 net.cpp:484] Sharing parameters 'conv3_3_b' owned by layer 'conv3_3n', param index 1
I0707 19:33:14.414469 12122 layer_factory.hpp:77] Creating layer relu3_3m
I0707 19:33:14.414495 12122 net.cpp:91] Creating Layer relu3_3m
I0707 19:33:14.414500 12122 net.cpp:425] relu3_3m <- conv3_3m
I0707 19:33:14.414523 12122 net.cpp:386] relu3_3m -> conv3_3m (in-place)
I0707 19:33:14.414801 12122 net.cpp:141] Setting up relu3_3m
I0707 19:33:14.414809 12122 net.cpp:148] Top shape: 6 256 98 98 (14751744)
I0707 19:33:14.414813 12122 net.cpp:156] Memory required for data: 6671788032
I0707 19:33:14.414816 12122 layer_factory.hpp:77] Creating layer pool3m
I0707 19:33:14.414832 12122 net.cpp:91] Creating Layer pool3m
I0707 19:33:14.414839 12122 net.cpp:425] pool3m <- conv3_3m
I0707 19:33:14.414855 12122 net.cpp:399] pool3m -> pool3m
I0707 19:33:14.414903 12122 net.cpp:141] Setting up pool3m
I0707 19:33:14.414909 12122 net.cpp:148] Top shape: 6 256 49 49 (3687936)
I0707 19:33:14.414912 12122 net.cpp:156] Memory required for data: 6686539776
I0707 19:33:14.414917 12122 layer_factory.hpp:77] Creating layer conv4_1m
I0707 19:33:14.414954 12122 net.cpp:91] Creating Layer conv4_1m
I0707 19:33:14.414960 12122 net.cpp:425] conv4_1m <- pool3m
I0707 19:33:14.414983 12122 net.cpp:399] conv4_1m -> conv4_1m
I0707 19:33:14.417112 12122 net.cpp:141] Setting up conv4_1m
I0707 19:33:14.417129 12122 net.cpp:148] Top shape: 6 512 49 49 (7375872)
I0707 19:33:14.417131 12122 net.cpp:156] Memory required for data: 6716043264
I0707 19:33:14.417138 12122 net.cpp:484] Sharing parameters 'conv4_1_w' owned by layer 'conv4_1n', param index 0
I0707 19:33:14.417145 12122 net.cpp:484] Sharing parameters 'conv4_1_b' owned by layer 'conv4_1n', param index 1
I0707 19:33:14.417150 12122 layer_factory.hpp:77] Creating layer relu4_1m
I0707 19:33:14.417170 12122 net.cpp:91] Creating Layer relu4_1m
I0707 19:33:14.417174 12122 net.cpp:425] relu4_1m <- conv4_1m
I0707 19:33:14.417202 12122 net.cpp:386] relu4_1m -> conv4_1m (in-place)
I0707 19:33:14.417333 12122 net.cpp:141] Setting up relu4_1m
I0707 19:33:14.417340 12122 net.cpp:148] Top shape: 6 512 49 49 (7375872)
I0707 19:33:14.417345 12122 net.cpp:156] Memory required for data: 6745546752
I0707 19:33:14.417347 12122 layer_factory.hpp:77] Creating layer conv4_2m
I0707 19:33:14.417382 12122 net.cpp:91] Creating Layer conv4_2m
I0707 19:33:14.417387 12122 net.cpp:425] conv4_2m <- conv4_1m
I0707 19:33:14.417407 12122 net.cpp:399] conv4_2m -> conv4_2m
I0707 19:33:14.421563 12122 net.cpp:141] Setting up conv4_2m
I0707 19:33:14.421582 12122 net.cpp:148] Top shape: 6 512 49 49 (7375872)
I0707 19:33:14.421586 12122 net.cpp:156] Memory required for data: 6775050240
I0707 19:33:14.421594 12122 net.cpp:484] Sharing parameters 'conv4_2_w' owned by layer 'conv4_2n', param index 0
I0707 19:33:14.421602 12122 net.cpp:484] Sharing parameters 'conv4_2_b' owned by layer 'conv4_2n', param index 1
I0707 19:33:14.421605 12122 layer_factory.hpp:77] Creating layer relu4_2m
I0707 19:33:14.421623 12122 net.cpp:91] Creating Layer relu4_2m
I0707 19:33:14.421632 12122 net.cpp:425] relu4_2m <- conv4_2m
I0707 19:33:14.421648 12122 net.cpp:386] relu4_2m -> conv4_2m (in-place)
I0707 19:33:14.421784 12122 net.cpp:141] Setting up relu4_2m
I0707 19:33:14.421793 12122 net.cpp:148] Top shape: 6 512 49 49 (7375872)
I0707 19:33:14.421797 12122 net.cpp:156] Memory required for data: 6804553728
I0707 19:33:14.421802 12122 layer_factory.hpp:77] Creating layer conv4_3m
I0707 19:33:14.421829 12122 net.cpp:91] Creating Layer conv4_3m
I0707 19:33:14.421833 12122 net.cpp:425] conv4_3m <- conv4_2m
I0707 19:33:14.421855 12122 net.cpp:399] conv4_3m -> conv4_3m
I0707 19:33:14.426007 12122 net.cpp:141] Setting up conv4_3m
I0707 19:33:14.426038 12122 net.cpp:148] Top shape: 6 512 49 49 (7375872)
I0707 19:33:14.426040 12122 net.cpp:156] Memory required for data: 6834057216
I0707 19:33:14.426048 12122 net.cpp:484] Sharing parameters 'conv4_3_w' owned by layer 'conv4_3n', param index 0
I0707 19:33:14.426054 12122 net.cpp:484] Sharing parameters 'conv4_3_b' owned by layer 'conv4_3n', param index 1
I0707 19:33:14.426059 12122 layer_factory.hpp:77] Creating layer relu4_3m
I0707 19:33:14.426074 12122 net.cpp:91] Creating Layer relu4_3m
I0707 19:33:14.426080 12122 net.cpp:425] relu4_3m <- conv4_3m
I0707 19:33:14.426098 12122 net.cpp:386] relu4_3m -> conv4_3m (in-place)
I0707 19:33:14.426327 12122 net.cpp:141] Setting up relu4_3m
I0707 19:33:14.426337 12122 net.cpp:148] Top shape: 6 512 49 49 (7375872)
I0707 19:33:14.426339 12122 net.cpp:156] Memory required for data: 6863560704
I0707 19:33:14.426343 12122 layer_factory.hpp:77] Creating layer pool4m
I0707 19:33:14.426357 12122 net.cpp:91] Creating Layer pool4m
I0707 19:33:14.426363 12122 net.cpp:425] pool4m <- conv4_3m
I0707 19:33:14.426380 12122 net.cpp:399] pool4m -> pool4m
I0707 19:33:14.426440 12122 net.cpp:141] Setting up pool4m
I0707 19:33:14.426446 12122 net.cpp:148] Top shape: 6 512 25 25 (1920000)
I0707 19:33:14.426450 12122 net.cpp:156] Memory required for data: 6871240704
I0707 19:33:14.426453 12122 layer_factory.hpp:77] Creating layer conv5_1m
I0707 19:33:14.426478 12122 net.cpp:91] Creating Layer conv5_1m
I0707 19:33:14.426482 12122 net.cpp:425] conv5_1m <- pool4m
I0707 19:33:14.426503 12122 net.cpp:399] conv5_1m -> conv5_1m
I0707 19:33:14.431356 12122 net.cpp:141] Setting up conv5_1m
I0707 19:33:14.431377 12122 net.cpp:148] Top shape: 6 512 25 25 (1920000)
I0707 19:33:14.431380 12122 net.cpp:156] Memory required for data: 6878920704
I0707 19:33:14.431399 12122 net.cpp:484] Sharing parameters 'conv5_1_w' owned by layer 'conv5_1n', param index 0
I0707 19:33:14.431409 12122 net.cpp:484] Sharing parameters 'conv5_1_b' owned by layer 'conv5_1n', param index 1
I0707 19:33:14.431416 12122 layer_factory.hpp:77] Creating layer relu5_1m
I0707 19:33:14.431433 12122 net.cpp:91] Creating Layer relu5_1m
I0707 19:33:14.431440 12122 net.cpp:425] relu5_1m <- conv5_1m
I0707 19:33:14.431458 12122 net.cpp:386] relu5_1m -> conv5_1m (in-place)
I0707 19:33:14.431596 12122 net.cpp:141] Setting up relu5_1m
I0707 19:33:14.431603 12122 net.cpp:148] Top shape: 6 512 25 25 (1920000)
I0707 19:33:14.431607 12122 net.cpp:156] Memory required for data: 6886600704
I0707 19:33:14.431610 12122 layer_factory.hpp:77] Creating layer conv5_2m
I0707 19:33:14.431638 12122 net.cpp:91] Creating Layer conv5_2m
I0707 19:33:14.431659 12122 net.cpp:425] conv5_2m <- conv5_1m
I0707 19:33:14.431684 12122 net.cpp:399] conv5_2m -> conv5_2m
I0707 19:33:14.435535 12122 net.cpp:141] Setting up conv5_2m
I0707 19:33:14.435570 12122 net.cpp:148] Top shape: 6 512 25 25 (1920000)
I0707 19:33:14.435573 12122 net.cpp:156] Memory required for data: 6894280704
I0707 19:33:14.435583 12122 net.cpp:484] Sharing parameters 'conv5_2_w' owned by layer 'conv5_2n', param index 0
I0707 19:33:14.435592 12122 net.cpp:484] Sharing parameters 'conv5_2_b' owned by layer 'conv5_2n', param index 1
I0707 19:33:14.435597 12122 layer_factory.hpp:77] Creating layer relu5_2m
I0707 19:33:14.435621 12122 net.cpp:91] Creating Layer relu5_2m
I0707 19:33:14.435631 12122 net.cpp:425] relu5_2m <- conv5_2m
I0707 19:33:14.435659 12122 net.cpp:386] relu5_2m -> conv5_2m (in-place)
I0707 19:33:14.435816 12122 net.cpp:141] Setting up relu5_2m
I0707 19:33:14.435823 12122 net.cpp:148] Top shape: 6 512 25 25 (1920000)
I0707 19:33:14.435827 12122 net.cpp:156] Memory required for data: 6901960704
I0707 19:33:14.435829 12122 layer_factory.hpp:77] Creating layer conv5_3m
I0707 19:33:14.435873 12122 net.cpp:91] Creating Layer conv5_3m
I0707 19:33:14.435878 12122 net.cpp:425] conv5_3m <- conv5_2m
I0707 19:33:14.435910 12122 net.cpp:399] conv5_3m -> conv5_3m
I0707 19:33:14.440568 12122 net.cpp:141] Setting up conv5_3m
I0707 19:33:14.440603 12122 net.cpp:148] Top shape: 6 512 37 37 (4205568)
I0707 19:33:14.440606 12122 net.cpp:156] Memory required for data: 6918782976
I0707 19:33:14.440616 12122 net.cpp:484] Sharing parameters 'conv5_3_w' owned by layer 'conv5_3n', param index 0
I0707 19:33:14.440625 12122 net.cpp:484] Sharing parameters 'conv5_3_b' owned by layer 'conv5_3n', param index 1
I0707 19:33:14.440631 12122 layer_factory.hpp:77] Creating layer relu5_3m
I0707 19:33:14.440678 12122 net.cpp:91] Creating Layer relu5_3m
I0707 19:33:14.440687 12122 net.cpp:425] relu5_3m <- conv5_3m
I0707 19:33:14.440711 12122 net.cpp:386] relu5_3m -> conv5_3m (in-place)
I0707 19:33:14.441066 12122 net.cpp:141] Setting up relu5_3m
I0707 19:33:14.441074 12122 net.cpp:148] Top shape: 6 512 37 37 (4205568)
I0707 19:33:14.441077 12122 net.cpp:156] Memory required for data: 6935605248
I0707 19:33:14.441084 12122 layer_factory.hpp:77] Creating layer pool5m
I0707 19:33:14.441103 12122 net.cpp:91] Creating Layer pool5m
I0707 19:33:14.441107 12122 net.cpp:425] pool5m <- conv5_3m
I0707 19:33:14.441129 12122 net.cpp:399] pool5m -> pool5m
I0707 19:33:14.441190 12122 net.cpp:141] Setting up pool5m
I0707 19:33:14.441196 12122 net.cpp:148] Top shape: 6 512 19 19 (1108992)
I0707 19:33:14.441200 12122 net.cpp:156] Memory required for data: 6940041216
I0707 19:33:14.441203 12122 layer_factory.hpp:77] Creating layer silence_cur
I0707 19:33:14.441218 12122 net.cpp:91] Creating Layer silence_cur
I0707 19:33:14.441223 12122 net.cpp:425] silence_cur <- cur_im
I0707 19:33:14.441234 12122 net.cpp:141] Setting up silence_cur
I0707 19:33:14.441238 12122 net.cpp:156] Memory required for data: 6940041216
I0707 19:33:14.441241 12122 layer_factory.hpp:77] Creating layer concat1
I0707 19:33:14.441257 12122 net.cpp:91] Creating Layer concat1
I0707 19:33:14.441262 12122 net.cpp:425] concat1 <- pool5m
I0707 19:33:14.441272 12122 net.cpp:425] concat1 <- pool5n
I0707 19:33:14.441293 12122 net.cpp:399] concat1 -> concat1
I0707 19:33:14.441321 12122 net.cpp:141] Setting up concat1
I0707 19:33:14.441328 12122 net.cpp:148] Top shape: 6 1024 19 19 (2217984)
I0707 19:33:14.441331 12122 net.cpp:156] Memory required for data: 6948913152
I0707 19:33:14.441336 12122 layer_factory.hpp:77] Creating layer fc6
I0707 19:33:14.441354 12122 net.cpp:91] Creating Layer fc6
I0707 19:33:14.441359 12122 net.cpp:425] fc6 <- concat1
I0707 19:33:14.441380 12122 net.cpp:399] fc6 -> fc6
/usr/local/lib/python2.7/dist-packages/skimage/util/dtype.py:111: UserWarning: Possible precision loss when converting from float64 to uint8
  "%s to %s" % (dtypeobj_in, dtypeobj))
/usr/local/lib/python2.7/dist-packages/skimage/util/dtype.py:111: UserWarning: Possible precision loss when converting from float64 to uint8
  "%s to %s" % (dtypeobj_in, dtypeobj))
I0707 19:33:14.712074 12122 net.cpp:141] Setting up fc6
I0707 19:33:14.712090 12122 net.cpp:148] Top shape: 6 4096 13 13 (4153344)
I0707 19:33:14.712095 12122 net.cpp:156] Memory required for data: 6965526528
I0707 19:33:14.712106 12122 layer_factory.hpp:77] Creating layer relu6
I0707 19:33:14.712146 12122 net.cpp:91] Creating Layer relu6
I0707 19:33:14.712152 12122 net.cpp:425] relu6 <- fc6
I0707 19:33:14.712170 12122 net.cpp:386] relu6 -> fc6 (in-place)
I0707 19:33:14.712318 12122 net.cpp:141] Setting up relu6
I0707 19:33:14.712327 12122 net.cpp:148] Top shape: 6 4096 13 13 (4153344)
I0707 19:33:14.712330 12122 net.cpp:156] Memory required for data: 6982139904
I0707 19:33:14.712334 12122 layer_factory.hpp:77] Creating layer drop6
I0707 19:33:14.712355 12122 net.cpp:91] Creating Layer drop6
I0707 19:33:14.712360 12122 net.cpp:425] drop6 <- fc6
I0707 19:33:14.712384 12122 net.cpp:386] drop6 -> fc6 (in-place)
I0707 19:33:14.712419 12122 net.cpp:141] Setting up drop6
I0707 19:33:14.712424 12122 net.cpp:148] Top shape: 6 4096 13 13 (4153344)
I0707 19:33:14.712427 12122 net.cpp:156] Memory required for data: 6998753280
I0707 19:33:14.712431 12122 layer_factory.hpp:77] Creating layer fc7
I0707 19:33:14.712450 12122 net.cpp:91] Creating Layer fc7
I0707 19:33:14.712455 12122 net.cpp:425] fc7 <- fc6
I0707 19:33:14.712481 12122 net.cpp:399] fc7 -> fc7
I0707 19:33:14.734522 12122 net.cpp:141] Setting up fc7
I0707 19:33:14.734544 12122 net.cpp:148] Top shape: 6 4096 13 13 (4153344)
I0707 19:33:14.734549 12122 net.cpp:156] Memory required for data: 7015366656
I0707 19:33:14.734561 12122 layer_factory.hpp:77] Creating layer relu7
I0707 19:33:14.734581 12122 net.cpp:91] Creating Layer relu7
I0707 19:33:14.734587 12122 net.cpp:425] relu7 <- fc7
I0707 19:33:14.734609 12122 net.cpp:386] relu7 -> fc7 (in-place)
I0707 19:33:14.734760 12122 net.cpp:141] Setting up relu7
I0707 19:33:14.734766 12122 net.cpp:148] Top shape: 6 4096 13 13 (4153344)
I0707 19:33:14.734771 12122 net.cpp:156] Memory required for data: 7031980032
I0707 19:33:14.734773 12122 layer_factory.hpp:77] Creating layer drop7
I0707 19:33:14.734791 12122 net.cpp:91] Creating Layer drop7
I0707 19:33:14.734797 12122 net.cpp:425] drop7 <- fc7
I0707 19:33:14.734817 12122 net.cpp:386] drop7 -> fc7 (in-place)
I0707 19:33:14.734846 12122 net.cpp:141] Setting up drop7
I0707 19:33:14.734853 12122 net.cpp:148] Top shape: 6 4096 13 13 (4153344)
I0707 19:33:14.734856 12122 net.cpp:156] Memory required for data: 7048593408
I0707 19:33:14.734859 12122 layer_factory.hpp:77] Creating layer score_fc
I0707 19:33:14.734889 12122 net.cpp:91] Creating Layer score_fc
I0707 19:33:14.734894 12122 net.cpp:425] score_fc <- fc7
I0707 19:33:14.734915 12122 net.cpp:399] score_fc -> score_fc
I0707 19:33:14.735891 12122 net.cpp:141] Setting up score_fc
I0707 19:33:14.735901 12122 net.cpp:148] Top shape: 6 21 13 13 (21294)
I0707 19:33:14.735906 12122 net.cpp:156] Memory required for data: 7048678584
I0707 19:33:14.735916 12122 layer_factory.hpp:77] Creating layer upscore2
I0707 19:33:14.735949 12122 net.cpp:91] Creating Layer upscore2
I0707 19:33:14.735954 12122 net.cpp:425] upscore2 <- score_fc
I0707 19:33:14.735975 12122 net.cpp:399] upscore2 -> upscore2
I0707 19:33:14.736284 12122 net.cpp:141] Setting up upscore2
I0707 19:33:14.736291 12122 net.cpp:148] Top shape: 6 21 28 28 (98784)
I0707 19:33:14.736295 12122 net.cpp:156] Memory required for data: 7049073720
I0707 19:33:14.736310 12122 layer_factory.hpp:77] Creating layer upscore2_upscore2_0_split
I0707 19:33:14.736328 12122 net.cpp:91] Creating Layer upscore2_upscore2_0_split
I0707 19:33:14.736332 12122 net.cpp:425] upscore2_upscore2_0_split <- upscore2
I0707 19:33:14.736353 12122 net.cpp:399] upscore2_upscore2_0_split -> upscore2_upscore2_0_split_0
I0707 19:33:14.736377 12122 net.cpp:399] upscore2_upscore2_0_split -> upscore2_upscore2_0_split_1
I0707 19:33:14.736418 12122 net.cpp:141] Setting up upscore2_upscore2_0_split
I0707 19:33:14.736425 12122 net.cpp:148] Top shape: 6 21 28 28 (98784)
I0707 19:33:14.736429 12122 net.cpp:148] Top shape: 6 21 28 28 (98784)
I0707 19:33:14.736433 12122 net.cpp:156] Memory required for data: 7049863992
I0707 19:33:14.736436 12122 layer_factory.hpp:77] Creating layer score_pool4
I0707 19:33:14.736456 12122 net.cpp:91] Creating Layer score_pool4
I0707 19:33:14.736460 12122 net.cpp:425] score_pool4 <- pool4n_pool4n_0_split_1
I0707 19:33:14.736492 12122 net.cpp:399] score_pool4 -> score_pool4
I0707 19:33:14.737414 12122 net.cpp:141] Setting up score_pool4
I0707 19:33:14.737423 12122 net.cpp:148] Top shape: 6 21 37 37 (172494)
I0707 19:33:14.737427 12122 net.cpp:156] Memory required for data: 7050553968
I0707 19:33:14.737439 12122 layer_factory.hpp:77] Creating layer score_pool4c
I0707 19:33:14.737457 12122 net.cpp:91] Creating Layer score_pool4c
I0707 19:33:14.737462 12122 net.cpp:425] score_pool4c <- score_pool4
I0707 19:33:14.737471 12122 net.cpp:425] score_pool4c <- upscore2_upscore2_0_split_0
I0707 19:33:14.737486 12122 net.cpp:399] score_pool4c -> score_pool4c
I0707 19:33:14.737524 12122 net.cpp:141] Setting up score_pool4c
I0707 19:33:14.737530 12122 net.cpp:148] Top shape: 6 21 28 28 (98784)
I0707 19:33:14.737534 12122 net.cpp:156] Memory required for data: 7050949104
I0707 19:33:14.737536 12122 layer_factory.hpp:77] Creating layer fuse_pool4
I0707 19:33:14.737548 12122 net.cpp:91] Creating Layer fuse_pool4
I0707 19:33:14.737552 12122 net.cpp:425] fuse_pool4 <- upscore2_upscore2_0_split_1
I0707 19:33:14.737560 12122 net.cpp:425] fuse_pool4 <- score_pool4c
I0707 19:33:14.737583 12122 net.cpp:399] fuse_pool4 -> fuse_pool4
I0707 19:33:14.737612 12122 net.cpp:141] Setting up fuse_pool4
I0707 19:33:14.737618 12122 net.cpp:148] Top shape: 6 21 28 28 (98784)
I0707 19:33:14.737622 12122 net.cpp:156] Memory required for data: 7051344240
I0707 19:33:14.737627 12122 layer_factory.hpp:77] Creating layer upscore_pool4
I0707 19:33:14.737642 12122 net.cpp:91] Creating Layer upscore_pool4
I0707 19:33:14.737646 12122 net.cpp:425] upscore_pool4 <- fuse_pool4
I0707 19:33:14.737664 12122 net.cpp:399] upscore_pool4 -> upscore_pool4
I0707 19:33:14.737864 12122 net.cpp:141] Setting up upscore_pool4
I0707 19:33:14.737871 12122 net.cpp:148] Top shape: 6 21 58 58 (423864)
I0707 19:33:14.737874 12122 net.cpp:156] Memory required for data: 7053039696
I0707 19:33:14.737881 12122 layer_factory.hpp:77] Creating layer upscore_pool4_upscore_pool4_0_split
I0707 19:33:14.737895 12122 net.cpp:91] Creating Layer upscore_pool4_upscore_pool4_0_split
I0707 19:33:14.737900 12122 net.cpp:425] upscore_pool4_upscore_pool4_0_split <- upscore_pool4
I0707 19:33:14.737917 12122 net.cpp:399] upscore_pool4_upscore_pool4_0_split -> upscore_pool4_upscore_pool4_0_split_0
I0707 19:33:14.737929 12122 net.cpp:399] upscore_pool4_upscore_pool4_0_split -> upscore_pool4_upscore_pool4_0_split_1
I0707 19:33:14.737972 12122 net.cpp:141] Setting up upscore_pool4_upscore_pool4_0_split
I0707 19:33:14.737978 12122 net.cpp:148] Top shape: 6 21 58 58 (423864)
I0707 19:33:14.737982 12122 net.cpp:148] Top shape: 6 21 58 58 (423864)
I0707 19:33:14.737987 12122 net.cpp:156] Memory required for data: 7056430608
I0707 19:33:14.737989 12122 layer_factory.hpp:77] Creating layer score_pool3
I0707 19:33:14.738004 12122 net.cpp:91] Creating Layer score_pool3
I0707 19:33:14.738009 12122 net.cpp:425] score_pool3 <- pool3n_pool3n_0_split_1
I0707 19:33:14.738026 12122 net.cpp:399] score_pool3 -> score_pool3
I0707 19:33:14.738936 12122 net.cpp:141] Setting up score_pool3
I0707 19:33:14.738950 12122 net.cpp:148] Top shape: 6 21 73 73 (671454)
I0707 19:33:14.738955 12122 net.cpp:156] Memory required for data: 7059116424
I0707 19:33:14.738976 12122 layer_factory.hpp:77] Creating layer Crop1
I0707 19:33:14.738991 12122 net.cpp:91] Creating Layer Crop1
I0707 19:33:14.738996 12122 net.cpp:425] Crop1 <- score_pool3
I0707 19:33:14.739006 12122 net.cpp:425] Crop1 <- upscore_pool4_upscore_pool4_0_split_0
I0707 19:33:14.739022 12122 net.cpp:399] Crop1 -> Crop1
I0707 19:33:14.739053 12122 net.cpp:141] Setting up Crop1
I0707 19:33:14.739059 12122 net.cpp:148] Top shape: 6 21 58 58 (423864)
I0707 19:33:14.739063 12122 net.cpp:156] Memory required for data: 7060811880
I0707 19:33:14.739066 12122 layer_factory.hpp:77] Creating layer fuse_pool3
I0707 19:33:14.739084 12122 net.cpp:91] Creating Layer fuse_pool3
I0707 19:33:14.739087 12122 net.cpp:425] fuse_pool3 <- upscore_pool4_upscore_pool4_0_split_1
I0707 19:33:14.739096 12122 net.cpp:425] fuse_pool3 <- Crop1
I0707 19:33:14.739125 12122 net.cpp:399] fuse_pool3 -> fuse_pool3
I0707 19:33:14.739151 12122 net.cpp:141] Setting up fuse_pool3
I0707 19:33:14.739157 12122 net.cpp:148] Top shape: 6 21 58 58 (423864)
I0707 19:33:14.739161 12122 net.cpp:156] Memory required for data: 7062507336
I0707 19:33:14.739163 12122 layer_factory.hpp:77] Creating layer upscore8
I0707 19:33:14.739181 12122 net.cpp:91] Creating Layer upscore8
I0707 19:33:14.739186 12122 net.cpp:425] upscore8 <- fuse_pool3
I0707 19:33:14.739203 12122 net.cpp:399] upscore8 -> upscore8
I0707 19:33:14.739696 12122 net.cpp:141] Setting up upscore8
I0707 19:33:14.739706 12122 net.cpp:148] Top shape: 6 21 472 472 (28070784)
I0707 19:33:14.739708 12122 net.cpp:156] Memory required for data: 7174790472
I0707 19:33:14.739722 12122 layer_factory.hpp:77] Creating layer score_pool3c
I0707 19:33:14.739737 12122 net.cpp:91] Creating Layer score_pool3c
I0707 19:33:14.739742 12122 net.cpp:425] score_pool3c <- upscore8
I0707 19:33:14.739751 12122 net.cpp:425] score_pool3c <- next_im_cur_im_2_split_1
I0707 19:33:14.739768 12122 net.cpp:399] score_pool3c -> score_pool3c
I0707 19:33:14.739797 12122 net.cpp:141] Setting up score_pool3c
I0707 19:33:14.739804 12122 net.cpp:148] Top shape: 6 21 384 384 (18579456)
I0707 19:33:14.739806 12122 net.cpp:156] Memory required for data: 7249108296
I0707 19:33:14.739809 12122 layer_factory.hpp:77] Creating layer score
I0707 19:33:14.739825 12122 net.cpp:91] Creating Layer score
I0707 19:33:14.739830 12122 net.cpp:425] score <- score_pool3c
I0707 19:33:14.739845 12122 net.cpp:399] score -> score
I0707 19:33:14.740710 12122 net.cpp:141] Setting up score
I0707 19:33:14.740720 12122 net.cpp:148] Top shape: 6 2 384 384 (1769472)
I0707 19:33:14.740723 12122 net.cpp:156] Memory required for data: 7256186184
I0707 19:33:14.740736 12122 layer_factory.hpp:77] Creating layer loss
I0707 19:33:14.740754 12122 net.cpp:91] Creating Layer loss
I0707 19:33:14.740759 12122 net.cpp:425] loss <- score
I0707 19:33:14.740769 12122 net.cpp:425] loss <- label
I0707 19:33:14.740782 12122 net.cpp:399] loss -> loss
I0707 19:33:14.740803 12122 layer_factory.hpp:77] Creating layer loss
…
