…
I0629 04:23:24.229861  3939 solver.cpp:81] Creating training net from train_net file: train_davis_sequence_simple.prototxt
I0629 04:23:24.231727  3939 net.cpp:49] Initializing net from parameters: 
state {
  phase: TRAIN
}
layer {
  name: "cur_im"
  type: "Python"
  top: "cur_im"
  top: "masked_im"
  top: "next_im"
  top: "label"
  python_param {
    module: "davis_datalayer_server"
    layer: "DavisDataLayerServer"
    param_str: "{\'shuffle\': True, \'im_shape\': (384, 384), \'batch_size\': 4, \'max_len\': 10, \'split\': \'training\', \'port\': \'6678\'}"
  }
}
layer {
  name: "conv1_1c"
  type: "Convolution"
  bottom: "cur_im"
  top: "conv1_1c"
  param {
    name: "conv1_1_w"
    lr_mult: 1
    decay_mult: 1
  }
  param {
    name: "conv1_1_b"
    lr_mult: 2
    decay_mult: 0
  }
  convolution_param {
    num_output: 64
    pad: 101
    kernel_size: 3
  }
}
layer {
  name: "relu1_1c"
  type: "ReLU"
  bottom: "conv1_1c"
  top: "conv1_1c"
}
layer {
  name: "conv1_2c"
  type: "Convolution"
  bottom: "conv1_1c"
  top: "conv1_2c"
  param {
    name: "conv1_2_w"
    lr_mult: 1
    decay_mult: 1
  }
  param {
    name: "conv1_2_b"
    lr_mult: 2
    decay_mult: 0
  }
  convolution_param {
    num_output: 64
    pad: 1
    kernel_size: 3
  }
}
layer {
  name: "relu1_2c"
  type: "ReLU"
  bottom: "conv1_2c"
  top: "conv1_2c"
}
layer {
  name: "pool1c"
  type: "Pooling"
  bottom: "conv1_2c"
  top: "pool1c"
  pooling_param {
    pool: MAX
    kernel_size: 2
    stride: 2
  }
}
layer {
  name: "conv2_1c"
  type: "Convolution"
  bottom: "pool1c"
  top: "conv2_1c"
  param {
    name: "conv2_1_w"
    lr_mult: 1
    decay_mult: 1
  }
  param {
    name: "conv2_1_b"
    lr_mult: 2
    decay_mult: 0
  }
  convolution_param {
    num_output: 128
    pad: 1
    kernel_size: 3
  }
}
layer {
  name: "relu2_1c"
  type: "ReLU"
  bottom: "conv2_1c"
  top: "conv2_1c"
}
layer {
  name: "conv2_2c"
  type: "Convolution"
  bottom: "conv2_1c"
  top: "conv2_2c"
  param {
    name: "conv2_2_w"
    lr_mult: 1
    decay_mult: 1
  }
  param {
    name: "conv2_2_b"
    lr_mult: 2
    decay_mult: 0
  }
  convolution_param {
    num_output: 128
    pad: 1
    kernel_size: 3
  }
}
layer {
  name: "relu2_2c"
  type: "ReLU"
  bottom: "conv2_2c"
  top: "conv2_2c"
}
layer {
  name: "pool2c"
  type: "Pooling"
  bottom: "conv2_2c"
  top: "pool2c"
  pooling_param {
    pool: MAX
    kernel_size: 2
    stride: 2
  }
}
layer {
  name: "conv3_1c"
  type: "Convolution"
  bottom: "pool2c"
  top: "conv3_1c"
  param {
    name: "conv3_1_w"
    lr_mult: 1
    decay_mult: 1
  }
  param {
    name: "conv3_1_b"
    lr_mult: 2
    decay_mult: 0
  }
  convolution_param {
    num_output: 256
    pad: 1
    kernel_size: 3
  }
}
layer {
  name: "relu3_1c"
  type: "ReLU"
  bottom: "conv3_1c"
  top: "conv3_1c"
}
layer {
  name: "conv3_2c"
  type: "Convolution"
  bottom: "conv3_1c"
  top: "conv3_2c"
  param {
    name: "conv3_2_w"
    lr_mult: 1
    decay_mult: 1
  }
  param {
    name: "conv3_2_b"
    lr_mult: 2
    decay_mult: 0
  }
  convolution_param {
    num_output: 256
    pad: 1
    kernel_size: 3
  }
}
layer {
  name: "relu3_2c"
  type: "ReLU"
  bottom: "conv3_2c"
  top: "conv3_2c"
}
layer {
  name: "conv3_3c"
  type: "Convolution"
  bottom: "conv3_2c"
  top: "conv3_3c"
  param {
    name: "conv3_3_w"
    lr_mult: 1
    decay_mult: 1
  }
  param {
    name: "conv3_3_b"
    lr_mult: 2
    decay_mult: 0
  }
  convolution_param {
    num_output: 256
    pad: 1
    kernel_size: 3
  }
}
layer {
  name: "relu3_3c"
  type: "ReLU"
  bottom: "conv3_3c"
  top: "conv3_3c"
}
layer {
  name: "pool3c"
  type: "Pooling"
  bottom: "conv3_3c"
  top: "pool3c"
  pooling_param {
    pool: MAX
    kernel_size: 2
    stride: 2
  }
}
layer {
  name: "conv4_1c"
  type: "Convolution"
  bottom: "pool3c"
  top: "conv4_1c"
  param {
    name: "conv4_1_w"
    lr_mult: 1
    decay_mult: 1
  }
  param {
    name: "conv4_1_b"
    lr_mult: 2
    decay_mult: 0
  }
  convolution_param {
    num_output: 512
    pad: 1
    kernel_size: 3
  }
}
layer {
  name: "relu4_1c"
  type: "ReLU"
  bottom: "conv4_1c"
  top: "conv4_1c"
}
layer {
  name: "conv4_2c"
  type: "Convolution"
  bottom: "conv4_1c"
  top: "conv4_2c"
  param {
    name: "conv4_2_w"
    lr_mult: 1
    decay_mult: 1
  }
  param {
    name: "conv4_2_b"
    lr_mult: 2
    decay_mult: 0
  }
  convolution_param {
    num_output: 512
    pad: 1
    kernel_size: 3
  }
}
layer {
  name: "relu4_2c"
  type: "ReLU"
  bottom: "conv4_2c"
  top: "conv4_2c"
}
layer {
  name: "conv4_3c"
  type: "Convolution"
  bottom: "conv4_2c"
  top: "conv4_3c"
  param {
    name: "conv4_3_w"
    lr_mult: 1
    decay_mult: 1
  }
  param {
    name: "conv4_3_b"
    lr_mult: 2
    decay_mult: 0
  }
  convolution_param {
    num_output: 512
    pad: 1
    kernel_size: 3
  }
}
layer {
  name: "relu4_3c"
  type: "ReLU"
  bottom: "conv4_3c"
  top: "conv4_3c"
}
layer {
  name: "conv5_1c"
  type: "Convolution"
  bottom: "conv4_3c"
  top: "conv5_1c"
  param {
    name: "conv5_1_w"
    lr_mult: 1
    decay_mult: 1
  }
  param {
    name: "conv5_1_b"
    lr_mult: 2
    decay_mult: 0
  }
  convolution_param {
    num_output: 512
    pad: 2
    kernel_size: 3
    dilation: 2
  }
}
layer {
  name: "relu5_1c"
  type: "ReLU"
  bottom: "conv5_1c"
  top: "conv5_1c"
}
layer {
  name: "conv5_2c"
  type: "Convolution"
  bottom: "conv5_1c"
  top: "conv5_2c"
  param {
    name: "conv5_2_w"
    lr_mult: 1
    decay_mult: 1
  }
  param {
    name: "conv5_2_b"
    lr_mult: 2
    decay_mult: 0
  }
  convolution_param {
    num_output: 512
    pad: 2
    kernel_size: 3
    dilation: 2
  }
}
layer {
  name: "relu5_2c"
  type: "ReLU"
  bottom: "conv5_2c"
  top: "conv5_2c"
}
layer {
  name: "conv5_3c"
  type: "Convolution"
  bottom: "conv5_2c"
  top: "conv5_3c"
  param {
    name: "conv5_3_w"
    lr_mult: 1
    decay_mult: 1
  }
  param {
    name: "conv5_3_b"
    lr_mult: 2
    decay_mult: 0
  }
  convolution_param {
    num_output: 512
    kernel_size: 3
    pad_h: 14
    pad_w: 14
    dilation: 2
  }
}
layer {
  name: "relu5_3c"
  type: "ReLU"
  bottom: "conv5_3c"
  top: "conv5_3c"
}
layer {
  name: "conv1_1m"
  type: "Convolution"
  bottom: "masked_im"
  top: "conv1_1m"
  param {
    name: "conv1_1_w"
    lr_mult: 1
    decay_mult: 1
  }
  param {
    name: "conv1_1_b"
    lr_mult: 2
    decay_mult: 0
  }
  convolution_param {
    num_output: 64
    pad: 101
    kernel_size: 3
  }
}
layer {
  name: "relu1_1m"
  type: "ReLU"
  bottom: "conv1_1m"
  top: "conv1_1m"
}
layer {
  name: "conv1_2m"
  type: "Convolution"
  bottom: "conv1_1m"
  top: "conv1_2m"
  param {
    name: "conv1_2_w"
    lr_mult: 1
    decay_mult: 1
  }
  param {
    name: "conv1_2_b"
    lr_mult: 2
    decay_mult: 0
  }
  convolution_param {
    num_output: 64
    pad: 1
    kernel_size: 3
  }
}
layer {
  name: "relu1_2m"
  type: "ReLU"
  bottom: "conv1_2m"
  top: "conv1_2m"
}
layer {
  name: "pool1m"
  type: "Pooling"
  bottom: "conv1_2m"
  top: "pool1m"
  pooling_param {
    pool: MAX
    kernel_size: 2
    stride: 2
  }
}
layer {
  name: "conv2_1m"
  type: "Convolution"
  bottom: "pool1m"
  top: "conv2_1m"
  param {
    name: "conv2_1_w"
    lr_mult: 1
    decay_mult: 1
  }
  param {
    name: "conv2_1_b"
    lr_mult: 2
    decay_mult: 0
  }
  convolution_param {
    num_output: 128
    pad: 1
    kernel_size: 3
  }
}
layer {
  name: "relu2_1m"
  type: "ReLU"
  bottom: "conv2_1m"
  top: "conv2_1m"
}
layer {
  name: "conv2_2m"
  type: "Convolution"
  bottom: "conv2_1m"
  top: "conv2_2m"
  param {
    name: "conv2_2_w"
    lr_mult: 1
    decay_mult: 1
  }
  param {
    name: "conv2_2_b"
    lr_mult: 2
    decay_mult: 0
  }
  convolution_param {
    num_output: 128
    pad: 1
    kernel_size: 3
  }
}
layer {
  name: "relu2_2m"
  type: "ReLU"
  bottom: "conv2_2m"
  top: "conv2_2m"
}
layer {
  name: "pool2m"
  type: "Pooling"
  bottom: "conv2_2m"
  top: "pool2m"
  pooling_param {
    pool: MAX
    kernel_size: 2
    stride: 2
  }
}
layer {
  name: "conv3_1m"
  type: "Convolution"
  bottom: "pool2m"
  top: "conv3_1m"
  param {
    name: "conv3_1_w"
    lr_mult: 1
    decay_mult: 1
  }
  param {
    name: "conv3_1_b"
    lr_mult: 2
    decay_mult: 0
  }
  convolution_param {
    num_output: 256
    pad: 1
    kernel_size: 3
  }
}
layer {
  name: "relu3_1m"
  type: "ReLU"
  bottom: "conv3_1m"
  top: "conv3_1m"
}
layer {
  name: "conv3_2m"
  type: "Convolution"
  bottom: "conv3_1m"
  top: "conv3_2m"
  param {
    name: "conv3_2_w"
    lr_mult: 1
    decay_mult: 1
  }
  param {
    name: "conv3_2_b"
    lr_mult: 2
    decay_mult: 0
  }
  convolution_param {
    num_output: 256
    pad: 1
    kernel_size: 3
  }
}
layer {
  name: "relu3_2m"
  type: "ReLU"
  bottom: "conv3_2m"
  top: "conv3_2m"
}
layer {
  name: "conv3_3m"
  type: "Convolution"
  bottom: "conv3_2m"
  top: "conv3_3m"
  param {
    name: "conv3_3_w"
    lr_mult: 1
    decay_mult: 1
  }
  param {
    name: "conv3_3_b"
    lr_mult: 2
    decay_mult: 0
  }
  convolution_param {
    num_output: 256
    pad: 1
    kernel_size: 3
  }
}
layer {
  name: "relu3_3m"
  type: "ReLU"
  bottom: "conv3_3m"
  top: "conv3_3m"
}
layer {
  name: "pool3m"
  type: "Pooling"
  bottom: "conv3_3m"
  top: "pool3m"
  pooling_param {
    pool: MAX
    kernel_size: 2
    stride: 2
  }
}
layer {
  name: "conv4_1m"
  type: "Convolution"
  bottom: "pool3m"
  top: "conv4_1m"
  param {
    name: "conv4_1_w"
    lr_mult: 1
    decay_mult: 1
  }
  param {
    name: "conv4_1_b"
    lr_mult: 2
    decay_mult: 0
  }
  convolution_param {
    num_output: 512
    pad: 1
    kernel_size: 3
  }
}
layer {
  name: "relu4_1m"
  type: "ReLU"
  bottom: "conv4_1m"
  top: "conv4_1m"
}
layer {
  name: "conv4_2m"
  type: "Convolution"
  bottom: "conv4_1m"
  top: "conv4_2m"
  param {
    name: "conv4_2_w"
    lr_mult: 1
    decay_mult: 1
  }
  param {
    name: "conv4_2_b"
    lr_mult: 2
    decay_mult: 0
  }
  convolution_param {
    num_output: 512
    pad: 1
    kernel_size: 3
  }
}
layer {
  name: "relu4_2m"
  type: "ReLU"
  bottom: "conv4_2m"
  top: "conv4_2m"
}
layer {
  name: "conv4_3m"
  type: "Convolution"
  bottom: "conv4_2m"
  top: "conv4_3m"
  param {
    name: "conv4_3_w"
    lr_mult: 1
    decay_mult: 1
  }
  param {
    name: "conv4_3_b"
    lr_mult: 2
    decay_mult: 0
  }
  convolution_param {
    num_output: 512
    pad: 1
    kernel_size: 3
  }
}
layer {
  name: "relu4_3m"
  type: "ReLU"
  bottom: "conv4_3m"
  top: "conv4_3m"
}
layer {
  name: "conv5_1m"
  type: "Convolution"
  bottom: "conv4_3m"
  top: "conv5_1m"
  param {
    name: "conv5_1_w"
    lr_mult: 1
    decay_mult: 1
  }
  param {
    name: "conv5_1_b"
    lr_mult: 2
    decay_mult: 0
  }
  convolution_param {
    num_output: 512
    pad: 2
    kernel_size: 3
    dilation: 2
  }
}
layer {
  name: "relu5_1m"
  type: "ReLU"
  bottom: "conv5_1m"
  top: "conv5_1m"
}
layer {
  name: "conv5_2m"
  type: "Convolution"
  bottom: "conv5_1m"
  top: "conv5_2m"
  param {
    name: "conv5_2_w"
    lr_mult: 1
    decay_mult: 1
  }
  param {
    name: "conv5_2_b"
    lr_mult: 2
    decay_mult: 0
  }
  convolution_param {
    num_output: 512
    pad: 2
    kernel_size: 3
    dilation: 2
  }
}
layer {
  name: "relu5_2m"
  type: "ReLU"
  bottom: "conv5_2m"
  top: "conv5_2m"
}
layer {
  name: "conv5_3m"
  type: "Convolution"
  bottom: "conv5_2m"
  top: "conv5_3m"
  param {
    name: "conv5_3_w"
    lr_mult: 1
    decay_mult: 1
  }
  param {
    name: "conv5_3_b"
    lr_mult: 2
    decay_mult: 0
  }
  convolution_param {
    num_output: 512
    kernel_size: 3
    pad_h: 14
    pad_w: 14
    dilation: 2
  }
}
layer {
  name: "relu5_3m"
  type: "ReLU"
  bottom: "conv5_3m"
  top: "conv5_3m"
}
layer {
  name: "conv1_1n"
  type: "Convolution"
  bottom: "next_im"
  top: "conv1_1n"
  param {
    name: "conv1_1_w"
    lr_mult: 1
    decay_mult: 1
  }
  param {
    name: "conv1_1_b"
    lr_mult: 2
    decay_mult: 0
  }
  convolution_param {
    num_output: 64
    pad: 101
    kernel_size: 3
  }
}
layer {
  name: "relu1_1n"
  type: "ReLU"
  bottom: "conv1_1n"
  top: "conv1_1n"
}
layer {
  name: "conv1_2n"
  type: "Convolution"
  bottom: "conv1_1n"
  top: "conv1_2n"
  param {
    name: "conv1_2_w"
    lr_mult: 1
    decay_mult: 1
  }
  param {
    name: "conv1_2_b"
    lr_mult: 2
    decay_mult: 0
  }
  convolution_param {
    num_output: 64
    pad: 1
    kernel_size: 3
  }
}
layer {
  name: "relu1_2n"
  type: "ReLU"
  bottom: "conv1_2n"
  top: "conv1_2n"
}
layer {
  name: "pool1n"
  type: "Pooling"
  bottom: "conv1_2n"
  top: "pool1n"
  pooling_param {
    pool: MAX
    kernel_size: 2
    stride: 2
  }
}
layer {
  name: "conv2_1n"
  type: "Convolution"
  bottom: "pool1n"
  top: "conv2_1n"
  param {
    name: "conv2_1_w"
    lr_mult: 1
    decay_mult: 1
  }
  param {
    name: "conv2_1_b"
    lr_mult: 2
    decay_mult: 0
  }
  convolution_param {
    num_output: 128
    pad: 1
    kernel_size: 3
  }
}
layer {
  name: "relu2_1n"
  type: "ReLU"
  bottom: "conv2_1n"
  top: "conv2_1n"
}
layer {
  name: "conv2_2n"
  type: "Convolution"
  bottom: "conv2_1n"
  top: "conv2_2n"
  param {
    name: "conv2_2_w"
    lr_mult: 1
    decay_mult: 1
  }
  param {
    name: "conv2_2_b"
    lr_mult: 2
    decay_mult: 0
  }
  convolution_param {
    num_output: 128
    pad: 1
    kernel_size: 3
  }
}
layer {
  name: "relu2_2n"
  type: "ReLU"
  bottom: "conv2_2n"
  top: "conv2_2n"
}
layer {
  name: "pool2n"
  type: "Pooling"
  bottom: "conv2_2n"
  top: "pool2n"
  pooling_param {
    pool: MAX
    kernel_size: 2
    stride: 2
  }
}
layer {
  name: "conv3_1n"
  type: "Convolution"
  bottom: "pool2n"
  top: "conv3_1n"
  param {
    name: "conv3_1_w"
    lr_mult: 1
    decay_mult: 1
  }
  param {
    name: "conv3_1_b"
    lr_mult: 2
    decay_mult: 0
  }
  convolution_param {
    num_output: 256
    pad: 1
    kernel_size: 3
  }
}
layer {
  name: "relu3_1n"
  type: "ReLU"
  bottom: "conv3_1n"
  top: "conv3_1n"
}
layer {
  name: "conv3_2n"
  type: "Convolution"
  bottom: "conv3_1n"
  top: "conv3_2n"
  param {
    name: "conv3_2_w"
    lr_mult: 1
    decay_mult: 1
  }
  param {
    name: "conv3_2_b"
    lr_mult: 2
    decay_mult: 0
  }
  convolution_param {
    num_output: 256
    pad: 1
    kernel_size: 3
  }
}
layer {
  name: "relu3_2n"
  type: "ReLU"
  bottom: "conv3_2n"
  top: "conv3_2n"
}
layer {
  name: "conv3_3n"
  type: "Convolution"
  bottom: "conv3_2n"
  top: "conv3_3n"
  param {
    name: "conv3_3_w"
    lr_mult: 1
    decay_mult: 1
  }
  param {
    name: "conv3_3_b"
    lr_mult: 2
    decay_mult: 0
  }
  convolution_param {
    num_output: 256
    pad: 1
    kernel_size: 3
  }
}
layer {
  name: "relu3_3n"
  type: "ReLU"
  bottom: "conv3_3n"
  top: "conv3_3n"
}
layer {
  name: "pool3n"
  type: "Pooling"
  bottom: "conv3_3n"
  top: "pool3n"
  pooling_param {
    pool: MAX
    kernel_size: 2
    stride: 2
  }
}
layer {
  name: "conv4_1n"
  type: "Convolution"
  bottom: "pool3n"
  top: "conv4_1n"
  param {
    name: "conv4_1_w"
    lr_mult: 1
    decay_mult: 1
  }
  param {
    name: "conv4_1_b"
    lr_mult: 2
    decay_mult: 0
  }
  convolution_param {
    num_output: 512
    pad: 1
    kernel_size: 3
  }
}
layer {
  name: "relu4_1n"
  type: "ReLU"
  bottom: "conv4_1n"
  top: "conv4_1n"
}
layer {
  name: "conv4_2n"
  type: "Convolution"
  bottom: "conv4_1n"
  top: "conv4_2n"
  param {
    name: "conv4_2_w"
    lr_mult: 1
    decay_mult: 1
  }
  param {
    name: "conv4_2_b"
    lr_mult: 2
    decay_mult: 0
  }
  convolution_param {
    num_output: 512
    pad: 1
    kernel_size: 3
  }
}
layer {
  name: "relu4_2n"
  type: "ReLU"
  bottom: "conv4_2n"
  top: "conv4_2n"
}
layer {
  name: "conv4_3n"
  type: "Convolution"
  bottom: "conv4_2n"
  top: "conv4_3n"
  param {
    name: "conv4_3_w"
    lr_mult: 1
    decay_mult: 1
  }
  param {
    name: "conv4_3_b"
    lr_mult: 2
    decay_mult: 0
  }
  convolution_param {
    num_output: 512
    pad: 1
    kernel_size: 3
  }
}
layer {
  name: "relu4_3n"
  type: "ReLU"
  bottom: "conv4_3n"
  top: "conv4_3n"
}
layer {
  name: "conv5_1n"
  type: "Convolution"
  bottom: "conv4_3n"
  top: "conv5_1n"
  param {
    name: "conv5_1_w"
    lr_mult: 1
    decay_mult: 1
  }
  param {
    name: "conv5_1_b"
    lr_mult: 2
    decay_mult: 0
  }
  convolution_param {
    num_output: 512
    pad: 2
    kernel_size: 3
    dilation: 2
  }
}
layer {
  name: "relu5_1n"
  type: "ReLU"
  bottom: "conv5_1n"
  top: "conv5_1n"
}
layer {
  name: "conv5_2n"
  type: "Convolution"
  bottom: "conv5_1n"
  top: "conv5_2n"
  param {
    name: "conv5_2_w"
    lr_mult: 1
    decay_mult: 1
  }
  param {
    name: "conv5_2_b"
    lr_mult: 2
    decay_mult: 0
  }
  convolution_param {
    num_output: 512
    pad: 2
    kernel_size: 3
    dilation: 2
  }
}
layer {
  name: "relu5_2n"
  type: "ReLU"
  bottom: "conv5_2n"
  top: "conv5_2n"
}
layer {
  name: "conv5_3n"
  type: "Convolution"
  bottom: "conv5_2n"
  top: "conv5_3n"
  param {
    name: "conv5_3_w"
    lr_mult: 1
    decay_mult: 1
  }
  param {
    name: "conv5_3_b"
    lr_mult: 2
    decay_mult: 0
  }
  convolution_param {
    num_output: 512
    pad: 2
    kernel_size: 3
    dilation: 2
  }
}
layer {
  name: "relu5_3n"
  type: "ReLU"
  bottom: "conv5_3n"
  top: "conv5_3n"
}
layer {
  name: "concat1"
  type: "Concat"
  bottom: "conv5_3c"
  bottom: "conv5_3m"
  bottom: "conv5_3n"
  top: "concat1"
}
layer {
  name: "fc6"
  type: "Convolution"
  bottom: "concat1"
  top: "fc6"
  param {
    lr_mult: 1
    decay_mult: 1
  }
  param {
    lr_mult: 2
    decay_mult: 0
  }
  convolution_param {
    num_output: 1024
    kernel_size: 7
    dilation: 4
  }
}
layer {
  name: "relu6"
  type: "ReLU"
  bottom: "fc6"
  top: "fc6"
}
layer {
  name: "drop6"
  type: "Dropout"
  bottom: "fc6"
  top: "fc6"
  dropout_param {
    dropout_ratio: 0.5
  }
}
layer {
  name: "fc7"
  type: "Convolution"
  bottom: "fc6"
  top: "fc7"
  param {
    lr_mult: 1
    decay_mult: 1
  }
  param {
    lr_mult: 2
    decay_mult: 0
  }
  convolution_param {
    num_output: 1024
    kernel_size: 1
  }
}
layer {
  name: "relu7"
  type: "ReLU"
  bottom: "fc7"
  top: "fc7"
}
layer {
  name: "drop7"
  type: "Dropout"
  bottom: "fc7"
  top: "fc7"
  dropout_param {
    dropout_ratio: 0.5
  }
}
layer {
  name: "fc8"
  type: "Convolution"
  bottom: "fc7"
  top: "fc8"
  param {
    lr_mult: 1
    decay_mult: 1
  }
  param {
    lr_mult: 2
    decay_mult: 0
  }
  convolution_param {
    num_output: 2
    kernel_size: 1
  }
}
layer {
  name: "upscore"
  type: "Deconvolution"
  bottom: "fc8"
  top: "upscore"
  param {
    lr_mult: 0
    decay_mult: 0
  }
  convolution_param {
    num_output: 2
    bias_term: false
    kernel_size: 16
    group: 2
    stride: 8
    weight_filler {
      type: "bilinear"
    }
  }
}
layer {
  name: "score"
  type: "Crop"
  bottom: "upscore"
  bottom: "next_im"
  top: "score"
  crop_param {
    axis: 2
    offset: 8
  }
}
layer {
  name: "loss"
  type: "SoftmaxWithLoss"
  bottom: "score"
  bottom: "label"
  top: "loss"
  loss_param {
    ignore_label: 255
  }
}
layer {
  name: "clinet_top"
  type: "Python"
  bottom: "score"
  top: "clinet_top"
  python_param {
    module: "davis_datalayer_client"
    layer: "DavisDataLayerClient"
    param_str: "{\'port\': \'6678\'}"
  }
}
I0629 04:23:24.232038  3939 layer_factory.hpp:77] Creating layer cur_im
/home/amir/davis/python/lib/davis/measures/t_stability.py:6: RuntimeWarning: to-Python converter for std::vector<bool, std::allocator<bool> > already registered; second conversion method ignored.
  from tstab import *
I0629 04:23:24.811252  3939 net.cpp:91] Creating Layer cur_im
I0629 04:23:24.811283  3939 net.cpp:399] cur_im -> cur_im
I0629 04:23:24.811298  3939 net.cpp:399] cur_im -> masked_im
I0629 04:23:24.811305  3939 net.cpp:399] cur_im -> next_im
I0629 04:23:24.811311  3939 net.cpp:399] cur_im -> label
I0629 04:23:24.857534  3939 net.cpp:141] Setting up cur_im
I0629 04:23:24.857571  3939 net.cpp:148] Top shape: 4 3 192 192 (442368)
I0629 04:23:24.857576  3939 net.cpp:148] Top shape: 4 3 192 192 (442368)
I0629 04:23:24.857579  3939 net.cpp:148] Top shape: 4 3 384 384 (1769472)
I0629 04:23:24.857583  3939 net.cpp:148] Top shape: 4 1 384 384 (589824)
I0629 04:23:24.857589  3939 net.cpp:156] Memory required for data: 12976128
I0629 04:23:24.857614  3939 layer_factory.hpp:77] Creating layer next_im_cur_im_2_split
I0629 04:23:24.857647  3939 net.cpp:91] Creating Layer next_im_cur_im_2_split
I0629 04:23:24.857652  3939 net.cpp:425] next_im_cur_im_2_split <- next_im
I0629 04:23:24.857666  3939 net.cpp:399] next_im_cur_im_2_split -> next_im_cur_im_2_split_0
I0629 04:23:24.857674  3939 net.cpp:399] next_im_cur_im_2_split -> next_im_cur_im_2_split_1
I0629 04:23:24.857700  3939 net.cpp:141] Setting up next_im_cur_im_2_split
I0629 04:23:24.857705  3939 net.cpp:148] Top shape: 4 3 384 384 (1769472)
I0629 04:23:24.857708  3939 net.cpp:148] Top shape: 4 3 384 384 (1769472)
I0629 04:23:24.857710  3939 net.cpp:156] Memory required for data: 27131904
I0629 04:23:24.857712  3939 layer_factory.hpp:77] Creating layer conv1_1c
I0629 04:23:24.857725  3939 net.cpp:91] Creating Layer conv1_1c
I0629 04:23:24.857728  3939 net.cpp:425] conv1_1c <- cur_im
I0629 04:23:24.857733  3939 net.cpp:399] conv1_1c -> conv1_1c
/usr/local/lib/python2.7/dist-packages/skimage/transform/_geometric.py:1312: UserWarning: Bi-quadratic interpolation behavior has changed due to a bug in the implementation of scikit-image. The new version now serves as a wrapper around SciPy's interpolation functions, which itself is not verified to be a correct implementation. Until skimage's implementation is fixed, we recommend to use bi-linear or bi-cubic interpolation instead.
  warnings.warn("Bi-quadratic interpolation behavior has changed due "
I0629 04:23:24.979912  3939 net.cpp:141] Setting up conv1_1c
I0629 04:23:24.979933  3939 net.cpp:148] Top shape: 4 64 392 392 (39337984)
I0629 04:23:24.979938  3939 net.cpp:156] Memory required for data: 184483840
I0629 04:23:24.979954  3939 layer_factory.hpp:77] Creating layer relu1_1c
I0629 04:23:24.979964  3939 net.cpp:91] Creating Layer relu1_1c
I0629 04:23:24.979969  3939 net.cpp:425] relu1_1c <- conv1_1c
I0629 04:23:24.979974  3939 net.cpp:386] relu1_1c -> conv1_1c (in-place)
I0629 04:23:24.980129  3939 net.cpp:141] Setting up relu1_1c
I0629 04:23:24.980136  3939 net.cpp:148] Top shape: 4 64 392 392 (39337984)
I0629 04:23:24.980140  3939 net.cpp:156] Memory required for data: 341835776
I0629 04:23:24.980146  3939 layer_factory.hpp:77] Creating layer conv1_2c
I0629 04:23:24.980159  3939 net.cpp:91] Creating Layer conv1_2c
I0629 04:23:24.980161  3939 net.cpp:425] conv1_2c <- conv1_1c
I0629 04:23:24.980170  3939 net.cpp:399] conv1_2c -> conv1_2c
I0629 04:23:24.981678  3939 net.cpp:141] Setting up conv1_2c
I0629 04:23:24.981689  3939 net.cpp:148] Top shape: 4 64 392 392 (39337984)
I0629 04:23:24.981693  3939 net.cpp:156] Memory required for data: 499187712
I0629 04:23:24.981701  3939 layer_factory.hpp:77] Creating layer relu1_2c
I0629 04:23:24.981708  3939 net.cpp:91] Creating Layer relu1_2c
I0629 04:23:24.981710  3939 net.cpp:425] relu1_2c <- conv1_2c
I0629 04:23:24.981715  3939 net.cpp:386] relu1_2c -> conv1_2c (in-place)
I0629 04:23:24.981957  3939 net.cpp:141] Setting up relu1_2c
I0629 04:23:24.981986  3939 net.cpp:148] Top shape: 4 64 392 392 (39337984)
I0629 04:23:24.982000  3939 net.cpp:156] Memory required for data: 656539648
I0629 04:23:24.982013  3939 layer_factory.hpp:77] Creating layer pool1c
I0629 04:23:24.982033  3939 net.cpp:91] Creating Layer pool1c
I0629 04:23:24.982046  3939 net.cpp:425] pool1c <- conv1_2c
I0629 04:23:24.982061  3939 net.cpp:399] pool1c -> pool1c
I0629 04:23:24.982146  3939 net.cpp:141] Setting up pool1c
I0629 04:23:24.982168  3939 net.cpp:148] Top shape: 4 64 196 196 (9834496)
I0629 04:23:24.982184  3939 net.cpp:156] Memory required for data: 695877632
I0629 04:23:24.982200  3939 layer_factory.hpp:77] Creating layer conv2_1c
I0629 04:23:24.982220  3939 net.cpp:91] Creating Layer conv2_1c
I0629 04:23:24.982225  3939 net.cpp:425] conv2_1c <- pool1c
I0629 04:23:24.982231  3939 net.cpp:399] conv2_1c -> conv2_1c
I0629 04:23:24.983448  3939 net.cpp:141] Setting up conv2_1c
I0629 04:23:24.983477  3939 net.cpp:148] Top shape: 4 128 196 196 (19668992)
I0629 04:23:24.983482  3939 net.cpp:156] Memory required for data: 774553600
I0629 04:23:24.983490  3939 layer_factory.hpp:77] Creating layer relu2_1c
I0629 04:23:24.983496  3939 net.cpp:91] Creating Layer relu2_1c
I0629 04:23:24.983500  3939 net.cpp:425] relu2_1c <- conv2_1c
I0629 04:23:24.983505  3939 net.cpp:386] relu2_1c -> conv2_1c (in-place)
I0629 04:23:24.983669  3939 net.cpp:141] Setting up relu2_1c
I0629 04:23:24.983675  3939 net.cpp:148] Top shape: 4 128 196 196 (19668992)
I0629 04:23:24.983698  3939 net.cpp:156] Memory required for data: 853229568
I0629 04:23:24.983701  3939 layer_factory.hpp:77] Creating layer conv2_2c
I0629 04:23:24.983711  3939 net.cpp:91] Creating Layer conv2_2c
I0629 04:23:24.983724  3939 net.cpp:425] conv2_2c <- conv2_1c
I0629 04:23:24.983732  3939 net.cpp:399] conv2_2c -> conv2_2c
I0629 04:23:24.984988  3939 net.cpp:141] Setting up conv2_2c
I0629 04:23:24.985000  3939 net.cpp:148] Top shape: 4 128 196 196 (19668992)
I0629 04:23:24.985003  3939 net.cpp:156] Memory required for data: 931905536
I0629 04:23:24.985009  3939 layer_factory.hpp:77] Creating layer relu2_2c
I0629 04:23:24.985016  3939 net.cpp:91] Creating Layer relu2_2c
I0629 04:23:24.985020  3939 net.cpp:425] relu2_2c <- conv2_2c
I0629 04:23:24.985025  3939 net.cpp:386] relu2_2c -> conv2_2c (in-place)
I0629 04:23:24.985170  3939 net.cpp:141] Setting up relu2_2c
I0629 04:23:24.985178  3939 net.cpp:148] Top shape: 4 128 196 196 (19668992)
I0629 04:23:24.985182  3939 net.cpp:156] Memory required for data: 1010581504
I0629 04:23:24.985184  3939 layer_factory.hpp:77] Creating layer pool2c
I0629 04:23:24.985190  3939 net.cpp:91] Creating Layer pool2c
I0629 04:23:24.985193  3939 net.cpp:425] pool2c <- conv2_2c
I0629 04:23:24.985200  3939 net.cpp:399] pool2c -> pool2c
I0629 04:23:24.985241  3939 net.cpp:141] Setting up pool2c
I0629 04:23:24.985249  3939 net.cpp:148] Top shape: 4 128 98 98 (4917248)
I0629 04:23:24.985251  3939 net.cpp:156] Memory required for data: 1030250496
I0629 04:23:24.985256  3939 layer_factory.hpp:77] Creating layer conv3_1c
I0629 04:23:24.985265  3939 net.cpp:91] Creating Layer conv3_1c
I0629 04:23:24.985270  3939 net.cpp:425] conv3_1c <- pool2c
I0629 04:23:24.985275  3939 net.cpp:399] conv3_1c -> conv3_1c
I0629 04:23:24.986910  3939 net.cpp:141] Setting up conv3_1c
I0629 04:23:24.986922  3939 net.cpp:148] Top shape: 4 256 98 98 (9834496)
I0629 04:23:24.986927  3939 net.cpp:156] Memory required for data: 1069588480
I0629 04:23:24.986935  3939 layer_factory.hpp:77] Creating layer relu3_1c
I0629 04:23:24.986943  3939 net.cpp:91] Creating Layer relu3_1c
I0629 04:23:24.986948  3939 net.cpp:425] relu3_1c <- conv3_1c
I0629 04:23:24.986951  3939 net.cpp:386] relu3_1c -> conv3_1c (in-place)
I0629 04:23:24.987187  3939 net.cpp:141] Setting up relu3_1c
I0629 04:23:24.987196  3939 net.cpp:148] Top shape: 4 256 98 98 (9834496)
I0629 04:23:24.987200  3939 net.cpp:156] Memory required for data: 1108926464
I0629 04:23:24.987205  3939 layer_factory.hpp:77] Creating layer conv3_2c
I0629 04:23:24.987212  3939 net.cpp:91] Creating Layer conv3_2c
I0629 04:23:24.987216  3939 net.cpp:425] conv3_2c <- conv3_1c
I0629 04:23:24.987222  3939 net.cpp:399] conv3_2c -> conv3_2c
I0629 04:23:24.988806  3939 net.cpp:141] Setting up conv3_2c
I0629 04:23:24.988816  3939 net.cpp:148] Top shape: 4 256 98 98 (9834496)
I0629 04:23:24.988819  3939 net.cpp:156] Memory required for data: 1148264448
I0629 04:23:24.988824  3939 layer_factory.hpp:77] Creating layer relu3_2c
I0629 04:23:24.988829  3939 net.cpp:91] Creating Layer relu3_2c
I0629 04:23:24.988833  3939 net.cpp:425] relu3_2c <- conv3_2c
I0629 04:23:24.988838  3939 net.cpp:386] relu3_2c -> conv3_2c (in-place)
I0629 04:23:24.988989  3939 net.cpp:141] Setting up relu3_2c
I0629 04:23:24.988997  3939 net.cpp:148] Top shape: 4 256 98 98 (9834496)
I0629 04:23:24.989001  3939 net.cpp:156] Memory required for data: 1187602432
I0629 04:23:24.989006  3939 layer_factory.hpp:77] Creating layer conv3_3c
I0629 04:23:24.989017  3939 net.cpp:91] Creating Layer conv3_3c
I0629 04:23:24.989020  3939 net.cpp:425] conv3_3c <- conv3_2c
I0629 04:23:24.989027  3939 net.cpp:399] conv3_3c -> conv3_3c
I0629 04:23:24.990676  3939 net.cpp:141] Setting up conv3_3c
I0629 04:23:24.990700  3939 net.cpp:148] Top shape: 4 256 98 98 (9834496)
I0629 04:23:24.990705  3939 net.cpp:156] Memory required for data: 1226940416
I0629 04:23:24.990710  3939 layer_factory.hpp:77] Creating layer relu3_3c
I0629 04:23:24.990715  3939 net.cpp:91] Creating Layer relu3_3c
I0629 04:23:24.990720  3939 net.cpp:425] relu3_3c <- conv3_3c
I0629 04:23:24.990725  3939 net.cpp:386] relu3_3c -> conv3_3c (in-place)
I0629 04:23:24.990880  3939 net.cpp:141] Setting up relu3_3c
I0629 04:23:24.990902  3939 net.cpp:148] Top shape: 4 256 98 98 (9834496)
I0629 04:23:24.990914  3939 net.cpp:156] Memory required for data: 1266278400
I0629 04:23:24.990917  3939 layer_factory.hpp:77] Creating layer pool3c
I0629 04:23:24.990926  3939 net.cpp:91] Creating Layer pool3c
I0629 04:23:24.990931  3939 net.cpp:425] pool3c <- conv3_3c
I0629 04:23:24.990936  3939 net.cpp:399] pool3c -> pool3c
I0629 04:23:24.990974  3939 net.cpp:141] Setting up pool3c
I0629 04:23:24.990980  3939 net.cpp:148] Top shape: 4 256 49 49 (2458624)
I0629 04:23:24.990983  3939 net.cpp:156] Memory required for data: 1276112896
I0629 04:23:24.990988  3939 layer_factory.hpp:77] Creating layer conv4_1c
I0629 04:23:24.990995  3939 net.cpp:91] Creating Layer conv4_1c
I0629 04:23:24.990999  3939 net.cpp:425] conv4_1c <- pool3c
I0629 04:23:24.991005  3939 net.cpp:399] conv4_1c -> conv4_1c
I0629 04:23:24.993715  3939 net.cpp:141] Setting up conv4_1c
I0629 04:23:24.993733  3939 net.cpp:148] Top shape: 4 512 49 49 (4917248)
I0629 04:23:24.993737  3939 net.cpp:156] Memory required for data: 1295781888
I0629 04:23:24.993744  3939 layer_factory.hpp:77] Creating layer relu4_1c
I0629 04:23:24.993752  3939 net.cpp:91] Creating Layer relu4_1c
I0629 04:23:24.993754  3939 net.cpp:425] relu4_1c <- conv4_1c
I0629 04:23:24.993762  3939 net.cpp:386] relu4_1c -> conv4_1c (in-place)
I0629 04:23:24.994000  3939 net.cpp:141] Setting up relu4_1c
I0629 04:23:24.994009  3939 net.cpp:148] Top shape: 4 512 49 49 (4917248)
I0629 04:23:24.994015  3939 net.cpp:156] Memory required for data: 1315450880
I0629 04:23:24.994019  3939 layer_factory.hpp:77] Creating layer conv4_2c
I0629 04:23:24.994027  3939 net.cpp:91] Creating Layer conv4_2c
I0629 04:23:24.994032  3939 net.cpp:425] conv4_2c <- conv4_1c
I0629 04:23:24.994040  3939 net.cpp:399] conv4_2c -> conv4_2c
I0629 04:23:24.998075  3939 net.cpp:141] Setting up conv4_2c
I0629 04:23:24.998096  3939 net.cpp:148] Top shape: 4 512 49 49 (4917248)
I0629 04:23:24.998100  3939 net.cpp:156] Memory required for data: 1335119872
I0629 04:23:24.998113  3939 layer_factory.hpp:77] Creating layer relu4_2c
I0629 04:23:24.998126  3939 net.cpp:91] Creating Layer relu4_2c
I0629 04:23:24.998131  3939 net.cpp:425] relu4_2c <- conv4_2c
I0629 04:23:24.998137  3939 net.cpp:386] relu4_2c -> conv4_2c (in-place)
I0629 04:23:24.998298  3939 net.cpp:141] Setting up relu4_2c
I0629 04:23:24.998306  3939 net.cpp:148] Top shape: 4 512 49 49 (4917248)
I0629 04:23:24.998309  3939 net.cpp:156] Memory required for data: 1354788864
I0629 04:23:24.998314  3939 layer_factory.hpp:77] Creating layer conv4_3c
I0629 04:23:24.998323  3939 net.cpp:91] Creating Layer conv4_3c
I0629 04:23:24.998327  3939 net.cpp:425] conv4_3c <- conv4_2c
I0629 04:23:24.998332  3939 net.cpp:399] conv4_3c -> conv4_3c
I0629 04:23:25.003357  3939 net.cpp:141] Setting up conv4_3c
I0629 04:23:25.003379  3939 net.cpp:148] Top shape: 4 512 49 49 (4917248)
I0629 04:23:25.003382  3939 net.cpp:156] Memory required for data: 1374457856
I0629 04:23:25.003391  3939 layer_factory.hpp:77] Creating layer relu4_3c
I0629 04:23:25.003399  3939 net.cpp:91] Creating Layer relu4_3c
I0629 04:23:25.003403  3939 net.cpp:425] relu4_3c <- conv4_3c
I0629 04:23:25.003408  3939 net.cpp:386] relu4_3c -> conv4_3c (in-place)
I0629 04:23:25.003535  3939 net.cpp:141] Setting up relu4_3c
I0629 04:23:25.003545  3939 net.cpp:148] Top shape: 4 512 49 49 (4917248)
I0629 04:23:25.003547  3939 net.cpp:156] Memory required for data: 1394126848
I0629 04:23:25.003550  3939 layer_factory.hpp:77] Creating layer conv5_1c
I0629 04:23:25.003561  3939 net.cpp:91] Creating Layer conv5_1c
I0629 04:23:25.003563  3939 net.cpp:425] conv5_1c <- conv4_3c
I0629 04:23:25.003567  3939 net.cpp:399] conv5_1c -> conv5_1c
I0629 04:23:25.008337  3939 net.cpp:141] Setting up conv5_1c
I0629 04:23:25.008358  3939 net.cpp:148] Top shape: 4 512 49 49 (4917248)
I0629 04:23:25.008359  3939 net.cpp:156] Memory required for data: 1413795840
I0629 04:23:25.008366  3939 layer_factory.hpp:77] Creating layer relu5_1c
I0629 04:23:25.008373  3939 net.cpp:91] Creating Layer relu5_1c
I0629 04:23:25.008376  3939 net.cpp:425] relu5_1c <- conv5_1c
I0629 04:23:25.008399  3939 net.cpp:386] relu5_1c -> conv5_1c (in-place)
I0629 04:23:25.008687  3939 net.cpp:141] Setting up relu5_1c
I0629 04:23:25.008694  3939 net.cpp:148] Top shape: 4 512 49 49 (4917248)
I0629 04:23:25.008697  3939 net.cpp:156] Memory required for data: 1433464832
I0629 04:23:25.008702  3939 layer_factory.hpp:77] Creating layer conv5_2c
I0629 04:23:25.008708  3939 net.cpp:91] Creating Layer conv5_2c
I0629 04:23:25.008711  3939 net.cpp:425] conv5_2c <- conv5_1c
I0629 04:23:25.008716  3939 net.cpp:399] conv5_2c -> conv5_2c
I0629 04:23:25.011777  3939 net.cpp:141] Setting up conv5_2c
I0629 04:23:25.011796  3939 net.cpp:148] Top shape: 4 512 49 49 (4917248)
I0629 04:23:25.011800  3939 net.cpp:156] Memory required for data: 1453133824
I0629 04:23:25.011806  3939 layer_factory.hpp:77] Creating layer relu5_2c
I0629 04:23:25.011812  3939 net.cpp:91] Creating Layer relu5_2c
I0629 04:23:25.011816  3939 net.cpp:425] relu5_2c <- conv5_2c
I0629 04:23:25.011821  3939 net.cpp:386] relu5_2c -> conv5_2c (in-place)
I0629 04:23:25.012089  3939 net.cpp:141] Setting up relu5_2c
I0629 04:23:25.012095  3939 net.cpp:148] Top shape: 4 512 49 49 (4917248)
I0629 04:23:25.012097  3939 net.cpp:156] Memory required for data: 1472802816
I0629 04:23:25.012099  3939 layer_factory.hpp:77] Creating layer conv5_3c
I0629 04:23:25.012109  3939 net.cpp:91] Creating Layer conv5_3c
I0629 04:23:25.012111  3939 net.cpp:425] conv5_3c <- conv5_2c
I0629 04:23:25.012115  3939 net.cpp:399] conv5_3c -> conv5_3c
I0629 04:23:25.015317  3939 net.cpp:141] Setting up conv5_3c
I0629 04:23:25.015337  3939 net.cpp:148] Top shape: 4 512 73 73 (10913792)
I0629 04:23:25.015341  3939 net.cpp:156] Memory required for data: 1516457984
I0629 04:23:25.015347  3939 layer_factory.hpp:77] Creating layer relu5_3c
I0629 04:23:25.015353  3939 net.cpp:91] Creating Layer relu5_3c
I0629 04:23:25.015357  3939 net.cpp:425] relu5_3c <- conv5_3c
I0629 04:23:25.015362  3939 net.cpp:386] relu5_3c -> conv5_3c (in-place)
I0629 04:23:25.015532  3939 net.cpp:141] Setting up relu5_3c
I0629 04:23:25.015538  3939 net.cpp:148] Top shape: 4 512 73 73 (10913792)
I0629 04:23:25.015540  3939 net.cpp:156] Memory required for data: 1560113152
I0629 04:23:25.015545  3939 layer_factory.hpp:77] Creating layer conv1_1m
I0629 04:23:25.015553  3939 net.cpp:91] Creating Layer conv1_1m
I0629 04:23:25.015557  3939 net.cpp:425] conv1_1m <- masked_im
I0629 04:23:25.015560  3939 net.cpp:399] conv1_1m -> conv1_1m
I0629 04:23:25.016576  3939 net.cpp:141] Setting up conv1_1m
I0629 04:23:25.016584  3939 net.cpp:148] Top shape: 4 64 392 392 (39337984)
I0629 04:23:25.016587  3939 net.cpp:156] Memory required for data: 1717465088
I0629 04:23:25.016590  3939 net.cpp:484] Sharing parameters 'conv1_1_w' owned by layer 'conv1_1c', param index 0
I0629 04:23:25.016593  3939 net.cpp:484] Sharing parameters 'conv1_1_b' owned by layer 'conv1_1c', param index 1
I0629 04:23:25.016595  3939 layer_factory.hpp:77] Creating layer relu1_1m
I0629 04:23:25.016602  3939 net.cpp:91] Creating Layer relu1_1m
I0629 04:23:25.016604  3939 net.cpp:425] relu1_1m <- conv1_1m
I0629 04:23:25.016608  3939 net.cpp:386] relu1_1m -> conv1_1m (in-place)
I0629 04:23:25.016727  3939 net.cpp:141] Setting up relu1_1m
I0629 04:23:25.016733  3939 net.cpp:148] Top shape: 4 64 392 392 (39337984)
I0629 04:23:25.016736  3939 net.cpp:156] Memory required for data: 1874817024
I0629 04:23:25.016737  3939 layer_factory.hpp:77] Creating layer conv1_2m
I0629 04:23:25.016743  3939 net.cpp:91] Creating Layer conv1_2m
I0629 04:23:25.016746  3939 net.cpp:425] conv1_2m <- conv1_1m
I0629 04:23:25.016749  3939 net.cpp:399] conv1_2m -> conv1_2m
I0629 04:23:25.017742  3939 net.cpp:141] Setting up conv1_2m
I0629 04:23:25.017750  3939 net.cpp:148] Top shape: 4 64 392 392 (39337984)
I0629 04:23:25.017753  3939 net.cpp:156] Memory required for data: 2032168960
I0629 04:23:25.017755  3939 net.cpp:484] Sharing parameters 'conv1_2_w' owned by layer 'conv1_2c', param index 0
I0629 04:23:25.017758  3939 net.cpp:484] Sharing parameters 'conv1_2_b' owned by layer 'conv1_2c', param index 1
I0629 04:23:25.017768  3939 layer_factory.hpp:77] Creating layer relu1_2m
I0629 04:23:25.017772  3939 net.cpp:91] Creating Layer relu1_2m
I0629 04:23:25.017774  3939 net.cpp:425] relu1_2m <- conv1_2m
I0629 04:23:25.017777  3939 net.cpp:386] relu1_2m -> conv1_2m (in-place)
I0629 04:23:25.017974  3939 net.cpp:141] Setting up relu1_2m
I0629 04:23:25.017982  3939 net.cpp:148] Top shape: 4 64 392 392 (39337984)
I0629 04:23:25.017983  3939 net.cpp:156] Memory required for data: 2189520896
I0629 04:23:25.017987  3939 layer_factory.hpp:77] Creating layer pool1m
I0629 04:23:25.017993  3939 net.cpp:91] Creating Layer pool1m
I0629 04:23:25.017995  3939 net.cpp:425] pool1m <- conv1_2m
I0629 04:23:25.018000  3939 net.cpp:399] pool1m -> pool1m
I0629 04:23:25.018028  3939 net.cpp:141] Setting up pool1m
I0629 04:23:25.018035  3939 net.cpp:148] Top shape: 4 64 196 196 (9834496)
I0629 04:23:25.018038  3939 net.cpp:156] Memory required for data: 2228858880
I0629 04:23:25.018039  3939 layer_factory.hpp:77] Creating layer conv2_1m
I0629 04:23:25.018045  3939 net.cpp:91] Creating Layer conv2_1m
I0629 04:23:25.018049  3939 net.cpp:425] conv2_1m <- pool1m
I0629 04:23:25.018051  3939 net.cpp:399] conv2_1m -> conv2_1m
I0629 04:23:25.018751  3939 net.cpp:141] Setting up conv2_1m
I0629 04:23:25.018759  3939 net.cpp:148] Top shape: 4 128 196 196 (19668992)
I0629 04:23:25.018761  3939 net.cpp:156] Memory required for data: 2307534848
I0629 04:23:25.018764  3939 net.cpp:484] Sharing parameters 'conv2_1_w' owned by layer 'conv2_1c', param index 0
I0629 04:23:25.018767  3939 net.cpp:484] Sharing parameters 'conv2_1_b' owned by layer 'conv2_1c', param index 1
I0629 04:23:25.018769  3939 layer_factory.hpp:77] Creating layer relu2_1m
I0629 04:23:25.018772  3939 net.cpp:91] Creating Layer relu2_1m
I0629 04:23:25.018774  3939 net.cpp:425] relu2_1m <- conv2_1m
I0629 04:23:25.018779  3939 net.cpp:386] relu2_1m -> conv2_1m (in-place)
I0629 04:23:25.018884  3939 net.cpp:141] Setting up relu2_1m
I0629 04:23:25.018889  3939 net.cpp:148] Top shape: 4 128 196 196 (19668992)
I0629 04:23:25.018892  3939 net.cpp:156] Memory required for data: 2386210816
I0629 04:23:25.018894  3939 layer_factory.hpp:77] Creating layer conv2_2m
I0629 04:23:25.018900  3939 net.cpp:91] Creating Layer conv2_2m
I0629 04:23:25.018903  3939 net.cpp:425] conv2_2m <- conv2_1m
I0629 04:23:25.018908  3939 net.cpp:399] conv2_2m -> conv2_2m
I0629 04:23:25.019944  3939 net.cpp:141] Setting up conv2_2m
I0629 04:23:25.019953  3939 net.cpp:148] Top shape: 4 128 196 196 (19668992)
I0629 04:23:25.019955  3939 net.cpp:156] Memory required for data: 2464886784
I0629 04:23:25.019961  3939 net.cpp:484] Sharing parameters 'conv2_2_w' owned by layer 'conv2_2c', param index 0
I0629 04:23:25.019964  3939 net.cpp:484] Sharing parameters 'conv2_2_b' owned by layer 'conv2_2c', param index 1
I0629 04:23:25.019968  3939 layer_factory.hpp:77] Creating layer relu2_2m
I0629 04:23:25.019973  3939 net.cpp:91] Creating Layer relu2_2m
I0629 04:23:25.019975  3939 net.cpp:425] relu2_2m <- conv2_2m
I0629 04:23:25.019979  3939 net.cpp:386] relu2_2m -> conv2_2m (in-place)
I0629 04:23:25.020100  3939 net.cpp:141] Setting up relu2_2m
I0629 04:23:25.020107  3939 net.cpp:148] Top shape: 4 128 196 196 (19668992)
I0629 04:23:25.020108  3939 net.cpp:156] Memory required for data: 2543562752
I0629 04:23:25.020112  3939 layer_factory.hpp:77] Creating layer pool2m
I0629 04:23:25.020117  3939 net.cpp:91] Creating Layer pool2m
I0629 04:23:25.020118  3939 net.cpp:425] pool2m <- conv2_2m
I0629 04:23:25.020123  3939 net.cpp:399] pool2m -> pool2m
I0629 04:23:25.020149  3939 net.cpp:141] Setting up pool2m
I0629 04:23:25.020153  3939 net.cpp:148] Top shape: 4 128 98 98 (4917248)
I0629 04:23:25.020155  3939 net.cpp:156] Memory required for data: 2563231744
I0629 04:23:25.020158  3939 layer_factory.hpp:77] Creating layer conv3_1m
I0629 04:23:25.020162  3939 net.cpp:91] Creating Layer conv3_1m
I0629 04:23:25.020164  3939 net.cpp:425] conv3_1m <- pool2m
I0629 04:23:25.020169  3939 net.cpp:399] conv3_1m -> conv3_1m
I0629 04:23:25.021183  3939 net.cpp:141] Setting up conv3_1m
I0629 04:23:25.021190  3939 net.cpp:148] Top shape: 4 256 98 98 (9834496)
I0629 04:23:25.021193  3939 net.cpp:156] Memory required for data: 2602569728
I0629 04:23:25.021196  3939 net.cpp:484] Sharing parameters 'conv3_1_w' owned by layer 'conv3_1c', param index 0
I0629 04:23:25.021198  3939 net.cpp:484] Sharing parameters 'conv3_1_b' owned by layer 'conv3_1c', param index 1
I0629 04:23:25.021200  3939 layer_factory.hpp:77] Creating layer relu3_1m
I0629 04:23:25.021204  3939 net.cpp:91] Creating Layer relu3_1m
I0629 04:23:25.021206  3939 net.cpp:425] relu3_1m <- conv3_1m
I0629 04:23:25.021210  3939 net.cpp:386] relu3_1m -> conv3_1m (in-place)
I0629 04:23:25.021404  3939 net.cpp:141] Setting up relu3_1m
I0629 04:23:25.021411  3939 net.cpp:148] Top shape: 4 256 98 98 (9834496)
I0629 04:23:25.021414  3939 net.cpp:156] Memory required for data: 2641907712
I0629 04:23:25.021417  3939 layer_factory.hpp:77] Creating layer conv3_2m
I0629 04:23:25.021423  3939 net.cpp:91] Creating Layer conv3_2m
I0629 04:23:25.021425  3939 net.cpp:425] conv3_2m <- conv3_1m
I0629 04:23:25.021430  3939 net.cpp:399] conv3_2m -> conv3_2m
I0629 04:23:25.022673  3939 net.cpp:141] Setting up conv3_2m
I0629 04:23:25.022682  3939 net.cpp:148] Top shape: 4 256 98 98 (9834496)
I0629 04:23:25.022686  3939 net.cpp:156] Memory required for data: 2681245696
I0629 04:23:25.022688  3939 net.cpp:484] Sharing parameters 'conv3_2_w' owned by layer 'conv3_2c', param index 0
I0629 04:23:25.022691  3939 net.cpp:484] Sharing parameters 'conv3_2_b' owned by layer 'conv3_2c', param index 1
I0629 04:23:25.022693  3939 layer_factory.hpp:77] Creating layer relu3_2m
I0629 04:23:25.022698  3939 net.cpp:91] Creating Layer relu3_2m
I0629 04:23:25.022701  3939 net.cpp:425] relu3_2m <- conv3_2m
I0629 04:23:25.022704  3939 net.cpp:386] relu3_2m -> conv3_2m (in-place)
I0629 04:23:25.022809  3939 net.cpp:141] Setting up relu3_2m
I0629 04:23:25.022815  3939 net.cpp:148] Top shape: 4 256 98 98 (9834496)
I0629 04:23:25.022817  3939 net.cpp:156] Memory required for data: 2720583680
I0629 04:23:25.022819  3939 layer_factory.hpp:77] Creating layer conv3_3m
I0629 04:23:25.022825  3939 net.cpp:91] Creating Layer conv3_3m
I0629 04:23:25.022827  3939 net.cpp:425] conv3_3m <- conv3_2m
I0629 04:23:25.022830  3939 net.cpp:399] conv3_3m -> conv3_3m
I0629 04:23:25.024070  3939 net.cpp:141] Setting up conv3_3m
I0629 04:23:25.024080  3939 net.cpp:148] Top shape: 4 256 98 98 (9834496)
I0629 04:23:25.024081  3939 net.cpp:156] Memory required for data: 2759921664
I0629 04:23:25.024085  3939 net.cpp:484] Sharing parameters 'conv3_3_w' owned by layer 'conv3_3c', param index 0
I0629 04:23:25.024087  3939 net.cpp:484] Sharing parameters 'conv3_3_b' owned by layer 'conv3_3c', param index 1
I0629 04:23:25.024090  3939 layer_factory.hpp:77] Creating layer relu3_3m
I0629 04:23:25.024094  3939 net.cpp:91] Creating Layer relu3_3m
I0629 04:23:25.024096  3939 net.cpp:425] relu3_3m <- conv3_3m
I0629 04:23:25.024101  3939 net.cpp:386] relu3_3m -> conv3_3m (in-place)
I0629 04:23:25.024209  3939 net.cpp:141] Setting up relu3_3m
I0629 04:23:25.024214  3939 net.cpp:148] Top shape: 4 256 98 98 (9834496)
I0629 04:23:25.024216  3939 net.cpp:156] Memory required for data: 2799259648
I0629 04:23:25.024221  3939 layer_factory.hpp:77] Creating layer pool3m
I0629 04:23:25.024229  3939 net.cpp:91] Creating Layer pool3m
I0629 04:23:25.024230  3939 net.cpp:425] pool3m <- conv3_3m
I0629 04:23:25.024235  3939 net.cpp:399] pool3m -> pool3m
I0629 04:23:25.024262  3939 net.cpp:141] Setting up pool3m
I0629 04:23:25.024266  3939 net.cpp:148] Top shape: 4 256 49 49 (2458624)
I0629 04:23:25.024268  3939 net.cpp:156] Memory required for data: 2809094144
I0629 04:23:25.024271  3939 layer_factory.hpp:77] Creating layer conv4_1m
I0629 04:23:25.024276  3939 net.cpp:91] Creating Layer conv4_1m
I0629 04:23:25.024277  3939 net.cpp:425] conv4_1m <- pool3m
I0629 04:23:25.024282  3939 net.cpp:399] conv4_1m -> conv4_1m
I0629 04:23:25.026082  3939 net.cpp:141] Setting up conv4_1m
I0629 04:23:25.026103  3939 net.cpp:148] Top shape: 4 512 49 49 (4917248)
I0629 04:23:25.026106  3939 net.cpp:156] Memory required for data: 2828763136
I0629 04:23:25.026109  3939 net.cpp:484] Sharing parameters 'conv4_1_w' owned by layer 'conv4_1c', param index 0
I0629 04:23:25.026113  3939 net.cpp:484] Sharing parameters 'conv4_1_b' owned by layer 'conv4_1c', param index 1
I0629 04:23:25.026114  3939 layer_factory.hpp:77] Creating layer relu4_1m
I0629 04:23:25.026120  3939 net.cpp:91] Creating Layer relu4_1m
I0629 04:23:25.026123  3939 net.cpp:425] relu4_1m <- conv4_1m
I0629 04:23:25.026126  3939 net.cpp:386] relu4_1m -> conv4_1m (in-place)
I0629 04:23:25.026316  3939 net.cpp:141] Setting up relu4_1m
I0629 04:23:25.026324  3939 net.cpp:148] Top shape: 4 512 49 49 (4917248)
I0629 04:23:25.026326  3939 net.cpp:156] Memory required for data: 2848432128
I0629 04:23:25.026329  3939 layer_factory.hpp:77] Creating layer conv4_2m
I0629 04:23:25.026337  3939 net.cpp:91] Creating Layer conv4_2m
I0629 04:23:25.026340  3939 net.cpp:425] conv4_2m <- conv4_1m
I0629 04:23:25.026343  3939 net.cpp:399] conv4_2m -> conv4_2m
I0629 04:23:25.029656  3939 net.cpp:141] Setting up conv4_2m
I0629 04:23:25.029678  3939 net.cpp:148] Top shape: 4 512 49 49 (4917248)
I0629 04:23:25.029680  3939 net.cpp:156] Memory required for data: 2868101120
I0629 04:23:25.029685  3939 net.cpp:484] Sharing parameters 'conv4_2_w' owned by layer 'conv4_2c', param index 0
I0629 04:23:25.029687  3939 net.cpp:484] Sharing parameters 'conv4_2_b' owned by layer 'conv4_2c', param index 1
I0629 04:23:25.029690  3939 layer_factory.hpp:77] Creating layer relu4_2m
I0629 04:23:25.029696  3939 net.cpp:91] Creating Layer relu4_2m
I0629 04:23:25.029700  3939 net.cpp:425] relu4_2m <- conv4_2m
I0629 04:23:25.029703  3939 net.cpp:386] relu4_2m -> conv4_2m (in-place)
I0629 04:23:25.029814  3939 net.cpp:141] Setting up relu4_2m
I0629 04:23:25.029819  3939 net.cpp:148] Top shape: 4 512 49 49 (4917248)
I0629 04:23:25.029821  3939 net.cpp:156] Memory required for data: 2887770112
I0629 04:23:25.029824  3939 layer_factory.hpp:77] Creating layer conv4_3m
I0629 04:23:25.029830  3939 net.cpp:91] Creating Layer conv4_3m
I0629 04:23:25.029832  3939 net.cpp:425] conv4_3m <- conv4_2m
I0629 04:23:25.029836  3939 net.cpp:399] conv4_3m -> conv4_3m
I0629 04:23:25.034797  3939 net.cpp:141] Setting up conv4_3m
I0629 04:23:25.034837  3939 net.cpp:148] Top shape: 4 512 49 49 (4917248)
I0629 04:23:25.034840  3939 net.cpp:156] Memory required for data: 2907439104
I0629 04:23:25.034845  3939 net.cpp:484] Sharing parameters 'conv4_3_w' owned by layer 'conv4_3c', param index 0
I0629 04:23:25.034848  3939 net.cpp:484] Sharing parameters 'conv4_3_b' owned by layer 'conv4_3c', param index 1
I0629 04:23:25.034852  3939 layer_factory.hpp:77] Creating layer relu4_3m
I0629 04:23:25.034857  3939 net.cpp:91] Creating Layer relu4_3m
I0629 04:23:25.034860  3939 net.cpp:425] relu4_3m <- conv4_3m
I0629 04:23:25.034864  3939 net.cpp:386] relu4_3m -> conv4_3m (in-place)
I0629 04:23:25.035073  3939 net.cpp:141] Setting up relu4_3m
I0629 04:23:25.035081  3939 net.cpp:148] Top shape: 4 512 49 49 (4917248)
I0629 04:23:25.035084  3939 net.cpp:156] Memory required for data: 2927108096
I0629 04:23:25.035087  3939 layer_factory.hpp:77] Creating layer conv5_1m
I0629 04:23:25.035095  3939 net.cpp:91] Creating Layer conv5_1m
I0629 04:23:25.035099  3939 net.cpp:425] conv5_1m <- conv4_3m
I0629 04:23:25.035102  3939 net.cpp:399] conv5_1m -> conv5_1m
I0629 04:23:25.038532  3939 net.cpp:141] Setting up conv5_1m
I0629 04:23:25.038550  3939 net.cpp:148] Top shape: 4 512 49 49 (4917248)
I0629 04:23:25.038552  3939 net.cpp:156] Memory required for data: 2946777088
I0629 04:23:25.038558  3939 net.cpp:484] Sharing parameters 'conv5_1_w' owned by layer 'conv5_1c', param index 0
I0629 04:23:25.038560  3939 net.cpp:484] Sharing parameters 'conv5_1_b' owned by layer 'conv5_1c', param index 1
I0629 04:23:25.038563  3939 layer_factory.hpp:77] Creating layer relu5_1m
I0629 04:23:25.038568  3939 net.cpp:91] Creating Layer relu5_1m
I0629 04:23:25.038571  3939 net.cpp:425] relu5_1m <- conv5_1m
I0629 04:23:25.038590  3939 net.cpp:386] relu5_1m -> conv5_1m (in-place)
I0629 04:23:25.038884  3939 net.cpp:141] Setting up relu5_1m
I0629 04:23:25.038892  3939 net.cpp:148] Top shape: 4 512 49 49 (4917248)
I0629 04:23:25.038894  3939 net.cpp:156] Memory required for data: 2966446080
I0629 04:23:25.038897  3939 layer_factory.hpp:77] Creating layer conv5_2m
I0629 04:23:25.038907  3939 net.cpp:91] Creating Layer conv5_2m
I0629 04:23:25.038909  3939 net.cpp:425] conv5_2m <- conv5_1m
I0629 04:23:25.038913  3939 net.cpp:399] conv5_2m -> conv5_2m
I0629 04:23:25.041699  3939 net.cpp:141] Setting up conv5_2m
I0629 04:23:25.041723  3939 net.cpp:148] Top shape: 4 512 49 49 (4917248)
I0629 04:23:25.041724  3939 net.cpp:156] Memory required for data: 2986115072
I0629 04:23:25.041728  3939 net.cpp:484] Sharing parameters 'conv5_2_w' owned by layer 'conv5_2c', param index 0
I0629 04:23:25.041733  3939 net.cpp:484] Sharing parameters 'conv5_2_b' owned by layer 'conv5_2c', param index 1
I0629 04:23:25.041734  3939 layer_factory.hpp:77] Creating layer relu5_2m
I0629 04:23:25.041740  3939 net.cpp:91] Creating Layer relu5_2m
I0629 04:23:25.041743  3939 net.cpp:425] relu5_2m <- conv5_2m
I0629 04:23:25.041749  3939 net.cpp:386] relu5_2m -> conv5_2m (in-place)
I0629 04:23:25.041924  3939 net.cpp:141] Setting up relu5_2m
I0629 04:23:25.041931  3939 net.cpp:148] Top shape: 4 512 49 49 (4917248)
I0629 04:23:25.041934  3939 net.cpp:156] Memory required for data: 3005784064
I0629 04:23:25.041937  3939 layer_factory.hpp:77] Creating layer conv5_3m
I0629 04:23:25.041945  3939 net.cpp:91] Creating Layer conv5_3m
I0629 04:23:25.041949  3939 net.cpp:425] conv5_3m <- conv5_2m
I0629 04:23:25.041954  3939 net.cpp:399] conv5_3m -> conv5_3m
I0629 04:23:25.045164  3939 net.cpp:141] Setting up conv5_3m
I0629 04:23:25.045182  3939 net.cpp:148] Top shape: 4 512 73 73 (10913792)
I0629 04:23:25.045186  3939 net.cpp:156] Memory required for data: 3049439232
I0629 04:23:25.045191  3939 net.cpp:484] Sharing parameters 'conv5_3_w' owned by layer 'conv5_3c', param index 0
I0629 04:23:25.045193  3939 net.cpp:484] Sharing parameters 'conv5_3_b' owned by layer 'conv5_3c', param index 1
I0629 04:23:25.045197  3939 layer_factory.hpp:77] Creating layer relu5_3m
I0629 04:23:25.045203  3939 net.cpp:91] Creating Layer relu5_3m
I0629 04:23:25.045207  3939 net.cpp:425] relu5_3m <- conv5_3m
I0629 04:23:25.045212  3939 net.cpp:386] relu5_3m -> conv5_3m (in-place)
I0629 04:23:25.045509  3939 net.cpp:141] Setting up relu5_3m
I0629 04:23:25.045517  3939 net.cpp:148] Top shape: 4 512 73 73 (10913792)
I0629 04:23:25.045521  3939 net.cpp:156] Memory required for data: 3093094400
I0629 04:23:25.045522  3939 layer_factory.hpp:77] Creating layer conv1_1n
I0629 04:23:25.045532  3939 net.cpp:91] Creating Layer conv1_1n
I0629 04:23:25.045536  3939 net.cpp:425] conv1_1n <- next_im_cur_im_2_split_0
I0629 04:23:25.045542  3939 net.cpp:399] conv1_1n -> conv1_1n
I0629 04:23:25.046635  3939 net.cpp:141] Setting up conv1_1n
I0629 04:23:25.046649  3939 net.cpp:148] Top shape: 4 64 584 584 (87310336)
I0629 04:23:25.046651  3939 net.cpp:156] Memory required for data: 3442335744
I0629 04:23:25.046656  3939 net.cpp:484] Sharing parameters 'conv1_1_w' owned by layer 'conv1_1c', param index 0
I0629 04:23:25.046663  3939 net.cpp:484] Sharing parameters 'conv1_1_b' owned by layer 'conv1_1c', param index 1
I0629 04:23:25.046664  3939 layer_factory.hpp:77] Creating layer relu1_1n
I0629 04:23:25.046669  3939 net.cpp:91] Creating Layer relu1_1n
I0629 04:23:25.046670  3939 net.cpp:425] relu1_1n <- conv1_1n
I0629 04:23:25.046675  3939 net.cpp:386] relu1_1n -> conv1_1n (in-place)
I0629 04:23:25.046790  3939 net.cpp:141] Setting up relu1_1n
I0629 04:23:25.046797  3939 net.cpp:148] Top shape: 4 64 584 584 (87310336)
I0629 04:23:25.046798  3939 net.cpp:156] Memory required for data: 3791577088
I0629 04:23:25.046802  3939 layer_factory.hpp:77] Creating layer conv1_2n
I0629 04:23:25.046808  3939 net.cpp:91] Creating Layer conv1_2n
I0629 04:23:25.046810  3939 net.cpp:425] conv1_2n <- conv1_1n
I0629 04:23:25.046823  3939 net.cpp:399] conv1_2n -> conv1_2n
I0629 04:23:25.048559  3939 net.cpp:141] Setting up conv1_2n
I0629 04:23:25.048571  3939 net.cpp:148] Top shape: 4 64 584 584 (87310336)
I0629 04:23:25.048574  3939 net.cpp:156] Memory required for data: 4140818432
I0629 04:23:25.048578  3939 net.cpp:484] Sharing parameters 'conv1_2_w' owned by layer 'conv1_2c', param index 0
I0629 04:23:25.048580  3939 net.cpp:484] Sharing parameters 'conv1_2_b' owned by layer 'conv1_2c', param index 1
I0629 04:23:25.048583  3939 layer_factory.hpp:77] Creating layer relu1_2n
I0629 04:23:25.048590  3939 net.cpp:91] Creating Layer relu1_2n
I0629 04:23:25.048593  3939 net.cpp:425] relu1_2n <- conv1_2n
I0629 04:23:25.048598  3939 net.cpp:386] relu1_2n -> conv1_2n (in-place)
I0629 04:23:25.048804  3939 net.cpp:141] Setting up relu1_2n
I0629 04:23:25.048810  3939 net.cpp:148] Top shape: 4 64 584 584 (87310336)
I0629 04:23:25.048813  3939 net.cpp:156] Memory required for data: 4490059776
I0629 04:23:25.048815  3939 layer_factory.hpp:77] Creating layer pool1n
I0629 04:23:25.048826  3939 net.cpp:91] Creating Layer pool1n
I0629 04:23:25.048830  3939 net.cpp:425] pool1n <- conv1_2n
I0629 04:23:25.048833  3939 net.cpp:399] pool1n -> pool1n
I0629 04:23:25.048868  3939 net.cpp:141] Setting up pool1n
I0629 04:23:25.048873  3939 net.cpp:148] Top shape: 4 64 292 292 (21827584)
I0629 04:23:25.048876  3939 net.cpp:156] Memory required for data: 4577370112
I0629 04:23:25.048878  3939 layer_factory.hpp:77] Creating layer conv2_1n
I0629 04:23:25.048885  3939 net.cpp:91] Creating Layer conv2_1n
I0629 04:23:25.048887  3939 net.cpp:425] conv2_1n <- pool1n
I0629 04:23:25.048892  3939 net.cpp:399] conv2_1n -> conv2_1n
I0629 04:23:25.049552  3939 net.cpp:141] Setting up conv2_1n
I0629 04:23:25.049561  3939 net.cpp:148] Top shape: 4 128 292 292 (43655168)
I0629 04:23:25.049563  3939 net.cpp:156] Memory required for data: 4751990784
I0629 04:23:25.049566  3939 net.cpp:484] Sharing parameters 'conv2_1_w' owned by layer 'conv2_1c', param index 0
I0629 04:23:25.049568  3939 net.cpp:484] Sharing parameters 'conv2_1_b' owned by layer 'conv2_1c', param index 1
I0629 04:23:25.049572  3939 layer_factory.hpp:77] Creating layer relu2_1n
I0629 04:23:25.049576  3939 net.cpp:91] Creating Layer relu2_1n
I0629 04:23:25.049578  3939 net.cpp:425] relu2_1n <- conv2_1n
I0629 04:23:25.049582  3939 net.cpp:386] relu2_1n -> conv2_1n (in-place)
I0629 04:23:25.049782  3939 net.cpp:141] Setting up relu2_1n
I0629 04:23:25.049788  3939 net.cpp:148] Top shape: 4 128 292 292 (43655168)
I0629 04:23:25.049790  3939 net.cpp:156] Memory required for data: 4926611456
I0629 04:23:25.049793  3939 layer_factory.hpp:77] Creating layer conv2_2n
I0629 04:23:25.049799  3939 net.cpp:91] Creating Layer conv2_2n
I0629 04:23:25.049801  3939 net.cpp:425] conv2_2n <- conv2_1n
I0629 04:23:25.049806  3939 net.cpp:399] conv2_2n -> conv2_2n
I0629 04:23:25.050808  3939 net.cpp:141] Setting up conv2_2n
I0629 04:23:25.050817  3939 net.cpp:148] Top shape: 4 128 292 292 (43655168)
I0629 04:23:25.050819  3939 net.cpp:156] Memory required for data: 5101232128
I0629 04:23:25.050822  3939 net.cpp:484] Sharing parameters 'conv2_2_w' owned by layer 'conv2_2c', param index 0
I0629 04:23:25.050825  3939 net.cpp:484] Sharing parameters 'conv2_2_b' owned by layer 'conv2_2c', param index 1
I0629 04:23:25.050827  3939 layer_factory.hpp:77] Creating layer relu2_2n
I0629 04:23:25.050832  3939 net.cpp:91] Creating Layer relu2_2n
I0629 04:23:25.050834  3939 net.cpp:425] relu2_2n <- conv2_2n
I0629 04:23:25.050837  3939 net.cpp:386] relu2_2n -> conv2_2n (in-place)
I0629 04:23:25.050948  3939 net.cpp:141] Setting up relu2_2n
I0629 04:23:25.050954  3939 net.cpp:148] Top shape: 4 128 292 292 (43655168)
I0629 04:23:25.050956  3939 net.cpp:156] Memory required for data: 5275852800
I0629 04:23:25.050958  3939 layer_factory.hpp:77] Creating layer pool2n
I0629 04:23:25.050963  3939 net.cpp:91] Creating Layer pool2n
I0629 04:23:25.050966  3939 net.cpp:425] pool2n <- conv2_2n
I0629 04:23:25.050969  3939 net.cpp:399] pool2n -> pool2n
I0629 04:23:25.051007  3939 net.cpp:141] Setting up pool2n
I0629 04:23:25.051012  3939 net.cpp:148] Top shape: 4 128 146 146 (10913792)
I0629 04:23:25.051013  3939 net.cpp:156] Memory required for data: 5319507968
I0629 04:23:25.051017  3939 layer_factory.hpp:77] Creating layer conv3_1n
I0629 04:23:25.051023  3939 net.cpp:91] Creating Layer conv3_1n
I0629 04:23:25.051025  3939 net.cpp:425] conv3_1n <- pool2n
I0629 04:23:25.051028  3939 net.cpp:399] conv3_1n -> conv3_1n
I0629 04:23:25.052054  3939 net.cpp:141] Setting up conv3_1n
I0629 04:23:25.052063  3939 net.cpp:148] Top shape: 4 256 146 146 (21827584)
I0629 04:23:25.052067  3939 net.cpp:156] Memory required for data: 5406818304
I0629 04:23:25.052069  3939 net.cpp:484] Sharing parameters 'conv3_1_w' owned by layer 'conv3_1c', param index 0
I0629 04:23:25.052073  3939 net.cpp:484] Sharing parameters 'conv3_1_b' owned by layer 'conv3_1c', param index 1
I0629 04:23:25.052074  3939 layer_factory.hpp:77] Creating layer relu3_1n
I0629 04:23:25.052078  3939 net.cpp:91] Creating Layer relu3_1n
I0629 04:23:25.052080  3939 net.cpp:425] relu3_1n <- conv3_1n
I0629 04:23:25.052084  3939 net.cpp:386] relu3_1n -> conv3_1n (in-place)
I0629 04:23:25.052281  3939 net.cpp:141] Setting up relu3_1n
I0629 04:23:25.052289  3939 net.cpp:148] Top shape: 4 256 146 146 (21827584)
I0629 04:23:25.052291  3939 net.cpp:156] Memory required for data: 5494128640
I0629 04:23:25.052294  3939 layer_factory.hpp:77] Creating layer conv3_2n
I0629 04:23:25.052300  3939 net.cpp:91] Creating Layer conv3_2n
I0629 04:23:25.052302  3939 net.cpp:425] conv3_2n <- conv3_1n
I0629 04:23:25.052307  3939 net.cpp:399] conv3_2n -> conv3_2n
I0629 04:23:25.053516  3939 net.cpp:141] Setting up conv3_2n
I0629 04:23:25.053525  3939 net.cpp:148] Top shape: 4 256 146 146 (21827584)
I0629 04:23:25.053527  3939 net.cpp:156] Memory required for data: 5581438976
I0629 04:23:25.053530  3939 net.cpp:484] Sharing parameters 'conv3_2_w' owned by layer 'conv3_2c', param index 0
I0629 04:23:25.053537  3939 net.cpp:484] Sharing parameters 'conv3_2_b' owned by layer 'conv3_2c', param index 1
I0629 04:23:25.053539  3939 layer_factory.hpp:77] Creating layer relu3_2n
I0629 04:23:25.053547  3939 net.cpp:91] Creating Layer relu3_2n
I0629 04:23:25.053553  3939 net.cpp:425] relu3_2n <- conv3_2n
I0629 04:23:25.053557  3939 net.cpp:386] relu3_2n -> conv3_2n (in-place)
I0629 04:23:25.053753  3939 net.cpp:141] Setting up relu3_2n
I0629 04:23:25.053761  3939 net.cpp:148] Top shape: 4 256 146 146 (21827584)
I0629 04:23:25.053763  3939 net.cpp:156] Memory required for data: 5668749312
I0629 04:23:25.053767  3939 layer_factory.hpp:77] Creating layer conv3_3n
I0629 04:23:25.053772  3939 net.cpp:91] Creating Layer conv3_3n
I0629 04:23:25.053774  3939 net.cpp:425] conv3_3n <- conv3_2n
I0629 04:23:25.053779  3939 net.cpp:399] conv3_3n -> conv3_3n
I0629 04:23:25.055145  3939 net.cpp:141] Setting up conv3_3n
I0629 04:23:25.055153  3939 net.cpp:148] Top shape: 4 256 146 146 (21827584)
I0629 04:23:25.055156  3939 net.cpp:156] Memory required for data: 5756059648
I0629 04:23:25.055166  3939 net.cpp:484] Sharing parameters 'conv3_3_w' owned by layer 'conv3_3c', param index 0
I0629 04:23:25.055168  3939 net.cpp:484] Sharing parameters 'conv3_3_b' owned by layer 'conv3_3c', param index 1
I0629 04:23:25.055171  3939 layer_factory.hpp:77] Creating layer relu3_3n
I0629 04:23:25.055176  3939 net.cpp:91] Creating Layer relu3_3n
I0629 04:23:25.055178  3939 net.cpp:425] relu3_3n <- conv3_3n
I0629 04:23:25.055181  3939 net.cpp:386] relu3_3n -> conv3_3n (in-place)
I0629 04:23:25.055304  3939 net.cpp:141] Setting up relu3_3n
I0629 04:23:25.055310  3939 net.cpp:148] Top shape: 4 256 146 146 (21827584)
I0629 04:23:25.055311  3939 net.cpp:156] Memory required for data: 5843369984
I0629 04:23:25.055313  3939 layer_factory.hpp:77] Creating layer pool3n
I0629 04:23:25.055323  3939 net.cpp:91] Creating Layer pool3n
I0629 04:23:25.055325  3939 net.cpp:425] pool3n <- conv3_3n
I0629 04:23:25.055330  3939 net.cpp:399] pool3n -> pool3n
I0629 04:23:25.055361  3939 net.cpp:141] Setting up pool3n
I0629 04:23:25.055373  3939 net.cpp:148] Top shape: 4 256 73 73 (5456896)
I0629 04:23:25.055377  3939 net.cpp:156] Memory required for data: 5865197568
I0629 04:23:25.055378  3939 layer_factory.hpp:77] Creating layer conv4_1n
I0629 04:23:25.055384  3939 net.cpp:91] Creating Layer conv4_1n
I0629 04:23:25.055387  3939 net.cpp:425] conv4_1n <- pool3n
I0629 04:23:25.055390  3939 net.cpp:399] conv4_1n -> conv4_1n
I0629 04:23:25.057258  3939 net.cpp:141] Setting up conv4_1n
I0629 04:23:25.057271  3939 net.cpp:148] Top shape: 4 512 73 73 (10913792)
I0629 04:23:25.057274  3939 net.cpp:156] Memory required for data: 5908852736
I0629 04:23:25.057277  3939 net.cpp:484] Sharing parameters 'conv4_1_w' owned by layer 'conv4_1c', param index 0
I0629 04:23:25.057281  3939 net.cpp:484] Sharing parameters 'conv4_1_b' owned by layer 'conv4_1c', param index 1
I0629 04:23:25.057283  3939 layer_factory.hpp:77] Creating layer relu4_1n
I0629 04:23:25.057288  3939 net.cpp:91] Creating Layer relu4_1n
I0629 04:23:25.057291  3939 net.cpp:425] relu4_1n <- conv4_1n
I0629 04:23:25.057296  3939 net.cpp:386] relu4_1n -> conv4_1n (in-place)
I0629 04:23:25.057493  3939 net.cpp:141] Setting up relu4_1n
I0629 04:23:25.057502  3939 net.cpp:148] Top shape: 4 512 73 73 (10913792)
I0629 04:23:25.057504  3939 net.cpp:156] Memory required for data: 5952507904
I0629 04:23:25.057507  3939 layer_factory.hpp:77] Creating layer conv4_2n
I0629 04:23:25.057513  3939 net.cpp:91] Creating Layer conv4_2n
I0629 04:23:25.057517  3939 net.cpp:425] conv4_2n <- conv4_1n
I0629 04:23:25.057521  3939 net.cpp:399] conv4_2n -> conv4_2n
I0629 04:23:25.061326  3939 net.cpp:141] Setting up conv4_2n
I0629 04:23:25.061359  3939 net.cpp:148] Top shape: 4 512 73 73 (10913792)
I0629 04:23:25.061362  3939 net.cpp:156] Memory required for data: 5996163072
I0629 04:23:25.061368  3939 net.cpp:484] Sharing parameters 'conv4_2_w' owned by layer 'conv4_2c', param index 0
I0629 04:23:25.061372  3939 net.cpp:484] Sharing parameters 'conv4_2_b' owned by layer 'conv4_2c', param index 1
I0629 04:23:25.061375  3939 layer_factory.hpp:77] Creating layer relu4_2n
I0629 04:23:25.061383  3939 net.cpp:91] Creating Layer relu4_2n
I0629 04:23:25.061386  3939 net.cpp:425] relu4_2n <- conv4_2n
I0629 04:23:25.061390  3939 net.cpp:386] relu4_2n -> conv4_2n (in-place)
I0629 04:23:25.061622  3939 net.cpp:141] Setting up relu4_2n
I0629 04:23:25.061630  3939 net.cpp:148] Top shape: 4 512 73 73 (10913792)
I0629 04:23:25.061633  3939 net.cpp:156] Memory required for data: 6039818240
I0629 04:23:25.061635  3939 layer_factory.hpp:77] Creating layer conv4_3n
I0629 04:23:25.061641  3939 net.cpp:91] Creating Layer conv4_3n
I0629 04:23:25.061645  3939 net.cpp:425] conv4_3n <- conv4_2n
I0629 04:23:25.061650  3939 net.cpp:399] conv4_3n -> conv4_3n
I0629 04:23:25.069588  3939 net.cpp:141] Setting up conv4_3n
I0629 04:23:25.069610  3939 net.cpp:148] Top shape: 4 512 73 73 (10913792)
I0629 04:23:25.069612  3939 net.cpp:156] Memory required for data: 6083473408
I0629 04:23:25.069618  3939 net.cpp:484] Sharing parameters 'conv4_3_w' owned by layer 'conv4_3c', param index 0
I0629 04:23:25.069622  3939 net.cpp:484] Sharing parameters 'conv4_3_b' owned by layer 'conv4_3c', param index 1
I0629 04:23:25.069627  3939 layer_factory.hpp:77] Creating layer relu4_3n
I0629 04:23:25.069635  3939 net.cpp:91] Creating Layer relu4_3n
I0629 04:23:25.069638  3939 net.cpp:425] relu4_3n <- conv4_3n
I0629 04:23:25.069643  3939 net.cpp:386] relu4_3n -> conv4_3n (in-place)
I0629 04:23:25.069767  3939 net.cpp:141] Setting up relu4_3n
I0629 04:23:25.069774  3939 net.cpp:148] Top shape: 4 512 73 73 (10913792)
I0629 04:23:25.069777  3939 net.cpp:156] Memory required for data: 6127128576
I0629 04:23:25.069779  3939 layer_factory.hpp:77] Creating layer conv5_1n
I0629 04:23:25.069785  3939 net.cpp:91] Creating Layer conv5_1n
I0629 04:23:25.069788  3939 net.cpp:425] conv5_1n <- conv4_3n
I0629 04:23:25.069793  3939 net.cpp:399] conv5_1n -> conv5_1n
I0629 04:23:25.077321  3939 net.cpp:141] Setting up conv5_1n
I0629 04:23:25.077383  3939 net.cpp:148] Top shape: 4 512 73 73 (10913792)
I0629 04:23:25.077460  3939 net.cpp:156] Memory required for data: 6170783744
I0629 04:23:25.077471  3939 net.cpp:484] Sharing parameters 'conv5_1_w' owned by layer 'conv5_1c', param index 0
I0629 04:23:25.077481  3939 net.cpp:484] Sharing parameters 'conv5_1_b' owned by layer 'conv5_1c', param index 1
I0629 04:23:25.077486  3939 layer_factory.hpp:77] Creating layer relu5_1n
I0629 04:23:25.077505  3939 net.cpp:91] Creating Layer relu5_1n
I0629 04:23:25.077517  3939 net.cpp:425] relu5_1n <- conv5_1n
I0629 04:23:25.077530  3939 net.cpp:386] relu5_1n -> conv5_1n (in-place)
I0629 04:23:25.078224  3939 net.cpp:141] Setting up relu5_1n
I0629 04:23:25.078302  3939 net.cpp:148] Top shape: 4 512 73 73 (10913792)
I0629 04:23:25.078317  3939 net.cpp:156] Memory required for data: 6214438912
I0629 04:23:25.078336  3939 layer_factory.hpp:77] Creating layer conv5_2n
I0629 04:23:25.078363  3939 net.cpp:91] Creating Layer conv5_2n
I0629 04:23:25.078377  3939 net.cpp:425] conv5_2n <- conv5_1n
I0629 04:23:25.078394  3939 net.cpp:399] conv5_2n -> conv5_2n
I0629 04:23:25.087558  3939 net.cpp:141] Setting up conv5_2n
I0629 04:23:25.087657  3939 net.cpp:148] Top shape: 4 512 73 73 (10913792)
I0629 04:23:25.087677  3939 net.cpp:156] Memory required for data: 6258094080
I0629 04:23:25.087697  3939 net.cpp:484] Sharing parameters 'conv5_2_w' owned by layer 'conv5_2c', param index 0
I0629 04:23:25.087733  3939 net.cpp:484] Sharing parameters 'conv5_2_b' owned by layer 'conv5_2c', param index 1
I0629 04:23:25.087746  3939 layer_factory.hpp:77] Creating layer relu5_2n
I0629 04:23:25.087772  3939 net.cpp:91] Creating Layer relu5_2n
I0629 04:23:25.087788  3939 net.cpp:425] relu5_2n <- conv5_2n
I0629 04:23:25.087807  3939 net.cpp:386] relu5_2n -> conv5_2n (in-place)
I0629 04:23:25.088127  3939 net.cpp:141] Setting up relu5_2n
I0629 04:23:25.088167  3939 net.cpp:148] Top shape: 4 512 73 73 (10913792)
I0629 04:23:25.088183  3939 net.cpp:156] Memory required for data: 6301749248
I0629 04:23:25.088201  3939 layer_factory.hpp:77] Creating layer conv5_3n
I0629 04:23:25.088238  3939 net.cpp:91] Creating Layer conv5_3n
I0629 04:23:25.088244  3939 net.cpp:425] conv5_3n <- conv5_2n
I0629 04:23:25.088251  3939 net.cpp:399] conv5_3n -> conv5_3n
I0629 04:23:25.099099  3939 net.cpp:141] Setting up conv5_3n
I0629 04:23:25.099123  3939 net.cpp:148] Top shape: 4 512 73 73 (10913792)
I0629 04:23:25.099125  3939 net.cpp:156] Memory required for data: 6345404416
I0629 04:23:25.099131  3939 net.cpp:484] Sharing parameters 'conv5_3_w' owned by layer 'conv5_3c', param index 0
I0629 04:23:25.099134  3939 net.cpp:484] Sharing parameters 'conv5_3_b' owned by layer 'conv5_3c', param index 1
I0629 04:23:25.099138  3939 layer_factory.hpp:77] Creating layer relu5_3n
I0629 04:23:25.099144  3939 net.cpp:91] Creating Layer relu5_3n
I0629 04:23:25.099148  3939 net.cpp:425] relu5_3n <- conv5_3n
I0629 04:23:25.099153  3939 net.cpp:386] relu5_3n -> conv5_3n (in-place)
I0629 04:23:25.099745  3939 net.cpp:141] Setting up relu5_3n
I0629 04:23:25.099774  3939 net.cpp:148] Top shape: 4 512 73 73 (10913792)
I0629 04:23:25.099778  3939 net.cpp:156] Memory required for data: 6389059584
I0629 04:23:25.099786  3939 layer_factory.hpp:77] Creating layer concat1
I0629 04:23:25.099829  3939 net.cpp:91] Creating Layer concat1
I0629 04:23:25.099836  3939 net.cpp:425] concat1 <- conv5_3c
I0629 04:23:25.099843  3939 net.cpp:425] concat1 <- conv5_3m
I0629 04:23:25.099849  3939 net.cpp:425] concat1 <- conv5_3n
I0629 04:23:25.099858  3939 net.cpp:399] concat1 -> concat1
I0629 04:23:25.099921  3939 net.cpp:141] Setting up concat1
I0629 04:23:25.099931  3939 net.cpp:148] Top shape: 4 1536 73 73 (32741376)
I0629 04:23:25.099934  3939 net.cpp:156] Memory required for data: 6520025088
I0629 04:23:25.099941  3939 layer_factory.hpp:77] Creating layer fc6
I0629 04:23:25.099953  3939 net.cpp:91] Creating Layer fc6
I0629 04:23:25.099958  3939 net.cpp:425] fc6 <- concat1
I0629 04:23:25.099967  3939 net.cpp:399] fc6 -> fc6
I0629 04:23:25.207293  3939 net.cpp:141] Setting up fc6
I0629 04:23:25.207326  3939 net.cpp:148] Top shape: 4 1024 49 49 (9834496)
I0629 04:23:25.207329  3939 net.cpp:156] Memory required for data: 6559363072
I0629 04:23:25.207334  3939 layer_factory.hpp:77] Creating layer relu6
I0629 04:23:25.207341  3939 net.cpp:91] Creating Layer relu6
I0629 04:23:25.207345  3939 net.cpp:425] relu6 <- fc6
I0629 04:23:25.207350  3939 net.cpp:386] relu6 -> fc6 (in-place)
I0629 04:23:25.207532  3939 net.cpp:141] Setting up relu6
I0629 04:23:25.207538  3939 net.cpp:148] Top shape: 4 1024 49 49 (9834496)
I0629 04:23:25.207541  3939 net.cpp:156] Memory required for data: 6598701056
I0629 04:23:25.207543  3939 layer_factory.hpp:77] Creating layer drop6
I0629 04:23:25.207550  3939 net.cpp:91] Creating Layer drop6
I0629 04:23:25.207551  3939 net.cpp:425] drop6 <- fc6
I0629 04:23:25.207556  3939 net.cpp:386] drop6 -> fc6 (in-place)
I0629 04:23:25.207579  3939 net.cpp:141] Setting up drop6
I0629 04:23:25.207584  3939 net.cpp:148] Top shape: 4 1024 49 49 (9834496)
I0629 04:23:25.207587  3939 net.cpp:156] Memory required for data: 6638039040
I0629 04:23:25.207589  3939 layer_factory.hpp:77] Creating layer fc7
I0629 04:23:25.207594  3939 net.cpp:91] Creating Layer fc7
I0629 04:23:25.207597  3939 net.cpp:425] fc7 <- fc6
I0629 04:23:25.207599  3939 net.cpp:399] fc7 -> fc7
I0629 04:23:25.209385  3939 net.cpp:141] Setting up fc7
I0629 04:23:25.209398  3939 net.cpp:148] Top shape: 4 1024 49 49 (9834496)
I0629 04:23:25.209400  3939 net.cpp:156] Memory required for data: 6677377024
I0629 04:23:25.209406  3939 layer_factory.hpp:77] Creating layer relu7
I0629 04:23:25.209411  3939 net.cpp:91] Creating Layer relu7
I0629 04:23:25.209414  3939 net.cpp:425] relu7 <- fc7
I0629 04:23:25.209419  3939 net.cpp:386] relu7 -> fc7 (in-place)
I0629 04:23:25.209622  3939 net.cpp:141] Setting up relu7
I0629 04:23:25.209630  3939 net.cpp:148] Top shape: 4 1024 49 49 (9834496)
I0629 04:23:25.209632  3939 net.cpp:156] Memory required for data: 6716715008
I0629 04:23:25.209635  3939 layer_factory.hpp:77] Creating layer drop7
I0629 04:23:25.209640  3939 net.cpp:91] Creating Layer drop7
I0629 04:23:25.209642  3939 net.cpp:425] drop7 <- fc7
I0629 04:23:25.209646  3939 net.cpp:386] drop7 -> fc7 (in-place)
I0629 04:23:25.209666  3939 net.cpp:141] Setting up drop7
I0629 04:23:25.209669  3939 net.cpp:148] Top shape: 4 1024 49 49 (9834496)
I0629 04:23:25.209671  3939 net.cpp:156] Memory required for data: 6756052992
I0629 04:23:25.209673  3939 layer_factory.hpp:77] Creating layer fc8
I0629 04:23:25.209678  3939 net.cpp:91] Creating Layer fc8
I0629 04:23:25.209681  3939 net.cpp:425] fc8 <- fc7
I0629 04:23:25.209683  3939 net.cpp:399] fc8 -> fc8
I0629 04:23:25.210417  3939 net.cpp:141] Setting up fc8
I0629 04:23:25.210424  3939 net.cpp:148] Top shape: 4 2 49 49 (19208)
I0629 04:23:25.210435  3939 net.cpp:156] Memory required for data: 6756129824
I0629 04:23:25.210441  3939 layer_factory.hpp:77] Creating layer upscore
I0629 04:23:25.210448  3939 net.cpp:91] Creating Layer upscore
I0629 04:23:25.210449  3939 net.cpp:425] upscore <- fc8
I0629 04:23:25.210454  3939 net.cpp:399] upscore -> upscore
I0629 04:23:25.210620  3939 net.cpp:141] Setting up upscore
I0629 04:23:25.210626  3939 net.cpp:148] Top shape: 4 2 400 400 (1280000)
I0629 04:23:25.210628  3939 net.cpp:156] Memory required for data: 6761249824
I0629 04:23:25.210633  3939 layer_factory.hpp:77] Creating layer score
I0629 04:23:25.210642  3939 net.cpp:91] Creating Layer score
I0629 04:23:25.210645  3939 net.cpp:425] score <- upscore
I0629 04:23:25.210647  3939 net.cpp:425] score <- next_im_cur_im_2_split_1
I0629 04:23:25.210651  3939 net.cpp:399] score -> score
I0629 04:23:25.210672  3939 net.cpp:141] Setting up score
I0629 04:23:25.210676  3939 net.cpp:148] Top shape: 4 2 384 384 (1179648)
I0629 04:23:25.210678  3939 net.cpp:156] Memory required for data: 6765968416
I0629 04:23:25.210680  3939 layer_factory.hpp:77] Creating layer score_score_0_split
I0629 04:23:25.210683  3939 net.cpp:91] Creating Layer score_score_0_split
I0629 04:23:25.210685  3939 net.cpp:425] score_score_0_split <- score
I0629 04:23:25.210695  3939 net.cpp:399] score_score_0_split -> score_score_0_split_0
I0629 04:23:25.210700  3939 net.cpp:399] score_score_0_split -> score_score_0_split_1
I0629 04:23:25.210727  3939 net.cpp:141] Setting up score_score_0_split
I0629 04:23:25.210732  3939 net.cpp:148] Top shape: 4 2 384 384 (1179648)
I0629 04:23:25.210734  3939 net.cpp:148] Top shape: 4 2 384 384 (1179648)
I0629 04:23:25.210736  3939 net.cpp:156] Memory required for data: 6775405600
I0629 04:23:25.210741  3939 layer_factory.hpp:77] Creating layer loss
I0629 04:23:25.210744  3939 net.cpp:91] Creating Layer loss
I0629 04:23:25.210747  3939 net.cpp:425] loss <- score_score_0_split_0
I0629 04:23:25.210749  3939 net.cpp:425] loss <- label
I0629 04:23:25.210755  3939 net.cpp:399] loss -> loss
I0629 04:23:25.210772  3939 layer_factory.hpp:77] Creating layer loss
I0629 04:23:25.212110  3939 net.cpp:141] Setting up loss
I0629 04:23:25.212122  3939 net.cpp:148] Top shape: (1)
I0629 04:23:25.212126  3939 net.cpp:151]     with loss weight 1
I0629 04:23:25.212141  3939 net.cpp:156] Memory required for data: 6775405604
I0629 04:23:25.212144  3939 layer_factory.hpp:77] Creating layer clinet_top
I0629 04:23:25.212601  3939 net.cpp:91] Creating Layer clinet_top
I0629 04:23:25.212609  3939 net.cpp:425] clinet_top <- score_score_0_split_1
I0629 04:23:25.212615  3939 net.cpp:399] clinet_top -> clinet_top
I0629 04:23:25.212903  3939 net.cpp:141] Setting up clinet_top
I0629 04:23:25.212910  3939 net.cpp:148] Top shape: 1 (1)
I0629 04:23:25.212913  3939 net.cpp:156] Memory required for data: 6775405608
I0629 04:23:25.212915  3939 net.cpp:219] clinet_top does not need backward computation.
I0629 04:23:25.212918  3939 net.cpp:217] loss needs backward computation.
I0629 04:23:25.212919  3939 net.cpp:217] score_score_0_split needs backward computation.
I0629 04:23:25.212921  3939 net.cpp:217] score needs backward computation.
…
