…
I0630 12:41:15.107748   410 solver.cpp:81] Creating training net from train_net file: train_davis_sequence_simple.prototxt
I0630 12:41:15.109551   410 net.cpp:49] Initializing net from parameters: 
state {
  phase: TRAIN
}
layer {
  name: "cur_im"
  type: "Python"
  top: "cur_im"
  top: "masked_im"
  top: "next_im"
  top: "label"
  python_param {
    module: "davis_datalayer_server"
    layer: "DavisDataLayerServer"
    param_str: "{\'shuffle\': True, \'im_shape\': (384, 384), \'batch_size\': 4, \'max_len\': 10, \'split\': \'training\', \'port\': \'6678\'}"
  }
}
layer {
  name: "conv1_1c"
  type: "Convolution"
  bottom: "cur_im"
  top: "conv1_1c"
  param {
    name: "conv1_1_w"
    lr_mult: 1
    decay_mult: 1
  }
  param {
    name: "conv1_1_b"
    lr_mult: 2
    decay_mult: 0
  }
  convolution_param {
    num_output: 64
    pad: 101
    kernel_size: 3
  }
}
layer {
  name: "relu1_1c"
  type: "ReLU"
  bottom: "conv1_1c"
  top: "conv1_1c"
}
layer {
  name: "conv1_2c"
  type: "Convolution"
  bottom: "conv1_1c"
  top: "conv1_2c"
  param {
    name: "conv1_2_w"
    lr_mult: 1
    decay_mult: 1
  }
  param {
    name: "conv1_2_b"
    lr_mult: 2
    decay_mult: 0
  }
  convolution_param {
    num_output: 64
    pad: 1
    kernel_size: 3
  }
}
layer {
  name: "relu1_2c"
  type: "ReLU"
  bottom: "conv1_2c"
  top: "conv1_2c"
}
layer {
  name: "pool1c"
  type: "Pooling"
  bottom: "conv1_2c"
  top: "pool1c"
  pooling_param {
    pool: MAX
    kernel_size: 2
    stride: 2
  }
}
layer {
  name: "conv2_1c"
  type: "Convolution"
  bottom: "pool1c"
  top: "conv2_1c"
  param {
    name: "conv2_1_w"
    lr_mult: 1
    decay_mult: 1
  }
  param {
    name: "conv2_1_b"
    lr_mult: 2
    decay_mult: 0
  }
  convolution_param {
    num_output: 128
    pad: 1
    kernel_size: 3
  }
}
layer {
  name: "relu2_1c"
  type: "ReLU"
  bottom: "conv2_1c"
  top: "conv2_1c"
}
layer {
  name: "conv2_2c"
  type: "Convolution"
  bottom: "conv2_1c"
  top: "conv2_2c"
  param {
    name: "conv2_2_w"
    lr_mult: 1
    decay_mult: 1
  }
  param {
    name: "conv2_2_b"
    lr_mult: 2
    decay_mult: 0
  }
  convolution_param {
    num_output: 128
    pad: 1
    kernel_size: 3
  }
}
layer {
  name: "relu2_2c"
  type: "ReLU"
  bottom: "conv2_2c"
  top: "conv2_2c"
}
layer {
  name: "pool2c"
  type: "Pooling"
  bottom: "conv2_2c"
  top: "pool2c"
  pooling_param {
    pool: MAX
    kernel_size: 2
    stride: 2
  }
}
layer {
  name: "conv3_1c"
  type: "Convolution"
  bottom: "pool2c"
  top: "conv3_1c"
  param {
    name: "conv3_1_w"
    lr_mult: 1
    decay_mult: 1
  }
  param {
    name: "conv3_1_b"
    lr_mult: 2
    decay_mult: 0
  }
  convolution_param {
    num_output: 256
    pad: 1
    kernel_size: 3
  }
}
layer {
  name: "relu3_1c"
  type: "ReLU"
  bottom: "conv3_1c"
  top: "conv3_1c"
}
layer {
  name: "conv3_2c"
  type: "Convolution"
  bottom: "conv3_1c"
  top: "conv3_2c"
  param {
    name: "conv3_2_w"
    lr_mult: 1
    decay_mult: 1
  }
  param {
    name: "conv3_2_b"
    lr_mult: 2
    decay_mult: 0
  }
  convolution_param {
    num_output: 256
    pad: 1
    kernel_size: 3
  }
}
layer {
  name: "relu3_2c"
  type: "ReLU"
  bottom: "conv3_2c"
  top: "conv3_2c"
}
layer {
  name: "conv3_3c"
  type: "Convolution"
  bottom: "conv3_2c"
  top: "conv3_3c"
  param {
    name: "conv3_3_w"
    lr_mult: 1
    decay_mult: 1
  }
  param {
    name: "conv3_3_b"
    lr_mult: 2
    decay_mult: 0
  }
  convolution_param {
    num_output: 256
    pad: 1
    kernel_size: 3
  }
}
layer {
  name: "relu3_3c"
  type: "ReLU"
  bottom: "conv3_3c"
  top: "conv3_3c"
}
layer {
  name: "pool3c"
  type: "Pooling"
  bottom: "conv3_3c"
  top: "pool3c"
  pooling_param {
    pool: MAX
    kernel_size: 2
    stride: 2
  }
}
layer {
  name: "conv4_1c"
  type: "Convolution"
  bottom: "pool3c"
  top: "conv4_1c"
  param {
    name: "conv4_1_w"
    lr_mult: 1
    decay_mult: 1
  }
  param {
    name: "conv4_1_b"
    lr_mult: 2
    decay_mult: 0
  }
  convolution_param {
    num_output: 512
    pad: 1
    kernel_size: 3
  }
}
layer {
  name: "relu4_1c"
  type: "ReLU"
  bottom: "conv4_1c"
  top: "conv4_1c"
}
layer {
  name: "conv4_2c"
  type: "Convolution"
  bottom: "conv4_1c"
  top: "conv4_2c"
  param {
    name: "conv4_2_w"
    lr_mult: 1
    decay_mult: 1
  }
  param {
    name: "conv4_2_b"
    lr_mult: 2
    decay_mult: 0
  }
  convolution_param {
    num_output: 512
    pad: 1
    kernel_size: 3
  }
}
layer {
  name: "relu4_2c"
  type: "ReLU"
  bottom: "conv4_2c"
  top: "conv4_2c"
}
layer {
  name: "conv4_3c"
  type: "Convolution"
  bottom: "conv4_2c"
  top: "conv4_3c"
  param {
    name: "conv4_3_w"
    lr_mult: 1
    decay_mult: 1
  }
  param {
    name: "conv4_3_b"
    lr_mult: 2
    decay_mult: 0
  }
  convolution_param {
    num_output: 512
    pad: 1
    kernel_size: 3
  }
}
layer {
  name: "relu4_3c"
  type: "ReLU"
  bottom: "conv4_3c"
  top: "conv4_3c"
}
layer {
  name: "conv5_1c"
  type: "Convolution"
  bottom: "conv4_3c"
  top: "conv5_1c"
  param {
    name: "conv5_1_w"
    lr_mult: 1
    decay_mult: 1
  }
  param {
    name: "conv5_1_b"
    lr_mult: 2
    decay_mult: 0
  }
  convolution_param {
    num_output: 512
    pad: 2
    kernel_size: 3
    dilation: 2
  }
}
layer {
  name: "relu5_1c"
  type: "ReLU"
  bottom: "conv5_1c"
  top: "conv5_1c"
}
layer {
  name: "conv5_2c"
  type: "Convolution"
  bottom: "conv5_1c"
  top: "conv5_2c"
  param {
    name: "conv5_2_w"
    lr_mult: 1
    decay_mult: 1
  }
  param {
    name: "conv5_2_b"
    lr_mult: 2
    decay_mult: 0
  }
  convolution_param {
    num_output: 512
    pad: 2
    kernel_size: 3
    dilation: 2
  }
}
layer {
  name: "relu5_2c"
  type: "ReLU"
  bottom: "conv5_2c"
  top: "conv5_2c"
}
layer {
  name: "conv5_3c"
  type: "Convolution"
  bottom: "conv5_2c"
  top: "conv5_3c"
  param {
    name: "conv5_3_w"
    lr_mult: 1
    decay_mult: 1
  }
  param {
    name: "conv5_3_b"
    lr_mult: 2
    decay_mult: 0
  }
  convolution_param {
    num_output: 512
    kernel_size: 3
    pad_h: 14
    pad_w: 14
    dilation: 2
  }
}
layer {
  name: "relu5_3c"
  type: "ReLU"
  bottom: "conv5_3c"
  top: "conv5_3c"
}
layer {
  name: "conv1_1m"
  type: "Convolution"
  bottom: "masked_im"
  top: "conv1_1m"
  param {
    name: "conv1_1_w"
    lr_mult: 1
    decay_mult: 1
  }
  param {
    name: "conv1_1_b"
    lr_mult: 2
    decay_mult: 0
  }
  convolution_param {
    num_output: 64
    pad: 101
    kernel_size: 3
  }
}
layer {
  name: "relu1_1m"
  type: "ReLU"
  bottom: "conv1_1m"
  top: "conv1_1m"
}
layer {
  name: "conv1_2m"
  type: "Convolution"
  bottom: "conv1_1m"
  top: "conv1_2m"
  param {
    name: "conv1_2_w"
    lr_mult: 1
    decay_mult: 1
  }
  param {
    name: "conv1_2_b"
    lr_mult: 2
    decay_mult: 0
  }
  convolution_param {
    num_output: 64
    pad: 1
    kernel_size: 3
  }
}
layer {
  name: "relu1_2m"
  type: "ReLU"
  bottom: "conv1_2m"
  top: "conv1_2m"
}
layer {
  name: "pool1m"
  type: "Pooling"
  bottom: "conv1_2m"
  top: "pool1m"
  pooling_param {
    pool: MAX
    kernel_size: 2
    stride: 2
  }
}
layer {
  name: "conv2_1m"
  type: "Convolution"
  bottom: "pool1m"
  top: "conv2_1m"
  param {
    name: "conv2_1_w"
    lr_mult: 1
    decay_mult: 1
  }
  param {
    name: "conv2_1_b"
    lr_mult: 2
    decay_mult: 0
  }
  convolution_param {
    num_output: 128
    pad: 1
    kernel_size: 3
  }
}
layer {
  name: "relu2_1m"
  type: "ReLU"
  bottom: "conv2_1m"
  top: "conv2_1m"
}
layer {
  name: "conv2_2m"
  type: "Convolution"
  bottom: "conv2_1m"
  top: "conv2_2m"
  param {
    name: "conv2_2_w"
    lr_mult: 1
    decay_mult: 1
  }
  param {
    name: "conv2_2_b"
    lr_mult: 2
    decay_mult: 0
  }
  convolution_param {
    num_output: 128
    pad: 1
    kernel_size: 3
  }
}
layer {
  name: "relu2_2m"
  type: "ReLU"
  bottom: "conv2_2m"
  top: "conv2_2m"
}
layer {
  name: "pool2m"
  type: "Pooling"
  bottom: "conv2_2m"
  top: "pool2m"
  pooling_param {
    pool: MAX
    kernel_size: 2
    stride: 2
  }
}
layer {
  name: "conv3_1m"
  type: "Convolution"
  bottom: "pool2m"
  top: "conv3_1m"
  param {
    name: "conv3_1_w"
    lr_mult: 1
    decay_mult: 1
  }
  param {
    name: "conv3_1_b"
    lr_mult: 2
    decay_mult: 0
  }
  convolution_param {
    num_output: 256
    pad: 1
    kernel_size: 3
  }
}
layer {
  name: "relu3_1m"
  type: "ReLU"
  bottom: "conv3_1m"
  top: "conv3_1m"
}
layer {
  name: "conv3_2m"
  type: "Convolution"
  bottom: "conv3_1m"
  top: "conv3_2m"
  param {
    name: "conv3_2_w"
    lr_mult: 1
    decay_mult: 1
  }
  param {
    name: "conv3_2_b"
    lr_mult: 2
    decay_mult: 0
  }
  convolution_param {
    num_output: 256
    pad: 1
    kernel_size: 3
  }
}
layer {
  name: "relu3_2m"
  type: "ReLU"
  bottom: "conv3_2m"
  top: "conv3_2m"
}
layer {
  name: "conv3_3m"
  type: "Convolution"
  bottom: "conv3_2m"
  top: "conv3_3m"
  param {
    name: "conv3_3_w"
    lr_mult: 1
    decay_mult: 1
  }
  param {
    name: "conv3_3_b"
    lr_mult: 2
    decay_mult: 0
  }
  convolution_param {
    num_output: 256
    pad: 1
    kernel_size: 3
  }
}
layer {
  name: "relu3_3m"
  type: "ReLU"
  bottom: "conv3_3m"
  top: "conv3_3m"
}
layer {
  name: "pool3m"
  type: "Pooling"
  bottom: "conv3_3m"
  top: "pool3m"
  pooling_param {
    pool: MAX
    kernel_size: 2
    stride: 2
  }
}
layer {
  name: "conv4_1m"
  type: "Convolution"
  bottom: "pool3m"
  top: "conv4_1m"
  param {
    name: "conv4_1_w"
    lr_mult: 1
    decay_mult: 1
  }
  param {
    name: "conv4_1_b"
    lr_mult: 2
    decay_mult: 0
  }
  convolution_param {
    num_output: 512
    pad: 1
    kernel_size: 3
  }
}
layer {
  name: "relu4_1m"
  type: "ReLU"
  bottom: "conv4_1m"
  top: "conv4_1m"
}
layer {
  name: "conv4_2m"
  type: "Convolution"
  bottom: "conv4_1m"
  top: "conv4_2m"
  param {
    name: "conv4_2_w"
    lr_mult: 1
    decay_mult: 1
  }
  param {
    name: "conv4_2_b"
    lr_mult: 2
    decay_mult: 0
  }
  convolution_param {
    num_output: 512
    pad: 1
    kernel_size: 3
  }
}
layer {
  name: "relu4_2m"
  type: "ReLU"
  bottom: "conv4_2m"
  top: "conv4_2m"
}
layer {
  name: "conv4_3m"
  type: "Convolution"
  bottom: "conv4_2m"
  top: "conv4_3m"
  param {
    name: "conv4_3_w"
    lr_mult: 1
    decay_mult: 1
  }
  param {
    name: "conv4_3_b"
    lr_mult: 2
    decay_mult: 0
  }
  convolution_param {
    num_output: 512
    pad: 1
    kernel_size: 3
  }
}
layer {
  name: "relu4_3m"
  type: "ReLU"
  bottom: "conv4_3m"
  top: "conv4_3m"
}
layer {
  name: "conv5_1m"
  type: "Convolution"
  bottom: "conv4_3m"
  top: "conv5_1m"
  param {
    name: "conv5_1_w"
    lr_mult: 1
    decay_mult: 1
  }
  param {
    name: "conv5_1_b"
    lr_mult: 2
    decay_mult: 0
  }
  convolution_param {
    num_output: 512
    pad: 2
    kernel_size: 3
    dilation: 2
  }
}
layer {
  name: "relu5_1m"
  type: "ReLU"
  bottom: "conv5_1m"
  top: "conv5_1m"
}
layer {
  name: "conv5_2m"
  type: "Convolution"
  bottom: "conv5_1m"
  top: "conv5_2m"
  param {
    name: "conv5_2_w"
    lr_mult: 1
    decay_mult: 1
  }
  param {
    name: "conv5_2_b"
    lr_mult: 2
    decay_mult: 0
  }
  convolution_param {
    num_output: 512
    pad: 2
    kernel_size: 3
    dilation: 2
  }
}
layer {
  name: "relu5_2m"
  type: "ReLU"
  bottom: "conv5_2m"
  top: "conv5_2m"
}
layer {
  name: "conv5_3m"
  type: "Convolution"
  bottom: "conv5_2m"
  top: "conv5_3m"
  param {
    name: "conv5_3_w"
    lr_mult: 1
    decay_mult: 1
  }
  param {
    name: "conv5_3_b"
    lr_mult: 2
    decay_mult: 0
  }
  convolution_param {
    num_output: 512
    kernel_size: 3
    pad_h: 14
    pad_w: 14
    dilation: 2
  }
}
layer {
  name: "relu5_3m"
  type: "ReLU"
  bottom: "conv5_3m"
  top: "conv5_3m"
}
layer {
  name: "conv1_1n"
  type: "Convolution"
  bottom: "next_im"
  top: "conv1_1n"
  param {
    name: "conv1_1_w"
    lr_mult: 1
    decay_mult: 1
  }
  param {
    name: "conv1_1_b"
    lr_mult: 2
    decay_mult: 0
  }
  convolution_param {
    num_output: 64
    pad: 101
    kernel_size: 3
  }
}
layer {
  name: "relu1_1n"
  type: "ReLU"
  bottom: "conv1_1n"
  top: "conv1_1n"
}
layer {
  name: "conv1_2n"
  type: "Convolution"
  bottom: "conv1_1n"
  top: "conv1_2n"
  param {
    name: "conv1_2_w"
    lr_mult: 1
    decay_mult: 1
  }
  param {
    name: "conv1_2_b"
    lr_mult: 2
    decay_mult: 0
  }
  convolution_param {
    num_output: 64
    pad: 1
    kernel_size: 3
  }
}
layer {
  name: "relu1_2n"
  type: "ReLU"
  bottom: "conv1_2n"
  top: "conv1_2n"
}
layer {
  name: "pool1n"
  type: "Pooling"
  bottom: "conv1_2n"
  top: "pool1n"
  pooling_param {
    pool: MAX
    kernel_size: 2
    stride: 2
  }
}
layer {
  name: "conv2_1n"
  type: "Convolution"
  bottom: "pool1n"
  top: "conv2_1n"
  param {
    name: "conv2_1_w"
    lr_mult: 1
    decay_mult: 1
  }
  param {
    name: "conv2_1_b"
    lr_mult: 2
    decay_mult: 0
  }
  convolution_param {
    num_output: 128
    pad: 1
    kernel_size: 3
  }
}
layer {
  name: "relu2_1n"
  type: "ReLU"
  bottom: "conv2_1n"
  top: "conv2_1n"
}
layer {
  name: "conv2_2n"
  type: "Convolution"
  bottom: "conv2_1n"
  top: "conv2_2n"
  param {
    name: "conv2_2_w"
    lr_mult: 1
    decay_mult: 1
  }
  param {
    name: "conv2_2_b"
    lr_mult: 2
    decay_mult: 0
  }
  convolution_param {
    num_output: 128
    pad: 1
    kernel_size: 3
  }
}
layer {
  name: "relu2_2n"
  type: "ReLU"
  bottom: "conv2_2n"
  top: "conv2_2n"
}
layer {
  name: "pool2n"
  type: "Pooling"
  bottom: "conv2_2n"
  top: "pool2n"
  pooling_param {
    pool: MAX
    kernel_size: 2
    stride: 2
  }
}
layer {
  name: "conv3_1n"
  type: "Convolution"
  bottom: "pool2n"
  top: "conv3_1n"
  param {
    name: "conv3_1_w"
    lr_mult: 1
    decay_mult: 1
  }
  param {
    name: "conv3_1_b"
    lr_mult: 2
    decay_mult: 0
  }
  convolution_param {
    num_output: 256
    pad: 1
    kernel_size: 3
  }
}
layer {
  name: "relu3_1n"
  type: "ReLU"
  bottom: "conv3_1n"
  top: "conv3_1n"
}
layer {
  name: "conv3_2n"
  type: "Convolution"
  bottom: "conv3_1n"
  top: "conv3_2n"
  param {
    name: "conv3_2_w"
    lr_mult: 1
    decay_mult: 1
  }
  param {
    name: "conv3_2_b"
    lr_mult: 2
    decay_mult: 0
  }
  convolution_param {
    num_output: 256
    pad: 1
    kernel_size: 3
  }
}
layer {
  name: "relu3_2n"
  type: "ReLU"
  bottom: "conv3_2n"
  top: "conv3_2n"
}
layer {
  name: "conv3_3n"
  type: "Convolution"
  bottom: "conv3_2n"
  top: "conv3_3n"
  param {
    name: "conv3_3_w"
    lr_mult: 1
    decay_mult: 1
  }
  param {
    name: "conv3_3_b"
    lr_mult: 2
    decay_mult: 0
  }
  convolution_param {
    num_output: 256
    pad: 1
    kernel_size: 3
  }
}
layer {
  name: "relu3_3n"
  type: "ReLU"
  bottom: "conv3_3n"
  top: "conv3_3n"
}
layer {
  name: "pool3n"
  type: "Pooling"
  bottom: "conv3_3n"
  top: "pool3n"
  pooling_param {
    pool: MAX
    kernel_size: 2
    stride: 2
  }
}
layer {
  name: "conv4_1n"
  type: "Convolution"
  bottom: "pool3n"
  top: "conv4_1n"
  param {
    name: "conv4_1_w"
    lr_mult: 1
    decay_mult: 1
  }
  param {
    name: "conv4_1_b"
    lr_mult: 2
    decay_mult: 0
  }
  convolution_param {
    num_output: 512
    pad: 1
    kernel_size: 3
  }
}
layer {
  name: "relu4_1n"
  type: "ReLU"
  bottom: "conv4_1n"
  top: "conv4_1n"
}
layer {
  name: "conv4_2n"
  type: "Convolution"
  bottom: "conv4_1n"
  top: "conv4_2n"
  param {
    name: "conv4_2_w"
    lr_mult: 1
    decay_mult: 1
  }
  param {
    name: "conv4_2_b"
    lr_mult: 2
    decay_mult: 0
  }
  convolution_param {
    num_output: 512
    pad: 1
    kernel_size: 3
  }
}
layer {
  name: "relu4_2n"
  type: "ReLU"
  bottom: "conv4_2n"
  top: "conv4_2n"
}
layer {
  name: "conv4_3n"
  type: "Convolution"
  bottom: "conv4_2n"
  top: "conv4_3n"
  param {
    name: "conv4_3_w"
    lr_mult: 1
    decay_mult: 1
  }
  param {
    name: "conv4_3_b"
    lr_mult: 2
    decay_mult: 0
  }
  convolution_param {
    num_output: 512
    pad: 1
    kernel_size: 3
  }
}
layer {
  name: "relu4_3n"
  type: "ReLU"
  bottom: "conv4_3n"
  top: "conv4_3n"
}
layer {
  name: "conv5_1n"
  type: "Convolution"
  bottom: "conv4_3n"
  top: "conv5_1n"
  param {
    name: "conv5_1_w"
    lr_mult: 1
    decay_mult: 1
  }
  param {
    name: "conv5_1_b"
    lr_mult: 2
    decay_mult: 0
  }
  convolution_param {
    num_output: 512
    pad: 2
    kernel_size: 3
    dilation: 2
  }
}
layer {
  name: "relu5_1n"
  type: "ReLU"
  bottom: "conv5_1n"
  top: "conv5_1n"
}
layer {
  name: "conv5_2n"
  type: "Convolution"
  bottom: "conv5_1n"
  top: "conv5_2n"
  param {
    name: "conv5_2_w"
    lr_mult: 1
    decay_mult: 1
  }
  param {
    name: "conv5_2_b"
    lr_mult: 2
    decay_mult: 0
  }
  convolution_param {
    num_output: 512
    pad: 2
    kernel_size: 3
    dilation: 2
  }
}
layer {
  name: "relu5_2n"
  type: "ReLU"
  bottom: "conv5_2n"
  top: "conv5_2n"
}
layer {
  name: "conv5_3n"
  type: "Convolution"
  bottom: "conv5_2n"
  top: "conv5_3n"
  param {
    name: "conv5_3_w"
    lr_mult: 1
    decay_mult: 1
  }
  param {
    name: "conv5_3_b"
    lr_mult: 2
    decay_mult: 0
  }
  convolution_param {
    num_output: 512
    pad: 2
    kernel_size: 3
    dilation: 2
  }
}
layer {
  name: "relu5_3n"
  type: "ReLU"
  bottom: "conv5_3n"
  top: "conv5_3n"
}
layer {
  name: "concat1"
  type: "Concat"
  bottom: "conv5_3c"
  bottom: "conv5_3m"
  bottom: "conv5_3n"
  top: "concat1"
}
layer {
  name: "fc6"
  type: "Convolution"
  bottom: "concat1"
  top: "fc6"
  param {
    lr_mult: 1
    decay_mult: 1
  }
  param {
    lr_mult: 2
    decay_mult: 0
  }
  convolution_param {
    num_output: 1024
    kernel_size: 7
    dilation: 4
  }
}
layer {
  name: "relu6"
  type: "ReLU"
  bottom: "fc6"
  top: "fc6"
}
layer {
  name: "drop6"
  type: "Dropout"
  bottom: "fc6"
  top: "fc6"
  dropout_param {
    dropout_ratio: 0.5
  }
}
layer {
  name: "fc7"
  type: "Convolution"
  bottom: "fc6"
  top: "fc7"
  param {
    lr_mult: 1
    decay_mult: 1
  }
  param {
    lr_mult: 2
    decay_mult: 0
  }
  convolution_param {
    num_output: 1024
    kernel_size: 1
  }
}
layer {
  name: "relu7"
  type: "ReLU"
  bottom: "fc7"
  top: "fc7"
}
layer {
  name: "drop7"
  type: "Dropout"
  bottom: "fc7"
  top: "fc7"
  dropout_param {
    dropout_ratio: 0.5
  }
}
layer {
  name: "fc8"
  type: "Convolution"
  bottom: "fc7"
  top: "fc8"
  param {
    lr_mult: 1
    decay_mult: 1
  }
  param {
    lr_mult: 2
    decay_mult: 0
  }
  convolution_param {
    num_output: 2
    kernel_size: 1
  }
}
layer {
  name: "upscore"
  type: "Deconvolution"
  bottom: "fc8"
  top: "upscore"
  param {
    lr_mult: 0
    decay_mult: 0
  }
  convolution_param {
    num_output: 2
    bias_term: false
    kernel_size: 16
    group: 2
    stride: 8
    weight_filler {
      type: "bilinear"
    }
  }
}
layer {
  name: "score"
  type: "Crop"
  bottom: "upscore"
  bottom: "next_im"
  top: "score"
  crop_param {
    axis: 2
    offset: 8
  }
}
layer {
  name: "crf_score"
  type: "MultiStageMeanfield"
  bottom: "score"
  bottom: "score"
  bottom: "next_im"
  top: "crf_score"
  param {
    lr_mult: 0.001
    decay_mult: 1
  }
  param {
    lr_mult: 0.001
    decay_mult: 1
  }
  param {
    lr_mult: 0.01
    decay_mult: 1
  }
  multi_stage_meanfield_param {
    compatibility_mode: POTTS
    threshold: 2
    theta_alpha: 160
    theta_beta: 0.011764706
    theta_gamma: 3
    num_iterations: 5
    spatial_filter_weight: 3
    bilateral_filter_weight: 5
  }
}
layer {
  name: "loss"
  type: "SoftmaxWithLoss"
  bottom: "crf_score"
  bottom: "label"
  top: "loss"
  loss_param {
    ignore_label: 255
  }
}
layer {
  name: "clinet_top"
  type: "Python"
  bottom: "crf_score"
  top: "clinet_top"
  python_param {
    module: "davis_datalayer_client"
    layer: "DavisDataLayerClient"
    param_str: "{\'port\': \'6678\'}"
  }
}
I0630 12:41:15.109844   410 layer_factory.hpp:77] Creating layer cur_im
/home/amir/davis/python/lib/davis/measures/t_stability.py:6: RuntimeWarning: to-Python converter for std::vector<bool, std::allocator<bool> > already registered; second conversion method ignored.
  from tstab import *
I0630 12:41:15.697448   410 net.cpp:91] Creating Layer cur_im
I0630 12:41:15.697487   410 net.cpp:399] cur_im -> cur_im
I0630 12:41:15.697500   410 net.cpp:399] cur_im -> masked_im
I0630 12:41:15.697507   410 net.cpp:399] cur_im -> next_im
I0630 12:41:15.697512   410 net.cpp:399] cur_im -> label
I0630 12:41:15.742734   410 net.cpp:141] Setting up cur_im
I0630 12:41:15.742766   410 net.cpp:148] Top shape: 4 3 192 192 (442368)
I0630 12:41:15.742771   410 net.cpp:148] Top shape: 4 3 192 192 (442368)
I0630 12:41:15.742774   410 net.cpp:148] Top shape: 4 3 384 384 (1769472)
I0630 12:41:15.742776   410 net.cpp:148] Top shape: 4 1 384 384 (589824)
I0630 12:41:15.742779   410 net.cpp:156] Memory required for data: 12976128
I0630 12:41:15.742787   410 layer_factory.hpp:77] Creating layer next_im_cur_im_2_split
I0630 12:41:15.742802   410 net.cpp:91] Creating Layer next_im_cur_im_2_split
I0630 12:41:15.742806   410 net.cpp:425] next_im_cur_im_2_split <- next_im
I0630 12:41:15.742821   410 net.cpp:399] next_im_cur_im_2_split -> next_im_cur_im_2_split_0
I0630 12:41:15.742832   410 net.cpp:399] next_im_cur_im_2_split -> next_im_cur_im_2_split_1
I0630 12:41:15.742840   410 net.cpp:399] next_im_cur_im_2_split -> next_im_cur_im_2_split_2
I0630 12:41:15.742872   410 net.cpp:141] Setting up next_im_cur_im_2_split
I0630 12:41:15.742883   410 net.cpp:148] Top shape: 4 3 384 384 (1769472)
I0630 12:41:15.742888   410 net.cpp:148] Top shape: 4 3 384 384 (1769472)
I0630 12:41:15.742892   410 net.cpp:148] Top shape: 4 3 384 384 (1769472)
I0630 12:41:15.742897   410 net.cpp:156] Memory required for data: 34209792
I0630 12:41:15.742899   410 layer_factory.hpp:77] Creating layer conv1_1c
I0630 12:41:15.742920   410 net.cpp:91] Creating Layer conv1_1c
I0630 12:41:15.742926   410 net.cpp:425] conv1_1c <- cur_im
I0630 12:41:15.742935   410 net.cpp:399] conv1_1c -> conv1_1c
I0630 12:41:15.852222   410 net.cpp:141] Setting up conv1_1c
I0630 12:41:15.852280   410 net.cpp:148] Top shape: 4 64 392 392 (39337984)
I0630 12:41:15.852285   410 net.cpp:156] Memory required for data: 191561728
I0630 12:41:15.852320   410 layer_factory.hpp:77] Creating layer relu1_1c
I0630 12:41:15.852341   410 net.cpp:91] Creating Layer relu1_1c
I0630 12:41:15.852350   410 net.cpp:425] relu1_1c <- conv1_1c
I0630 12:41:15.852360   410 net.cpp:386] relu1_1c -> conv1_1c (in-place)
I0630 12:41:15.852573   410 net.cpp:141] Setting up relu1_1c
I0630 12:41:15.852586   410 net.cpp:148] Top shape: 4 64 392 392 (39337984)
I0630 12:41:15.852589   410 net.cpp:156] Memory required for data: 348913664
I0630 12:41:15.852601   410 layer_factory.hpp:77] Creating layer conv1_2c
I0630 12:41:15.852624   410 net.cpp:91] Creating Layer conv1_2c
I0630 12:41:15.852630   410 net.cpp:425] conv1_2c <- conv1_1c
I0630 12:41:15.852643   410 net.cpp:399] conv1_2c -> conv1_2c
I0630 12:41:15.855079   410 net.cpp:141] Setting up conv1_2c
I0630 12:41:15.855144   410 net.cpp:148] Top shape: 4 64 392 392 (39337984)
I0630 12:41:15.855150   410 net.cpp:156] Memory required for data: 506265600
I0630 12:41:15.855171   410 layer_factory.hpp:77] Creating layer relu1_2c
I0630 12:41:15.855185   410 net.cpp:91] Creating Layer relu1_2c
I0630 12:41:15.855193   410 net.cpp:425] relu1_2c <- conv1_2c
I0630 12:41:15.855204   410 net.cpp:386] relu1_2c -> conv1_2c (in-place)
I0630 12:41:15.855515   410 net.cpp:141] Setting up relu1_2c
I0630 12:41:15.855525   410 net.cpp:148] Top shape: 4 64 392 392 (39337984)
I0630 12:41:15.855527   410 net.cpp:156] Memory required for data: 663617536
I0630 12:41:15.855531   410 layer_factory.hpp:77] Creating layer pool1c
I0630 12:41:15.855542   410 net.cpp:91] Creating Layer pool1c
I0630 12:41:15.855547   410 net.cpp:425] pool1c <- conv1_2c
I0630 12:41:15.855553   410 net.cpp:399] pool1c -> pool1c
I0630 12:41:15.855609   410 net.cpp:141] Setting up pool1c
I0630 12:41:15.855615   410 net.cpp:148] Top shape: 4 64 196 196 (9834496)
I0630 12:41:15.855619   410 net.cpp:156] Memory required for data: 702955520
I0630 12:41:15.855624   410 layer_factory.hpp:77] Creating layer conv2_1c
I0630 12:41:15.855638   410 net.cpp:91] Creating Layer conv2_1c
I0630 12:41:15.855643   410 net.cpp:425] conv2_1c <- pool1c
I0630 12:41:15.855648   410 net.cpp:399] conv2_1c -> conv2_1c
I0630 12:41:15.856621   410 net.cpp:141] Setting up conv2_1c
I0630 12:41:15.856637   410 net.cpp:148] Top shape: 4 128 196 196 (19668992)
I0630 12:41:15.856659   410 net.cpp:156] Memory required for data: 781631488
I0630 12:41:15.856681   410 layer_factory.hpp:77] Creating layer relu2_1c
I0630 12:41:15.856694   410 net.cpp:91] Creating Layer relu2_1c
I0630 12:41:15.856699   410 net.cpp:425] relu2_1c <- conv2_1c
I0630 12:41:15.856708   410 net.cpp:386] relu2_1c -> conv2_1c (in-place)
I0630 12:41:15.856843   410 net.cpp:141] Setting up relu2_1c
I0630 12:41:15.856851   410 net.cpp:148] Top shape: 4 128 196 196 (19668992)
I0630 12:41:15.856854   410 net.cpp:156] Memory required for data: 860307456
I0630 12:41:15.856858   410 layer_factory.hpp:77] Creating layer conv2_2c
I0630 12:41:15.856868   410 net.cpp:91] Creating Layer conv2_2c
I0630 12:41:15.856871   410 net.cpp:425] conv2_2c <- conv2_1c
I0630 12:41:15.856874   410 net.cpp:399] conv2_2c -> conv2_2c
I0630 12:41:15.857919   410 net.cpp:141] Setting up conv2_2c
I0630 12:41:15.857929   410 net.cpp:148] Top shape: 4 128 196 196 (19668992)
I0630 12:41:15.857933   410 net.cpp:156] Memory required for data: 938983424
I0630 12:41:15.857936   410 layer_factory.hpp:77] Creating layer relu2_2c
I0630 12:41:15.857940   410 net.cpp:91] Creating Layer relu2_2c
I0630 12:41:15.857942   410 net.cpp:425] relu2_2c <- conv2_2c
I0630 12:41:15.857946   410 net.cpp:386] relu2_2c -> conv2_2c (in-place)
I0630 12:41:15.858052   410 net.cpp:141] Setting up relu2_2c
I0630 12:41:15.858057   410 net.cpp:148] Top shape: 4 128 196 196 (19668992)
I0630 12:41:15.858059   410 net.cpp:156] Memory required for data: 1017659392
I0630 12:41:15.858062   410 layer_factory.hpp:77] Creating layer pool2c
I0630 12:41:15.858072   410 net.cpp:91] Creating Layer pool2c
I0630 12:41:15.858074   410 net.cpp:425] pool2c <- conv2_2c
I0630 12:41:15.858078   410 net.cpp:399] pool2c -> pool2c
I0630 12:41:15.858105   410 net.cpp:141] Setting up pool2c
I0630 12:41:15.858111   410 net.cpp:148] Top shape: 4 128 98 98 (4917248)
I0630 12:41:15.858114   410 net.cpp:156] Memory required for data: 1037328384
I0630 12:41:15.858117   410 layer_factory.hpp:77] Creating layer conv3_1c
I0630 12:41:15.858131   410 net.cpp:91] Creating Layer conv3_1c
I0630 12:41:15.858139   410 net.cpp:425] conv3_1c <- pool2c
I0630 12:41:15.858142   410 net.cpp:399] conv3_1c -> conv3_1c
I0630 12:41:15.859822   410 net.cpp:141] Setting up conv3_1c
I0630 12:41:15.859846   410 net.cpp:148] Top shape: 4 256 98 98 (9834496)
I0630 12:41:15.859849   410 net.cpp:156] Memory required for data: 1076666368
I0630 12:41:15.859864   410 layer_factory.hpp:77] Creating layer relu3_1c
I0630 12:41:15.859875   410 net.cpp:91] Creating Layer relu3_1c
I0630 12:41:15.859879   410 net.cpp:425] relu3_1c <- conv3_1c
I0630 12:41:15.859884   410 net.cpp:386] relu3_1c -> conv3_1c (in-place)
I0630 12:41:15.860122   410 net.cpp:141] Setting up relu3_1c
I0630 12:41:15.860134   410 net.cpp:148] Top shape: 4 256 98 98 (9834496)
I0630 12:41:15.860136   410 net.cpp:156] Memory required for data: 1116004352
I0630 12:41:15.860139   410 layer_factory.hpp:77] Creating layer conv3_2c
I0630 12:41:15.860149   410 net.cpp:91] Creating Layer conv3_2c
I0630 12:41:15.860152   410 net.cpp:425] conv3_2c <- conv3_1c
I0630 12:41:15.860158   410 net.cpp:399] conv3_2c -> conv3_2c
I0630 12:41:15.861860   410 net.cpp:141] Setting up conv3_2c
I0630 12:41:15.861878   410 net.cpp:148] Top shape: 4 256 98 98 (9834496)
I0630 12:41:15.861881   410 net.cpp:156] Memory required for data: 1155342336
I0630 12:41:15.861888   410 layer_factory.hpp:77] Creating layer relu3_2c
I0630 12:41:15.861896   410 net.cpp:91] Creating Layer relu3_2c
I0630 12:41:15.861901   410 net.cpp:425] relu3_2c <- conv3_2c
I0630 12:41:15.861908   410 net.cpp:386] relu3_2c -> conv3_2c (in-place)
I0630 12:41:15.862047   410 net.cpp:141] Setting up relu3_2c
I0630 12:41:15.862056   410 net.cpp:148] Top shape: 4 256 98 98 (9834496)
I0630 12:41:15.862059   410 net.cpp:156] Memory required for data: 1194680320
I0630 12:41:15.862066   410 layer_factory.hpp:77] Creating layer conv3_3c
I0630 12:41:15.862079   410 net.cpp:91] Creating Layer conv3_3c
I0630 12:41:15.862084   410 net.cpp:425] conv3_3c <- conv3_2c
I0630 12:41:15.862102   410 net.cpp:399] conv3_3c -> conv3_3c
I0630 12:41:15.863584   410 net.cpp:141] Setting up conv3_3c
I0630 12:41:15.863600   410 net.cpp:148] Top shape: 4 256 98 98 (9834496)
I0630 12:41:15.863602   410 net.cpp:156] Memory required for data: 1234018304
I0630 12:41:15.863610   410 layer_factory.hpp:77] Creating layer relu3_3c
I0630 12:41:15.863616   410 net.cpp:91] Creating Layer relu3_3c
I0630 12:41:15.863622   410 net.cpp:425] relu3_3c <- conv3_3c
I0630 12:41:15.863628   410 net.cpp:386] relu3_3c -> conv3_3c (in-place)
I0630 12:41:15.863736   410 net.cpp:141] Setting up relu3_3c
I0630 12:41:15.863742   410 net.cpp:148] Top shape: 4 256 98 98 (9834496)
I0630 12:41:15.863744   410 net.cpp:156] Memory required for data: 1273356288
I0630 12:41:15.863746   410 layer_factory.hpp:77] Creating layer pool3c
I0630 12:41:15.863754   410 net.cpp:91] Creating Layer pool3c
I0630 12:41:15.863756   410 net.cpp:425] pool3c <- conv3_3c
I0630 12:41:15.863759   410 net.cpp:399] pool3c -> pool3c
I0630 12:41:15.863790   410 net.cpp:141] Setting up pool3c
I0630 12:41:15.863793   410 net.cpp:148] Top shape: 4 256 49 49 (2458624)
I0630 12:41:15.863795   410 net.cpp:156] Memory required for data: 1283190784
I0630 12:41:15.863800   410 layer_factory.hpp:77] Creating layer conv4_1c
I0630 12:41:15.863804   410 net.cpp:91] Creating Layer conv4_1c
I0630 12:41:15.863806   410 net.cpp:425] conv4_1c <- pool3c
I0630 12:41:15.863811   410 net.cpp:399] conv4_1c -> conv4_1c
I0630 12:41:15.866077   410 net.cpp:141] Setting up conv4_1c
I0630 12:41:15.866092   410 net.cpp:148] Top shape: 4 512 49 49 (4917248)
I0630 12:41:15.866096   410 net.cpp:156] Memory required for data: 1302859776
I0630 12:41:15.866101   410 layer_factory.hpp:77] Creating layer relu4_1c
I0630 12:41:15.866106   410 net.cpp:91] Creating Layer relu4_1c
I0630 12:41:15.866108   410 net.cpp:425] relu4_1c <- conv4_1c
I0630 12:41:15.866113   410 net.cpp:386] relu4_1c -> conv4_1c (in-place)
I0630 12:41:15.866318   410 net.cpp:141] Setting up relu4_1c
I0630 12:41:15.866327   410 net.cpp:148] Top shape: 4 512 49 49 (4917248)
I0630 12:41:15.866328   410 net.cpp:156] Memory required for data: 1322528768
I0630 12:41:15.866330   410 layer_factory.hpp:77] Creating layer conv4_2c
I0630 12:41:15.866339   410 net.cpp:91] Creating Layer conv4_2c
I0630 12:41:15.866343   410 net.cpp:425] conv4_2c <- conv4_1c
I0630 12:41:15.866348   410 net.cpp:399] conv4_2c -> conv4_2c
I0630 12:41:15.869968   410 net.cpp:141] Setting up conv4_2c
I0630 12:41:15.869987   410 net.cpp:148] Top shape: 4 512 49 49 (4917248)
I0630 12:41:15.869990   410 net.cpp:156] Memory required for data: 1342197760
I0630 12:41:15.870002   410 layer_factory.hpp:77] Creating layer relu4_2c
I0630 12:41:15.870008   410 net.cpp:91] Creating Layer relu4_2c
I0630 12:41:15.870012   410 net.cpp:425] relu4_2c <- conv4_2c
I0630 12:41:15.870015   410 net.cpp:386] relu4_2c -> conv4_2c (in-place)
I0630 12:41:15.870121   410 net.cpp:141] Setting up relu4_2c
I0630 12:41:15.870127   410 net.cpp:148] Top shape: 4 512 49 49 (4917248)
I0630 12:41:15.870131   410 net.cpp:156] Memory required for data: 1361866752
I0630 12:41:15.870134   410 layer_factory.hpp:77] Creating layer conv4_3c
I0630 12:41:15.870143   410 net.cpp:91] Creating Layer conv4_3c
I0630 12:41:15.870146   410 net.cpp:425] conv4_3c <- conv4_2c
I0630 12:41:15.870149   410 net.cpp:399] conv4_3c -> conv4_3c
I0630 12:41:15.873600   410 net.cpp:141] Setting up conv4_3c
I0630 12:41:15.873620   410 net.cpp:148] Top shape: 4 512 49 49 (4917248)
I0630 12:41:15.873622   410 net.cpp:156] Memory required for data: 1381535744
I0630 12:41:15.873628   410 layer_factory.hpp:77] Creating layer relu4_3c
I0630 12:41:15.873636   410 net.cpp:91] Creating Layer relu4_3c
I0630 12:41:15.873641   410 net.cpp:425] relu4_3c <- conv4_3c
I0630 12:41:15.873654   410 net.cpp:386] relu4_3c -> conv4_3c (in-place)
I0630 12:41:15.873780   410 net.cpp:141] Setting up relu4_3c
I0630 12:41:15.873786   410 net.cpp:148] Top shape: 4 512 49 49 (4917248)
I0630 12:41:15.873788   410 net.cpp:156] Memory required for data: 1401204736
I0630 12:41:15.873800   410 layer_factory.hpp:77] Creating layer conv5_1c
I0630 12:41:15.873807   410 net.cpp:91] Creating Layer conv5_1c
I0630 12:41:15.873811   410 net.cpp:425] conv5_1c <- conv4_3c
I0630 12:41:15.873816   410 net.cpp:399] conv5_1c -> conv5_1c
I0630 12:41:15.876744   410 net.cpp:141] Setting up conv5_1c
I0630 12:41:15.876765   410 net.cpp:148] Top shape: 4 512 49 49 (4917248)
I0630 12:41:15.876767   410 net.cpp:156] Memory required for data: 1420873728
I0630 12:41:15.876775   410 layer_factory.hpp:77] Creating layer relu5_1c
I0630 12:41:15.876780   410 net.cpp:91] Creating Layer relu5_1c
I0630 12:41:15.876783   410 net.cpp:425] relu5_1c <- conv5_1c
I0630 12:41:15.876788   410 net.cpp:386] relu5_1c -> conv5_1c (in-place)
I0630 12:41:15.877056   410 net.cpp:141] Setting up relu5_1c
I0630 12:41:15.877064   410 net.cpp:148] Top shape: 4 512 49 49 (4917248)
I0630 12:41:15.877066   410 net.cpp:156] Memory required for data: 1440542720
I0630 12:41:15.877071   410 layer_factory.hpp:77] Creating layer conv5_2c
I0630 12:41:15.877079   410 net.cpp:91] Creating Layer conv5_2c
I0630 12:41:15.877081   410 net.cpp:425] conv5_2c <- conv5_1c
I0630 12:41:15.877086   410 net.cpp:399] conv5_2c -> conv5_2c
I0630 12:41:15.879971   410 net.cpp:141] Setting up conv5_2c
I0630 12:41:15.879988   410 net.cpp:148] Top shape: 4 512 49 49 (4917248)
I0630 12:41:15.879992   410 net.cpp:156] Memory required for data: 1460211712
I0630 12:41:15.879998   410 layer_factory.hpp:77] Creating layer relu5_2c
I0630 12:41:15.880004   410 net.cpp:91] Creating Layer relu5_2c
I0630 12:41:15.880007   410 net.cpp:425] relu5_2c <- conv5_2c
I0630 12:41:15.880012   410 net.cpp:386] relu5_2c -> conv5_2c (in-place)
I0630 12:41:15.880276   410 net.cpp:141] Setting up relu5_2c
I0630 12:41:15.880283   410 net.cpp:148] Top shape: 4 512 49 49 (4917248)
I0630 12:41:15.880286   410 net.cpp:156] Memory required for data: 1479880704
I0630 12:41:15.880288   410 layer_factory.hpp:77] Creating layer conv5_3c
I0630 12:41:15.880297   410 net.cpp:91] Creating Layer conv5_3c
I0630 12:41:15.880300   410 net.cpp:425] conv5_3c <- conv5_2c
I0630 12:41:15.880305   410 net.cpp:399] conv5_3c -> conv5_3c
I0630 12:41:15.884294   410 net.cpp:141] Setting up conv5_3c
I0630 12:41:15.884312   410 net.cpp:148] Top shape: 4 512 73 73 (10913792)
I0630 12:41:15.884315   410 net.cpp:156] Memory required for data: 1523535872
I0630 12:41:15.884322   410 layer_factory.hpp:77] Creating layer relu5_3c
I0630 12:41:15.884328   410 net.cpp:91] Creating Layer relu5_3c
I0630 12:41:15.884331   410 net.cpp:425] relu5_3c <- conv5_3c
I0630 12:41:15.884335   410 net.cpp:386] relu5_3c -> conv5_3c (in-place)
I0630 12:41:15.884508   410 net.cpp:141] Setting up relu5_3c
I0630 12:41:15.884515   410 net.cpp:148] Top shape: 4 512 73 73 (10913792)
I0630 12:41:15.884517   410 net.cpp:156] Memory required for data: 1567191040
I0630 12:41:15.884521   410 layer_factory.hpp:77] Creating layer conv1_1m
I0630 12:41:15.884526   410 net.cpp:91] Creating Layer conv1_1m
I0630 12:41:15.884529   410 net.cpp:425] conv1_1m <- masked_im
I0630 12:41:15.884534   410 net.cpp:399] conv1_1m -> conv1_1m
I0630 12:41:15.885519   410 net.cpp:141] Setting up conv1_1m
I0630 12:41:15.885526   410 net.cpp:148] Top shape: 4 64 392 392 (39337984)
I0630 12:41:15.885529   410 net.cpp:156] Memory required for data: 1724542976
I0630 12:41:15.885532   410 net.cpp:484] Sharing parameters 'conv1_1_w' owned by layer 'conv1_1c', param index 0
I0630 12:41:15.885535   410 net.cpp:484] Sharing parameters 'conv1_1_b' owned by layer 'conv1_1c', param index 1
I0630 12:41:15.885537   410 layer_factory.hpp:77] Creating layer relu1_1m
I0630 12:41:15.885545   410 net.cpp:91] Creating Layer relu1_1m
I0630 12:41:15.885546   410 net.cpp:425] relu1_1m <- conv1_1m
I0630 12:41:15.885551   410 net.cpp:386] relu1_1m -> conv1_1m (in-place)
I0630 12:41:15.885661   410 net.cpp:141] Setting up relu1_1m
I0630 12:41:15.885668   410 net.cpp:148] Top shape: 4 64 392 392 (39337984)
I0630 12:41:15.885669   410 net.cpp:156] Memory required for data: 1881894912
I0630 12:41:15.885679   410 layer_factory.hpp:77] Creating layer conv1_2m
I0630 12:41:15.885684   410 net.cpp:91] Creating Layer conv1_2m
I0630 12:41:15.885686   410 net.cpp:425] conv1_2m <- conv1_1m
I0630 12:41:15.885691   410 net.cpp:399] conv1_2m -> conv1_2m
I0630 12:41:15.886626   410 net.cpp:141] Setting up conv1_2m
I0630 12:41:15.886633   410 net.cpp:148] Top shape: 4 64 392 392 (39337984)
I0630 12:41:15.886636   410 net.cpp:156] Memory required for data: 2039246848
I0630 12:41:15.886638   410 net.cpp:484] Sharing parameters 'conv1_2_w' owned by layer 'conv1_2c', param index 0
I0630 12:41:15.886641   410 net.cpp:484] Sharing parameters 'conv1_2_b' owned by layer 'conv1_2c', param index 1
I0630 12:41:15.886643   410 layer_factory.hpp:77] Creating layer relu1_2m
I0630 12:41:15.886646   410 net.cpp:91] Creating Layer relu1_2m
I0630 12:41:15.886649   410 net.cpp:425] relu1_2m <- conv1_2m
I0630 12:41:15.886652   410 net.cpp:386] relu1_2m -> conv1_2m (in-place)
I0630 12:41:15.886843   410 net.cpp:141] Setting up relu1_2m
I0630 12:41:15.886850   410 net.cpp:148] Top shape: 4 64 392 392 (39337984)
I0630 12:41:15.886852   410 net.cpp:156] Memory required for data: 2196598784
I0630 12:41:15.886857   410 layer_factory.hpp:77] Creating layer pool1m
I0630 12:41:15.886862   410 net.cpp:91] Creating Layer pool1m
I0630 12:41:15.886863   410 net.cpp:425] pool1m <- conv1_2m
I0630 12:41:15.886868   410 net.cpp:399] pool1m -> pool1m
I0630 12:41:15.886896   410 net.cpp:141] Setting up pool1m
I0630 12:41:15.886901   410 net.cpp:148] Top shape: 4 64 196 196 (9834496)
I0630 12:41:15.886904   410 net.cpp:156] Memory required for data: 2235936768
I0630 12:41:15.886905   410 layer_factory.hpp:77] Creating layer conv2_1m
I0630 12:41:15.886910   410 net.cpp:91] Creating Layer conv2_1m
I0630 12:41:15.886912   410 net.cpp:425] conv2_1m <- pool1m
I0630 12:41:15.886916   410 net.cpp:399] conv2_1m -> conv2_1m
I0630 12:41:15.887580   410 net.cpp:141] Setting up conv2_1m
I0630 12:41:15.887589   410 net.cpp:148] Top shape: 4 128 196 196 (19668992)
I0630 12:41:15.887591   410 net.cpp:156] Memory required for data: 2314612736
I0630 12:41:15.887596   410 net.cpp:484] Sharing parameters 'conv2_1_w' owned by layer 'conv2_1c', param index 0
I0630 12:41:15.887600   410 net.cpp:484] Sharing parameters 'conv2_1_b' owned by layer 'conv2_1c', param index 1
I0630 12:41:15.887603   410 layer_factory.hpp:77] Creating layer relu2_1m
I0630 12:41:15.887605   410 net.cpp:91] Creating Layer relu2_1m
I0630 12:41:15.887608   410 net.cpp:425] relu2_1m <- conv2_1m
I0630 12:41:15.887611   410 net.cpp:386] relu2_1m -> conv2_1m (in-place)
I0630 12:41:15.887720   410 net.cpp:141] Setting up relu2_1m
I0630 12:41:15.887727   410 net.cpp:148] Top shape: 4 128 196 196 (19668992)
I0630 12:41:15.887729   410 net.cpp:156] Memory required for data: 2393288704
I0630 12:41:15.887732   410 layer_factory.hpp:77] Creating layer conv2_2m
I0630 12:41:15.887737   410 net.cpp:91] Creating Layer conv2_2m
I0630 12:41:15.887738   410 net.cpp:425] conv2_2m <- conv2_1m
I0630 12:41:15.887743   410 net.cpp:399] conv2_2m -> conv2_2m
I0630 12:41:15.888795   410 net.cpp:141] Setting up conv2_2m
I0630 12:41:15.888803   410 net.cpp:148] Top shape: 4 128 196 196 (19668992)
I0630 12:41:15.888805   410 net.cpp:156] Memory required for data: 2471964672
I0630 12:41:15.888811   410 net.cpp:484] Sharing parameters 'conv2_2_w' owned by layer 'conv2_2c', param index 0
I0630 12:41:15.888815   410 net.cpp:484] Sharing parameters 'conv2_2_b' owned by layer 'conv2_2c', param index 1
I0630 12:41:15.888819   410 layer_factory.hpp:77] Creating layer relu2_2m
I0630 12:41:15.888823   410 net.cpp:91] Creating Layer relu2_2m
I0630 12:41:15.888826   410 net.cpp:425] relu2_2m <- conv2_2m
I0630 12:41:15.888829   410 net.cpp:386] relu2_2m -> conv2_2m (in-place)
I0630 12:41:15.888948   410 net.cpp:141] Setting up relu2_2m
I0630 12:41:15.888954   410 net.cpp:148] Top shape: 4 128 196 196 (19668992)
I0630 12:41:15.888957   410 net.cpp:156] Memory required for data: 2550640640
I0630 12:41:15.888958   410 layer_factory.hpp:77] Creating layer pool2m
I0630 12:41:15.888970   410 net.cpp:91] Creating Layer pool2m
I0630 12:41:15.888972   410 net.cpp:425] pool2m <- conv2_2m
I0630 12:41:15.888977   410 net.cpp:399] pool2m -> pool2m
I0630 12:41:15.889003   410 net.cpp:141] Setting up pool2m
I0630 12:41:15.889008   410 net.cpp:148] Top shape: 4 128 98 98 (4917248)
I0630 12:41:15.889009   410 net.cpp:156] Memory required for data: 2570309632
I0630 12:41:15.889011   410 layer_factory.hpp:77] Creating layer conv3_1m
I0630 12:41:15.889017   410 net.cpp:91] Creating Layer conv3_1m
I0630 12:41:15.889019   410 net.cpp:425] conv3_1m <- pool2m
I0630 12:41:15.889024   410 net.cpp:399] conv3_1m -> conv3_1m
I0630 12:41:15.890027   410 net.cpp:141] Setting up conv3_1m
I0630 12:41:15.890035   410 net.cpp:148] Top shape: 4 256 98 98 (9834496)
I0630 12:41:15.890038   410 net.cpp:156] Memory required for data: 2609647616
I0630 12:41:15.890040   410 net.cpp:484] Sharing parameters 'conv3_1_w' owned by layer 'conv3_1c', param index 0
I0630 12:41:15.890043   410 net.cpp:484] Sharing parameters 'conv3_1_b' owned by layer 'conv3_1c', param index 1
I0630 12:41:15.890045   410 layer_factory.hpp:77] Creating layer relu3_1m
I0630 12:41:15.890049   410 net.cpp:91] Creating Layer relu3_1m
I0630 12:41:15.890053   410 net.cpp:425] relu3_1m <- conv3_1m
I0630 12:41:15.890055   410 net.cpp:386] relu3_1m -> conv3_1m (in-place)
I0630 12:41:15.890249   410 net.cpp:141] Setting up relu3_1m
I0630 12:41:15.890255   410 net.cpp:148] Top shape: 4 256 98 98 (9834496)
I0630 12:41:15.890259   410 net.cpp:156] Memory required for data: 2648985600
I0630 12:41:15.890262   410 layer_factory.hpp:77] Creating layer conv3_2m
I0630 12:41:15.890269   410 net.cpp:91] Creating Layer conv3_2m
I0630 12:41:15.890270   410 net.cpp:425] conv3_2m <- conv3_1m
I0630 12:41:15.890275   410 net.cpp:399] conv3_2m -> conv3_2m
I0630 12:41:15.891530   410 net.cpp:141] Setting up conv3_2m
I0630 12:41:15.891541   410 net.cpp:148] Top shape: 4 256 98 98 (9834496)
I0630 12:41:15.891542   410 net.cpp:156] Memory required for data: 2688323584
I0630 12:41:15.891546   410 net.cpp:484] Sharing parameters 'conv3_2_w' owned by layer 'conv3_2c', param index 0
I0630 12:41:15.891548   410 net.cpp:484] Sharing parameters 'conv3_2_b' owned by layer 'conv3_2c', param index 1
I0630 12:41:15.891551   410 layer_factory.hpp:77] Creating layer relu3_2m
I0630 12:41:15.891556   410 net.cpp:91] Creating Layer relu3_2m
I0630 12:41:15.891557   410 net.cpp:425] relu3_2m <- conv3_2m
I0630 12:41:15.891561   410 net.cpp:386] relu3_2m -> conv3_2m (in-place)
I0630 12:41:15.891671   410 net.cpp:141] Setting up relu3_2m
I0630 12:41:15.891677   410 net.cpp:148] Top shape: 4 256 98 98 (9834496)
I0630 12:41:15.891680   410 net.cpp:156] Memory required for data: 2727661568
I0630 12:41:15.891681   410 layer_factory.hpp:77] Creating layer conv3_3m
I0630 12:41:15.891690   410 net.cpp:91] Creating Layer conv3_3m
I0630 12:41:15.891692   410 net.cpp:425] conv3_3m <- conv3_2m
I0630 12:41:15.891696   410 net.cpp:399] conv3_3m -> conv3_3m
I0630 12:41:15.892946   410 net.cpp:141] Setting up conv3_3m
I0630 12:41:15.892958   410 net.cpp:148] Top shape: 4 256 98 98 (9834496)
I0630 12:41:15.892961   410 net.cpp:156] Memory required for data: 2766999552
I0630 12:41:15.892964   410 net.cpp:484] Sharing parameters 'conv3_3_w' owned by layer 'conv3_3c', param index 0
I0630 12:41:15.892968   410 net.cpp:484] Sharing parameters 'conv3_3_b' owned by layer 'conv3_3c', param index 1
I0630 12:41:15.892974   410 layer_factory.hpp:77] Creating layer relu3_3m
I0630 12:41:15.892979   410 net.cpp:91] Creating Layer relu3_3m
I0630 12:41:15.892982   410 net.cpp:425] relu3_3m <- conv3_3m
I0630 12:41:15.892987   410 net.cpp:386] relu3_3m -> conv3_3m (in-place)
I0630 12:41:15.893111   410 net.cpp:141] Setting up relu3_3m
I0630 12:41:15.893118   410 net.cpp:148] Top shape: 4 256 98 98 (9834496)
I0630 12:41:15.893121   410 net.cpp:156] Memory required for data: 2806337536
I0630 12:41:15.893122   410 layer_factory.hpp:77] Creating layer pool3m
I0630 12:41:15.893127   410 net.cpp:91] Creating Layer pool3m
I0630 12:41:15.893141   410 net.cpp:425] pool3m <- conv3_3m
I0630 12:41:15.893149   410 net.cpp:399] pool3m -> pool3m
I0630 12:41:15.893187   410 net.cpp:141] Setting up pool3m
I0630 12:41:15.893193   410 net.cpp:148] Top shape: 4 256 49 49 (2458624)
I0630 12:41:15.893195   410 net.cpp:156] Memory required for data: 2816172032
I0630 12:41:15.893198   410 layer_factory.hpp:77] Creating layer conv4_1m
I0630 12:41:15.893206   410 net.cpp:91] Creating Layer conv4_1m
I0630 12:41:15.893209   410 net.cpp:425] conv4_1m <- pool3m
I0630 12:41:15.893213   410 net.cpp:399] conv4_1m -> conv4_1m
I0630 12:41:15.895244   410 net.cpp:141] Setting up conv4_1m
I0630 12:41:15.895259   410 net.cpp:148] Top shape: 4 512 49 49 (4917248)
I0630 12:41:15.895262   410 net.cpp:156] Memory required for data: 2835841024
I0630 12:41:15.895265   410 net.cpp:484] Sharing parameters 'conv4_1_w' owned by layer 'conv4_1c', param index 0
I0630 12:41:15.895268   410 net.cpp:484] Sharing parameters 'conv4_1_b' owned by layer 'conv4_1c', param index 1
I0630 12:41:15.895270   410 layer_factory.hpp:77] Creating layer relu4_1m
I0630 12:41:15.895277   410 net.cpp:91] Creating Layer relu4_1m
I0630 12:41:15.895279   410 net.cpp:425] relu4_1m <- conv4_1m
I0630 12:41:15.895282   410 net.cpp:386] relu4_1m -> conv4_1m (in-place)
I0630 12:41:15.895475   410 net.cpp:141] Setting up relu4_1m
I0630 12:41:15.895483   410 net.cpp:148] Top shape: 4 512 49 49 (4917248)
I0630 12:41:15.895485   410 net.cpp:156] Memory required for data: 2855510016
I0630 12:41:15.895489   410 layer_factory.hpp:77] Creating layer conv4_2m
I0630 12:41:15.895496   410 net.cpp:91] Creating Layer conv4_2m
I0630 12:41:15.895498   410 net.cpp:425] conv4_2m <- conv4_1m
I0630 12:41:15.895503   410 net.cpp:399] conv4_2m -> conv4_2m
I0630 12:41:15.899135   410 net.cpp:141] Setting up conv4_2m
I0630 12:41:15.899154   410 net.cpp:148] Top shape: 4 512 49 49 (4917248)
I0630 12:41:15.899158   410 net.cpp:156] Memory required for data: 2875179008
I0630 12:41:15.899161   410 net.cpp:484] Sharing parameters 'conv4_2_w' owned by layer 'conv4_2c', param index 0
I0630 12:41:15.899164   410 net.cpp:484] Sharing parameters 'conv4_2_b' owned by layer 'conv4_2c', param index 1
I0630 12:41:15.899168   410 layer_factory.hpp:77] Creating layer relu4_2m
I0630 12:41:15.899173   410 net.cpp:91] Creating Layer relu4_2m
I0630 12:41:15.899178   410 net.cpp:425] relu4_2m <- conv4_2m
I0630 12:41:15.899181   410 net.cpp:386] relu4_2m -> conv4_2m (in-place)
I0630 12:41:15.899307   410 net.cpp:141] Setting up relu4_2m
I0630 12:41:15.899314   410 net.cpp:148] Top shape: 4 512 49 49 (4917248)
I0630 12:41:15.899317   410 net.cpp:156] Memory required for data: 2894848000
I0630 12:41:15.899318   410 layer_factory.hpp:77] Creating layer conv4_3m
I0630 12:41:15.899327   410 net.cpp:91] Creating Layer conv4_3m
I0630 12:41:15.899332   410 net.cpp:425] conv4_3m <- conv4_2m
I0630 12:41:15.899336   410 net.cpp:399] conv4_3m -> conv4_3m
I0630 12:41:15.904502   410 net.cpp:141] Setting up conv4_3m
I0630 12:41:15.904521   410 net.cpp:148] Top shape: 4 512 49 49 (4917248)
I0630 12:41:15.904523   410 net.cpp:156] Memory required for data: 2914516992
I0630 12:41:15.904528   410 net.cpp:484] Sharing parameters 'conv4_3_w' owned by layer 'conv4_3c', param index 0
I0630 12:41:15.904531   410 net.cpp:484] Sharing parameters 'conv4_3_b' owned by layer 'conv4_3c', param index 1
I0630 12:41:15.904534   410 layer_factory.hpp:77] Creating layer relu4_3m
I0630 12:41:15.904543   410 net.cpp:91] Creating Layer relu4_3m
I0630 12:41:15.904546   410 net.cpp:425] relu4_3m <- conv4_3m
I0630 12:41:15.904551   410 net.cpp:386] relu4_3m -> conv4_3m (in-place)
I0630 12:41:15.904759   410 net.cpp:141] Setting up relu4_3m
I0630 12:41:15.904767   410 net.cpp:148] Top shape: 4 512 49 49 (4917248)
I0630 12:41:15.904769   410 net.cpp:156] Memory required for data: 2934185984
I0630 12:41:15.904774   410 layer_factory.hpp:77] Creating layer conv5_1m
I0630 12:41:15.904783   410 net.cpp:91] Creating Layer conv5_1m
I0630 12:41:15.904785   410 net.cpp:425] conv5_1m <- conv4_3m
I0630 12:41:15.904800   410 net.cpp:399] conv5_1m -> conv5_1m
I0630 12:41:15.909922   410 net.cpp:141] Setting up conv5_1m
I0630 12:41:15.909943   410 net.cpp:148] Top shape: 4 512 49 49 (4917248)
I0630 12:41:15.909946   410 net.cpp:156] Memory required for data: 2953854976
I0630 12:41:15.909960   410 net.cpp:484] Sharing parameters 'conv5_1_w' owned by layer 'conv5_1c', param index 0
I0630 12:41:15.909966   410 net.cpp:484] Sharing parameters 'conv5_1_b' owned by layer 'conv5_1c', param index 1
I0630 12:41:15.909970   410 layer_factory.hpp:77] Creating layer relu5_1m
I0630 12:41:15.909977   410 net.cpp:91] Creating Layer relu5_1m
I0630 12:41:15.909988   410 net.cpp:425] relu5_1m <- conv5_1m
I0630 12:41:15.910001   410 net.cpp:386] relu5_1m -> conv5_1m (in-place)
I0630 12:41:15.910374   410 net.cpp:141] Setting up relu5_1m
I0630 12:41:15.910385   410 net.cpp:148] Top shape: 4 512 49 49 (4917248)
I0630 12:41:15.910387   410 net.cpp:156] Memory required for data: 2973523968
I0630 12:41:15.910390   410 layer_factory.hpp:77] Creating layer conv5_2m
I0630 12:41:15.910398   410 net.cpp:91] Creating Layer conv5_2m
I0630 12:41:15.910400   410 net.cpp:425] conv5_2m <- conv5_1m
I0630 12:41:15.910405   410 net.cpp:399] conv5_2m -> conv5_2m
I0630 12:41:15.914700   410 net.cpp:141] Setting up conv5_2m
I0630 12:41:15.914742   410 net.cpp:148] Top shape: 4 512 49 49 (4917248)
I0630 12:41:15.914746   410 net.cpp:156] Memory required for data: 2993192960
I0630 12:41:15.914753   410 net.cpp:484] Sharing parameters 'conv5_2_w' owned by layer 'conv5_2c', param index 0
I0630 12:41:15.914758   410 net.cpp:484] Sharing parameters 'conv5_2_b' owned by layer 'conv5_2c', param index 1
I0630 12:41:15.914762   410 layer_factory.hpp:77] Creating layer relu5_2m
I0630 12:41:15.914773   410 net.cpp:91] Creating Layer relu5_2m
I0630 12:41:15.914777   410 net.cpp:425] relu5_2m <- conv5_2m
I0630 12:41:15.914783   410 net.cpp:386] relu5_2m -> conv5_2m (in-place)
I0630 12:41:15.915007   410 net.cpp:141] Setting up relu5_2m
I0630 12:41:15.915015   410 net.cpp:148] Top shape: 4 512 49 49 (4917248)
I0630 12:41:15.915017   410 net.cpp:156] Memory required for data: 3012861952
I0630 12:41:15.915024   410 layer_factory.hpp:77] Creating layer conv5_3m
I0630 12:41:15.915035   410 net.cpp:91] Creating Layer conv5_3m
I0630 12:41:15.915037   410 net.cpp:425] conv5_3m <- conv5_2m
I0630 12:41:15.915041   410 net.cpp:399] conv5_3m -> conv5_3m
I0630 12:41:15.921386   410 net.cpp:141] Setting up conv5_3m
I0630 12:41:15.921434   410 net.cpp:148] Top shape: 4 512 73 73 (10913792)
I0630 12:41:15.921437   410 net.cpp:156] Memory required for data: 3056517120
I0630 12:41:15.921442   410 net.cpp:484] Sharing parameters 'conv5_3_w' owned by layer 'conv5_3c', param index 0
I0630 12:41:15.921444   410 net.cpp:484] Sharing parameters 'conv5_3_b' owned by layer 'conv5_3c', param index 1
I0630 12:41:15.921447   410 layer_factory.hpp:77] Creating layer relu5_3m
I0630 12:41:15.921453   410 net.cpp:91] Creating Layer relu5_3m
I0630 12:41:15.921457   410 net.cpp:425] relu5_3m <- conv5_3m
I0630 12:41:15.921463   410 net.cpp:386] relu5_3m -> conv5_3m (in-place)
I0630 12:41:15.921849   410 net.cpp:141] Setting up relu5_3m
I0630 12:41:15.921856   410 net.cpp:148] Top shape: 4 512 73 73 (10913792)
I0630 12:41:15.921859   410 net.cpp:156] Memory required for data: 3100172288
I0630 12:41:15.921861   410 layer_factory.hpp:77] Creating layer conv1_1n
I0630 12:41:15.921870   410 net.cpp:91] Creating Layer conv1_1n
I0630 12:41:15.921874   410 net.cpp:425] conv1_1n <- next_im_cur_im_2_split_0
I0630 12:41:15.921880   410 net.cpp:399] conv1_1n -> conv1_1n
I0630 12:41:15.923192   410 net.cpp:141] Setting up conv1_1n
I0630 12:41:15.923218   410 net.cpp:148] Top shape: 4 64 584 584 (87310336)
I0630 12:41:15.923221   410 net.cpp:156] Memory required for data: 3449413632
I0630 12:41:15.923226   410 net.cpp:484] Sharing parameters 'conv1_1_w' owned by layer 'conv1_1c', param index 0
I0630 12:41:15.923230   410 net.cpp:484] Sharing parameters 'conv1_1_b' owned by layer 'conv1_1c', param index 1
I0630 12:41:15.923254   410 layer_factory.hpp:77] Creating layer relu1_1n
I0630 12:41:15.923275   410 net.cpp:91] Creating Layer relu1_1n
I0630 12:41:15.923280   410 net.cpp:425] relu1_1n <- conv1_1n
I0630 12:41:15.923286   410 net.cpp:386] relu1_1n -> conv1_1n (in-place)
I0630 12:41:15.923480   410 net.cpp:141] Setting up relu1_1n
I0630 12:41:15.923488   410 net.cpp:148] Top shape: 4 64 584 584 (87310336)
I0630 12:41:15.923491   410 net.cpp:156] Memory required for data: 3798654976
I0630 12:41:15.923496   410 layer_factory.hpp:77] Creating layer conv1_2n
I0630 12:41:15.923503   410 net.cpp:91] Creating Layer conv1_2n
I0630 12:41:15.923506   410 net.cpp:425] conv1_2n <- conv1_1n
I0630 12:41:15.923511   410 net.cpp:399] conv1_2n -> conv1_2n
I0630 12:41:15.925277   410 net.cpp:141] Setting up conv1_2n
I0630 12:41:15.925298   410 net.cpp:148] Top shape: 4 64 584 584 (87310336)
I0630 12:41:15.925302   410 net.cpp:156] Memory required for data: 4147896320
I0630 12:41:15.925307   410 net.cpp:484] Sharing parameters 'conv1_2_w' owned by layer 'conv1_2c', param index 0
I0630 12:41:15.925310   410 net.cpp:484] Sharing parameters 'conv1_2_b' owned by layer 'conv1_2c', param index 1
I0630 12:41:15.925313   410 layer_factory.hpp:77] Creating layer relu1_2n
I0630 12:41:15.925323   410 net.cpp:91] Creating Layer relu1_2n
I0630 12:41:15.925328   410 net.cpp:425] relu1_2n <- conv1_2n
I0630 12:41:15.925345   410 net.cpp:386] relu1_2n -> conv1_2n (in-place)
I0630 12:41:15.925669   410 net.cpp:141] Setting up relu1_2n
I0630 12:41:15.925678   410 net.cpp:148] Top shape: 4 64 584 584 (87310336)
I0630 12:41:15.925680   410 net.cpp:156] Memory required for data: 4497137664
I0630 12:41:15.925683   410 layer_factory.hpp:77] Creating layer pool1n
I0630 12:41:15.925696   410 net.cpp:91] Creating Layer pool1n
I0630 12:41:15.925698   410 net.cpp:425] pool1n <- conv1_2n
I0630 12:41:15.925704   410 net.cpp:399] pool1n -> pool1n
I0630 12:41:15.925743   410 net.cpp:141] Setting up pool1n
I0630 12:41:15.925747   410 net.cpp:148] Top shape: 4 64 292 292 (21827584)
I0630 12:41:15.925750   410 net.cpp:156] Memory required for data: 4584448000
I0630 12:41:15.925753   410 layer_factory.hpp:77] Creating layer conv2_1n
I0630 12:41:15.925761   410 net.cpp:91] Creating Layer conv2_1n
I0630 12:41:15.925763   410 net.cpp:425] conv2_1n <- pool1n
I0630 12:41:15.925767   410 net.cpp:399] conv2_1n -> conv2_1n
I0630 12:41:15.926486   410 net.cpp:141] Setting up conv2_1n
I0630 12:41:15.926493   410 net.cpp:148] Top shape: 4 128 292 292 (43655168)
I0630 12:41:15.926496   410 net.cpp:156] Memory required for data: 4759068672
I0630 12:41:15.926499   410 net.cpp:484] Sharing parameters 'conv2_1_w' owned by layer 'conv2_1c', param index 0
I0630 12:41:15.926501   410 net.cpp:484] Sharing parameters 'conv2_1_b' owned by layer 'conv2_1c', param index 1
I0630 12:41:15.926503   410 layer_factory.hpp:77] Creating layer relu2_1n
I0630 12:41:15.926509   410 net.cpp:91] Creating Layer relu2_1n
I0630 12:41:15.926512   410 net.cpp:425] relu2_1n <- conv2_1n
I0630 12:41:15.926515   410 net.cpp:386] relu2_1n -> conv2_1n (in-place)
I0630 12:41:15.926709   410 net.cpp:141] Setting up relu2_1n
I0630 12:41:15.926717   410 net.cpp:148] Top shape: 4 128 292 292 (43655168)
I0630 12:41:15.926718   410 net.cpp:156] Memory required for data: 4933689344
I0630 12:41:15.926720   410 layer_factory.hpp:77] Creating layer conv2_2n
I0630 12:41:15.926725   410 net.cpp:91] Creating Layer conv2_2n
I0630 12:41:15.926728   410 net.cpp:425] conv2_2n <- conv2_1n
I0630 12:41:15.926733   410 net.cpp:399] conv2_2n -> conv2_2n
I0630 12:41:15.927724   410 net.cpp:141] Setting up conv2_2n
I0630 12:41:15.927733   410 net.cpp:148] Top shape: 4 128 292 292 (43655168)
I0630 12:41:15.927736   410 net.cpp:156] Memory required for data: 5108310016
I0630 12:41:15.927738   410 net.cpp:484] Sharing parameters 'conv2_2_w' owned by layer 'conv2_2c', param index 0
I0630 12:41:15.927742   410 net.cpp:484] Sharing parameters 'conv2_2_b' owned by layer 'conv2_2c', param index 1
I0630 12:41:15.927743   410 layer_factory.hpp:77] Creating layer relu2_2n
I0630 12:41:15.927757   410 net.cpp:91] Creating Layer relu2_2n
I0630 12:41:15.927758   410 net.cpp:425] relu2_2n <- conv2_2n
I0630 12:41:15.927762   410 net.cpp:386] relu2_2n -> conv2_2n (in-place)
I0630 12:41:15.927875   410 net.cpp:141] Setting up relu2_2n
I0630 12:41:15.927881   410 net.cpp:148] Top shape: 4 128 292 292 (43655168)
I0630 12:41:15.927883   410 net.cpp:156] Memory required for data: 5282930688
I0630 12:41:15.927886   410 layer_factory.hpp:77] Creating layer pool2n
I0630 12:41:15.927889   410 net.cpp:91] Creating Layer pool2n
I0630 12:41:15.927891   410 net.cpp:425] pool2n <- conv2_2n
I0630 12:41:15.927896   410 net.cpp:399] pool2n -> pool2n
I0630 12:41:15.927927   410 net.cpp:141] Setting up pool2n
I0630 12:41:15.927932   410 net.cpp:148] Top shape: 4 128 146 146 (10913792)
I0630 12:41:15.927933   410 net.cpp:156] Memory required for data: 5326585856
I0630 12:41:15.927937   410 layer_factory.hpp:77] Creating layer conv3_1n
I0630 12:41:15.927943   410 net.cpp:91] Creating Layer conv3_1n
I0630 12:41:15.927945   410 net.cpp:425] conv3_1n <- pool2n
I0630 12:41:15.927949   410 net.cpp:399] conv3_1n -> conv3_1n
I0630 12:41:15.928983   410 net.cpp:141] Setting up conv3_1n
I0630 12:41:15.928992   410 net.cpp:148] Top shape: 4 256 146 146 (21827584)
I0630 12:41:15.928994   410 net.cpp:156] Memory required for data: 5413896192
I0630 12:41:15.928997   410 net.cpp:484] Sharing parameters 'conv3_1_w' owned by layer 'conv3_1c', param index 0
I0630 12:41:15.929000   410 net.cpp:484] Sharing parameters 'conv3_1_b' owned by layer 'conv3_1c', param index 1
I0630 12:41:15.929003   410 layer_factory.hpp:77] Creating layer relu3_1n
I0630 12:41:15.929005   410 net.cpp:91] Creating Layer relu3_1n
I0630 12:41:15.929008   410 net.cpp:425] relu3_1n <- conv3_1n
I0630 12:41:15.929013   410 net.cpp:386] relu3_1n -> conv3_1n (in-place)
I0630 12:41:15.929205   410 net.cpp:141] Setting up relu3_1n
I0630 12:41:15.929213   410 net.cpp:148] Top shape: 4 256 146 146 (21827584)
I0630 12:41:15.929214   410 net.cpp:156] Memory required for data: 5501206528
I0630 12:41:15.929217   410 layer_factory.hpp:77] Creating layer conv3_2n
I0630 12:41:15.929222   410 net.cpp:91] Creating Layer conv3_2n
I0630 12:41:15.929225   410 net.cpp:425] conv3_2n <- conv3_1n
I0630 12:41:15.929230   410 net.cpp:399] conv3_2n -> conv3_2n
I0630 12:41:15.930800   410 net.cpp:141] Setting up conv3_2n
I0630 12:41:15.930826   410 net.cpp:148] Top shape: 4 256 146 146 (21827584)
I0630 12:41:15.930829   410 net.cpp:156] Memory required for data: 5588516864
I0630 12:41:15.930833   410 net.cpp:484] Sharing parameters 'conv3_2_w' owned by layer 'conv3_2c', param index 0
I0630 12:41:15.930837   410 net.cpp:484] Sharing parameters 'conv3_2_b' owned by layer 'conv3_2c', param index 1
I0630 12:41:15.930845   410 layer_factory.hpp:77] Creating layer relu3_2n
I0630 12:41:15.930855   410 net.cpp:91] Creating Layer relu3_2n
I0630 12:41:15.930858   410 net.cpp:425] relu3_2n <- conv3_2n
I0630 12:41:15.930862   410 net.cpp:386] relu3_2n -> conv3_2n (in-place)
I0630 12:41:15.931108   410 net.cpp:141] Setting up relu3_2n
I0630 12:41:15.931118   410 net.cpp:148] Top shape: 4 256 146 146 (21827584)
I0630 12:41:15.931119   410 net.cpp:156] Memory required for data: 5675827200
I0630 12:41:15.931121   410 layer_factory.hpp:77] Creating layer conv3_3n
I0630 12:41:15.931133   410 net.cpp:91] Creating Layer conv3_3n
I0630 12:41:15.931135   410 net.cpp:425] conv3_3n <- conv3_2n
I0630 12:41:15.931139   410 net.cpp:399] conv3_3n -> conv3_3n
I0630 12:41:15.932780   410 net.cpp:141] Setting up conv3_3n
I0630 12:41:15.932793   410 net.cpp:148] Top shape: 4 256 146 146 (21827584)
I0630 12:41:15.932796   410 net.cpp:156] Memory required for data: 5763137536
I0630 12:41:15.932807   410 net.cpp:484] Sharing parameters 'conv3_3_w' owned by layer 'conv3_3c', param index 0
I0630 12:41:15.932811   410 net.cpp:484] Sharing parameters 'conv3_3_b' owned by layer 'conv3_3c', param index 1
I0630 12:41:15.932813   410 layer_factory.hpp:77] Creating layer relu3_3n
I0630 12:41:15.932819   410 net.cpp:91] Creating Layer relu3_3n
I0630 12:41:15.932837   410 net.cpp:425] relu3_3n <- conv3_3n
I0630 12:41:15.932840   410 net.cpp:386] relu3_3n -> conv3_3n (in-place)
I0630 12:41:15.932981   410 net.cpp:141] Setting up relu3_3n
I0630 12:41:15.932987   410 net.cpp:148] Top shape: 4 256 146 146 (21827584)
I0630 12:41:15.932989   410 net.cpp:156] Memory required for data: 5850447872
I0630 12:41:15.932992   410 layer_factory.hpp:77] Creating layer pool3n
I0630 12:41:15.933001   410 net.cpp:91] Creating Layer pool3n
I0630 12:41:15.933003   410 net.cpp:425] pool3n <- conv3_3n
I0630 12:41:15.933007   410 net.cpp:399] pool3n -> pool3n
I0630 12:41:15.933043   410 net.cpp:141] Setting up pool3n
I0630 12:41:15.933048   410 net.cpp:148] Top shape: 4 256 73 73 (5456896)
I0630 12:41:15.933050   410 net.cpp:156] Memory required for data: 5872275456
I0630 12:41:15.933054   410 layer_factory.hpp:77] Creating layer conv4_1n
I0630 12:41:15.933061   410 net.cpp:91] Creating Layer conv4_1n
I0630 12:41:15.933063   410 net.cpp:425] conv4_1n <- pool3n
I0630 12:41:15.933068   410 net.cpp:399] conv4_1n -> conv4_1n
I0630 12:41:15.936516   410 net.cpp:141] Setting up conv4_1n
I0630 12:41:15.936540   410 net.cpp:148] Top shape: 4 512 73 73 (10913792)
I0630 12:41:15.936543   410 net.cpp:156] Memory required for data: 5915930624
I0630 12:41:15.936548   410 net.cpp:484] Sharing parameters 'conv4_1_w' owned by layer 'conv4_1c', param index 0
I0630 12:41:15.936553   410 net.cpp:484] Sharing parameters 'conv4_1_b' owned by layer 'conv4_1c', param index 1
I0630 12:41:15.936554   410 layer_factory.hpp:77] Creating layer relu4_1n
I0630 12:41:15.936563   410 net.cpp:91] Creating Layer relu4_1n
I0630 12:41:15.936565   410 net.cpp:425] relu4_1n <- conv4_1n
I0630 12:41:15.936570   410 net.cpp:386] relu4_1n -> conv4_1n (in-place)
I0630 12:41:15.936842   410 net.cpp:141] Setting up relu4_1n
I0630 12:41:15.936851   410 net.cpp:148] Top shape: 4 512 73 73 (10913792)
I0630 12:41:15.936853   410 net.cpp:156] Memory required for data: 5959585792
I0630 12:41:15.936856   410 layer_factory.hpp:77] Creating layer conv4_2n
I0630 12:41:15.936868   410 net.cpp:91] Creating Layer conv4_2n
I0630 12:41:15.936875   410 net.cpp:425] conv4_2n <- conv4_1n
I0630 12:41:15.936889   410 net.cpp:399] conv4_2n -> conv4_2n
I0630 12:41:15.940306   410 net.cpp:141] Setting up conv4_2n
I0630 12:41:15.940352   410 net.cpp:148] Top shape: 4 512 73 73 (10913792)
I0630 12:41:15.940356   410 net.cpp:156] Memory required for data: 6003240960
I0630 12:41:15.940362   410 net.cpp:484] Sharing parameters 'conv4_2_w' owned by layer 'conv4_2c', param index 0
I0630 12:41:15.940366   410 net.cpp:484] Sharing parameters 'conv4_2_b' owned by layer 'conv4_2c', param index 1
I0630 12:41:15.940368   410 layer_factory.hpp:77] Creating layer relu4_2n
I0630 12:41:15.940378   410 net.cpp:91] Creating Layer relu4_2n
I0630 12:41:15.940382   410 net.cpp:425] relu4_2n <- conv4_2n
I0630 12:41:15.940389   410 net.cpp:386] relu4_2n -> conv4_2n (in-place)
I0630 12:41:15.940732   410 net.cpp:141] Setting up relu4_2n
I0630 12:41:15.940745   410 net.cpp:148] Top shape: 4 512 73 73 (10913792)
I0630 12:41:15.940748   410 net.cpp:156] Memory required for data: 6046896128
I0630 12:41:15.940770   410 layer_factory.hpp:77] Creating layer conv4_3n
I0630 12:41:15.940785   410 net.cpp:91] Creating Layer conv4_3n
I0630 12:41:15.940789   410 net.cpp:425] conv4_3n <- conv4_2n
I0630 12:41:15.940794   410 net.cpp:399] conv4_3n -> conv4_3n
I0630 12:41:15.947542   410 net.cpp:141] Setting up conv4_3n
I0630 12:41:15.947578   410 net.cpp:148] Top shape: 4 512 73 73 (10913792)
I0630 12:41:15.947582   410 net.cpp:156] Memory required for data: 6090551296
I0630 12:41:15.947588   410 net.cpp:484] Sharing parameters 'conv4_3_w' owned by layer 'conv4_3c', param index 0
I0630 12:41:15.947592   410 net.cpp:484] Sharing parameters 'conv4_3_b' owned by layer 'conv4_3c', param index 1
I0630 12:41:15.947595   410 layer_factory.hpp:77] Creating layer relu4_3n
I0630 12:41:15.947609   410 net.cpp:91] Creating Layer relu4_3n
I0630 12:41:15.947614   410 net.cpp:425] relu4_3n <- conv4_3n
I0630 12:41:15.947638   410 net.cpp:386] relu4_3n -> conv4_3n (in-place)
I0630 12:41:15.947795   410 net.cpp:141] Setting up relu4_3n
I0630 12:41:15.947804   410 net.cpp:148] Top shape: 4 512 73 73 (10913792)
I0630 12:41:15.947806   410 net.cpp:156] Memory required for data: 6134206464
I0630 12:41:15.947809   410 layer_factory.hpp:77] Creating layer conv5_1n
I0630 12:41:15.947821   410 net.cpp:91] Creating Layer conv5_1n
I0630 12:41:15.947824   410 net.cpp:425] conv5_1n <- conv4_3n
I0630 12:41:15.947834   410 net.cpp:399] conv5_1n -> conv5_1n
I0630 12:41:15.953577   410 net.cpp:141] Setting up conv5_1n
I0630 12:41:15.953608   410 net.cpp:148] Top shape: 4 512 73 73 (10913792)
I0630 12:41:15.953610   410 net.cpp:156] Memory required for data: 6177861632
I0630 12:41:15.953616   410 net.cpp:484] Sharing parameters 'conv5_1_w' owned by layer 'conv5_1c', param index 0
I0630 12:41:15.953620   410 net.cpp:484] Sharing parameters 'conv5_1_b' owned by layer 'conv5_1c', param index 1
I0630 12:41:15.953624   410 layer_factory.hpp:77] Creating layer relu5_1n
I0630 12:41:15.953631   410 net.cpp:91] Creating Layer relu5_1n
I0630 12:41:15.953636   410 net.cpp:425] relu5_1n <- conv5_1n
I0630 12:41:15.953651   410 net.cpp:386] relu5_1n -> conv5_1n (in-place)
I0630 12:41:15.954031   410 net.cpp:141] Setting up relu5_1n
I0630 12:41:15.954041   410 net.cpp:148] Top shape: 4 512 73 73 (10913792)
I0630 12:41:15.954043   410 net.cpp:156] Memory required for data: 6221516800
I0630 12:41:15.954048   410 layer_factory.hpp:77] Creating layer conv5_2n
I0630 12:41:15.954058   410 net.cpp:91] Creating Layer conv5_2n
I0630 12:41:15.954061   410 net.cpp:425] conv5_2n <- conv5_1n
I0630 12:41:15.954066   410 net.cpp:399] conv5_2n -> conv5_2n
I0630 12:41:15.956893   410 net.cpp:141] Setting up conv5_2n
I0630 12:41:15.956925   410 net.cpp:148] Top shape: 4 512 73 73 (10913792)
I0630 12:41:15.956928   410 net.cpp:156] Memory required for data: 6265171968
I0630 12:41:15.956933   410 net.cpp:484] Sharing parameters 'conv5_2_w' owned by layer 'conv5_2c', param index 0
I0630 12:41:15.956935   410 net.cpp:484] Sharing parameters 'conv5_2_b' owned by layer 'conv5_2c', param index 1
I0630 12:41:15.956938   410 layer_factory.hpp:77] Creating layer relu5_2n
I0630 12:41:15.956944   410 net.cpp:91] Creating Layer relu5_2n
I0630 12:41:15.956948   410 net.cpp:425] relu5_2n <- conv5_2n
I0630 12:41:15.956953   410 net.cpp:386] relu5_2n -> conv5_2n (in-place)
I0630 12:41:15.957119   410 net.cpp:141] Setting up relu5_2n
I0630 12:41:15.957126   410 net.cpp:148] Top shape: 4 512 73 73 (10913792)
I0630 12:41:15.957129   410 net.cpp:156] Memory required for data: 6308827136
I0630 12:41:15.957130   410 layer_factory.hpp:77] Creating layer conv5_3n
I0630 12:41:15.957137   410 net.cpp:91] Creating Layer conv5_3n
I0630 12:41:15.957139   410 net.cpp:425] conv5_3n <- conv5_2n
I0630 12:41:15.957144   410 net.cpp:399] conv5_3n -> conv5_3n
I0630 12:41:15.961441   410 net.cpp:141] Setting up conv5_3n
I0630 12:41:15.961467   410 net.cpp:148] Top shape: 4 512 73 73 (10913792)
I0630 12:41:15.961470   410 net.cpp:156] Memory required for data: 6352482304
I0630 12:41:15.961477   410 net.cpp:484] Sharing parameters 'conv5_3_w' owned by layer 'conv5_3c', param index 0
I0630 12:41:15.961479   410 net.cpp:484] Sharing parameters 'conv5_3_b' owned by layer 'conv5_3c', param index 1
I0630 12:41:15.961482   410 layer_factory.hpp:77] Creating layer relu5_3n
I0630 12:41:15.961489   410 net.cpp:91] Creating Layer relu5_3n
I0630 12:41:15.961495   410 net.cpp:425] relu5_3n <- conv5_3n
I0630 12:41:15.961500   410 net.cpp:386] relu5_3n -> conv5_3n (in-place)
I0630 12:41:15.961901   410 net.cpp:141] Setting up relu5_3n
I0630 12:41:15.961910   410 net.cpp:148] Top shape: 4 512 73 73 (10913792)
I0630 12:41:15.961913   410 net.cpp:156] Memory required for data: 6396137472
I0630 12:41:15.961917   410 layer_factory.hpp:77] Creating layer concat1
I0630 12:41:15.961925   410 net.cpp:91] Creating Layer concat1
I0630 12:41:15.961927   410 net.cpp:425] concat1 <- conv5_3c
I0630 12:41:15.961943   410 net.cpp:425] concat1 <- conv5_3m
I0630 12:41:15.961946   410 net.cpp:425] concat1 <- conv5_3n
I0630 12:41:15.961951   410 net.cpp:399] concat1 -> concat1
I0630 12:41:15.961978   410 net.cpp:141] Setting up concat1
I0630 12:41:15.961982   410 net.cpp:148] Top shape: 4 1536 73 73 (32741376)
I0630 12:41:15.961984   410 net.cpp:156] Memory required for data: 6527102976
I0630 12:41:15.961985   410 layer_factory.hpp:77] Creating layer fc6
I0630 12:41:15.961992   410 net.cpp:91] Creating Layer fc6
I0630 12:41:15.961994   410 net.cpp:425] fc6 <- concat1
I0630 12:41:15.961998   410 net.cpp:399] fc6 -> fc6
/usr/local/lib/python2.7/dist-packages/skimage/transform/_geometric.py:1312: UserWarning: Bi-quadratic interpolation behavior has changed due to a bug in the implementation of scikit-image. The new version now serves as a wrapper around SciPy's interpolation functions, which itself is not verified to be a correct implementation. Until skimage's implementation is fixed, we recommend to use bi-linear or bi-cubic interpolation instead.
  warnings.warn("Bi-quadratic interpolation behavior has changed due "
I0630 12:41:16.122664   410 net.cpp:141] Setting up fc6
I0630 12:41:16.122684   410 net.cpp:148] Top shape: 4 1024 49 49 (9834496)
I0630 12:41:16.122685   410 net.cpp:156] Memory required for data: 6566440960
I0630 12:41:16.122691   410 layer_factory.hpp:77] Creating layer relu6
I0630 12:41:16.122699   410 net.cpp:91] Creating Layer relu6
I0630 12:41:16.122702   410 net.cpp:425] relu6 <- fc6
I0630 12:41:16.122706   410 net.cpp:386] relu6 -> fc6 (in-place)
I0630 12:41:16.122890   410 net.cpp:141] Setting up relu6
I0630 12:41:16.122897   410 net.cpp:148] Top shape: 4 1024 49 49 (9834496)
I0630 12:41:16.122900   410 net.cpp:156] Memory required for data: 6605778944
I0630 12:41:16.122901   410 layer_factory.hpp:77] Creating layer drop6
I0630 12:41:16.122910   410 net.cpp:91] Creating Layer drop6
I0630 12:41:16.122913   410 net.cpp:425] drop6 <- fc6
I0630 12:41:16.122916   410 net.cpp:386] drop6 -> fc6 (in-place)
I0630 12:41:16.122941   410 net.cpp:141] Setting up drop6
I0630 12:41:16.122944   410 net.cpp:148] Top shape: 4 1024 49 49 (9834496)
I0630 12:41:16.122946   410 net.cpp:156] Memory required for data: 6645116928
I0630 12:41:16.122951   410 layer_factory.hpp:77] Creating layer fc7
I0630 12:41:16.122957   410 net.cpp:91] Creating Layer fc7
I0630 12:41:16.122961   410 net.cpp:425] fc7 <- fc6
I0630 12:41:16.122963   410 net.cpp:399] fc7 -> fc7
I0630 12:41:16.124757   410 net.cpp:141] Setting up fc7
I0630 12:41:16.124769   410 net.cpp:148] Top shape: 4 1024 49 49 (9834496)
I0630 12:41:16.124773   410 net.cpp:156] Memory required for data: 6684454912
I0630 12:41:16.124778   410 layer_factory.hpp:77] Creating layer relu7
I0630 12:41:16.124783   410 net.cpp:91] Creating Layer relu7
I0630 12:41:16.124788   410 net.cpp:425] relu7 <- fc7
I0630 12:41:16.124793   410 net.cpp:386] relu7 -> fc7 (in-place)
I0630 12:41:16.124996   410 net.cpp:141] Setting up relu7
I0630 12:41:16.125003   410 net.cpp:148] Top shape: 4 1024 49 49 (9834496)
I0630 12:41:16.125005   410 net.cpp:156] Memory required for data: 6723792896
I0630 12:41:16.125008   410 layer_factory.hpp:77] Creating layer drop7
I0630 12:41:16.125015   410 net.cpp:91] Creating Layer drop7
I0630 12:41:16.125018   410 net.cpp:425] drop7 <- fc7
I0630 12:41:16.125021   410 net.cpp:386] drop7 -> fc7 (in-place)
I0630 12:41:16.125043   410 net.cpp:141] Setting up drop7
I0630 12:41:16.125049   410 net.cpp:148] Top shape: 4 1024 49 49 (9834496)
I0630 12:41:16.125051   410 net.cpp:156] Memory required for data: 6763130880
I0630 12:41:16.125053   410 layer_factory.hpp:77] Creating layer fc8
I0630 12:41:16.125058   410 net.cpp:91] Creating Layer fc8
I0630 12:41:16.125061   410 net.cpp:425] fc8 <- fc7
I0630 12:41:16.125066   410 net.cpp:399] fc8 -> fc8
I0630 12:41:16.125792   410 net.cpp:141] Setting up fc8
I0630 12:41:16.125802   410 net.cpp:148] Top shape: 4 2 49 49 (19208)
I0630 12:41:16.125803   410 net.cpp:156] Memory required for data: 6763207712
I0630 12:41:16.125809   410 layer_factory.hpp:77] Creating layer upscore
I0630 12:41:16.125819   410 net.cpp:91] Creating Layer upscore
I0630 12:41:16.125821   410 net.cpp:425] upscore <- fc8
I0630 12:41:16.125826   410 net.cpp:399] upscore -> upscore
I0630 12:41:16.125991   410 net.cpp:141] Setting up upscore
I0630 12:41:16.125998   410 net.cpp:148] Top shape: 4 2 400 400 (1280000)
I0630 12:41:16.125999   410 net.cpp:156] Memory required for data: 6768327712
I0630 12:41:16.126009   410 layer_factory.hpp:77] Creating layer score
I0630 12:41:16.126042   410 net.cpp:91] Creating Layer score
I0630 12:41:16.126045   410 net.cpp:425] score <- upscore
I0630 12:41:16.126049   410 net.cpp:425] score <- next_im_cur_im_2_split_1
I0630 12:41:16.126052   410 net.cpp:399] score -> score
I0630 12:41:16.126073   410 net.cpp:141] Setting up score
I0630 12:41:16.126077   410 net.cpp:148] Top shape: 4 2 384 384 (1179648)
I0630 12:41:16.126080   410 net.cpp:156] Memory required for data: 6773046304
I0630 12:41:16.126081   410 layer_factory.hpp:77] Creating layer score_score_0_split
I0630 12:41:16.126085   410 net.cpp:91] Creating Layer score_score_0_split
I0630 12:41:16.126087   410 net.cpp:425] score_score_0_split <- score
I0630 12:41:16.126092   410 net.cpp:399] score_score_0_split -> score_score_0_split_0
I0630 12:41:16.126096   410 net.cpp:399] score_score_0_split -> score_score_0_split_1
I0630 12:41:16.126122   410 net.cpp:141] Setting up score_score_0_split
I0630 12:41:16.126127   410 net.cpp:148] Top shape: 4 2 384 384 (1179648)
I0630 12:41:16.126129   410 net.cpp:148] Top shape: 4 2 384 384 (1179648)
I0630 12:41:16.126132   410 net.cpp:156] Memory required for data: 6782483488
I0630 12:41:16.126133   410 layer_factory.hpp:77] Creating layer crf_score
I0630 12:41:16.126138   410 net.cpp:91] Creating Layer crf_score
I0630 12:41:16.126142   410 net.cpp:425] crf_score <- score_score_0_split_0
I0630 12:41:16.126143   410 net.cpp:425] crf_score <- score_score_0_split_1
I0630 12:41:16.126147   410 net.cpp:425] crf_score <- next_im_cur_im_2_split_2
I0630 12:41:16.126149   410 net.cpp:399] crf_score -> crf_score
I0630 12:41:16.126157   410 multi_stage_meanfield.cpp:47] This implementation has not been tested batch size > 1.
I0630 12:41:16.132905   410 multi_stage_meanfield.cpp:170] MultiStageMeanfieldLayer initialized.
I0630 12:41:16.132915   410 net.cpp:141] Setting up crf_score
I0630 12:41:16.132920   410 net.cpp:148] Top shape: 4 2 384 384 (1179648)
I0630 12:41:16.132921   410 net.cpp:156] Memory required for data: 6787202080
I0630 12:41:16.132926   410 layer_factory.hpp:77] Creating layer crf_score_crf_score_0_split
I0630 12:41:16.132931   410 net.cpp:91] Creating Layer crf_score_crf_score_0_split
I0630 12:41:16.132933   410 net.cpp:425] crf_score_crf_score_0_split <- crf_score
I0630 12:41:16.132937   410 net.cpp:399] crf_score_crf_score_0_split -> crf_score_crf_score_0_split_0
I0630 12:41:16.132947   410 net.cpp:399] crf_score_crf_score_0_split -> crf_score_crf_score_0_split_1
I0630 12:41:16.132983   410 net.cpp:141] Setting up crf_score_crf_score_0_split
I0630 12:41:16.132988   410 net.cpp:148] Top shape: 4 2 384 384 (1179648)
I0630 12:41:16.132992   410 net.cpp:148] Top shape: 4 2 384 384 (1179648)
I0630 12:41:16.132992   410 net.cpp:156] Memory required for data: 6796639264
I0630 12:41:16.132995   410 layer_factory.hpp:77] Creating layer loss
I0630 12:41:16.133000   410 net.cpp:91] Creating Layer loss
I0630 12:41:16.133003   410 net.cpp:425] loss <- crf_score_crf_score_0_split_0
I0630 12:41:16.133007   410 net.cpp:425] loss <- label
I0630 12:41:16.133009   410 net.cpp:399] loss -> loss
I0630 12:41:16.133019   410 layer_factory.hpp:77] Creating layer loss
I0630 12:41:16.134367   410 net.cpp:141] Setting up loss
I0630 12:41:16.134379   410 net.cpp:148] Top shape: (1)
I0630 12:41:16.134382   410 net.cpp:151]     with loss weight 1
I0630 12:41:16.134397   410 net.cpp:156] Memory required for data: 6796639268
I0630 12:41:16.134400   410 layer_factory.hpp:77] Creating layer clinet_top
I0630 12:41:16.134901   410 net.cpp:91] Creating Layer clinet_top
I0630 12:41:16.134908   410 net.cpp:425] clinet_top <- crf_score_crf_score_0_split_1
I0630 12:41:16.134914   410 net.cpp:399] clinet_top -> clinet_top
I0630 12:41:16.135288   410 net.cpp:141] Setting up clinet_top
I0630 12:41:16.135299   410 net.cpp:148] Top shape: 1 (1)
I0630 12:41:16.135303   410 net.cpp:156] Memory required for data: 6796639272
I0630 12:41:16.135305   410 net.cpp:219] clinet_top does not need backward computation.
I0630 12:41:16.135308   410 net.cpp:217] loss needs backward computation.
I0630 12:41:16.135324   410 net.cpp:217] crf_score_crf_score_0_split needs backward computation.
I0630 12:41:16.135326   410 net.cpp:217] crf_score needs backward computation.
…
