…
I0630 00:43:38.943506 20971 solver.cpp:81] Creating training net from train_net file: train_davis_sequence_simple.prototxt
I0630 00:43:38.945305 20971 net.cpp:49] Initializing net from parameters: 
state {
  phase: TRAIN
}
layer {
  name: "cur_im"
  type: "Python"
  top: "cur_im"
  top: "masked_im"
  top: "next_im"
  top: "label"
  python_param {
    module: "davis_datalayer_server"
    layer: "DavisDataLayerServer"
    param_str: "{\'shuffle\': True, \'im_shape\': (384, 384), \'batch_size\': 4, \'max_len\': 20, \'split\': \'training\', \'port\': \'6678\'}"
  }
}
layer {
  name: "conv1_1c"
  type: "Convolution"
  bottom: "cur_im"
  top: "conv1_1c"
  param {
    name: "conv1_1_w"
    lr_mult: 1
    decay_mult: 1
  }
  param {
    name: "conv1_1_b"
    lr_mult: 2
    decay_mult: 0
  }
  convolution_param {
    num_output: 64
    pad: 101
    kernel_size: 3
  }
}
layer {
  name: "relu1_1c"
  type: "ReLU"
  bottom: "conv1_1c"
  top: "conv1_1c"
}
layer {
  name: "conv1_2c"
  type: "Convolution"
  bottom: "conv1_1c"
  top: "conv1_2c"
  param {
    name: "conv1_2_w"
    lr_mult: 1
    decay_mult: 1
  }
  param {
    name: "conv1_2_b"
    lr_mult: 2
    decay_mult: 0
  }
  convolution_param {
    num_output: 64
    pad: 1
    kernel_size: 3
  }
}
layer {
  name: "relu1_2c"
  type: "ReLU"
  bottom: "conv1_2c"
  top: "conv1_2c"
}
layer {
  name: "pool1c"
  type: "Pooling"
  bottom: "conv1_2c"
  top: "pool1c"
  pooling_param {
    pool: MAX
    kernel_size: 2
    stride: 2
  }
}
layer {
  name: "conv2_1c"
  type: "Convolution"
  bottom: "pool1c"
  top: "conv2_1c"
  param {
    name: "conv2_1_w"
    lr_mult: 1
    decay_mult: 1
  }
  param {
    name: "conv2_1_b"
    lr_mult: 2
    decay_mult: 0
  }
  convolution_param {
    num_output: 128
    pad: 1
    kernel_size: 3
  }
}
layer {
  name: "relu2_1c"
  type: "ReLU"
  bottom: "conv2_1c"
  top: "conv2_1c"
}
layer {
  name: "conv2_2c"
  type: "Convolution"
  bottom: "conv2_1c"
  top: "conv2_2c"
  param {
    name: "conv2_2_w"
    lr_mult: 1
    decay_mult: 1
  }
  param {
    name: "conv2_2_b"
    lr_mult: 2
    decay_mult: 0
  }
  convolution_param {
    num_output: 128
    pad: 1
    kernel_size: 3
  }
}
layer {
  name: "relu2_2c"
  type: "ReLU"
  bottom: "conv2_2c"
  top: "conv2_2c"
}
layer {
  name: "pool2c"
  type: "Pooling"
  bottom: "conv2_2c"
  top: "pool2c"
  pooling_param {
    pool: MAX
    kernel_size: 2
    stride: 2
  }
}
layer {
  name: "conv3_1c"
  type: "Convolution"
  bottom: "pool2c"
  top: "conv3_1c"
  param {
    name: "conv3_1_w"
    lr_mult: 1
    decay_mult: 1
  }
  param {
    name: "conv3_1_b"
    lr_mult: 2
    decay_mult: 0
  }
  convolution_param {
    num_output: 256
    pad: 1
    kernel_size: 3
  }
}
layer {
  name: "relu3_1c"
  type: "ReLU"
  bottom: "conv3_1c"
  top: "conv3_1c"
}
layer {
  name: "conv3_2c"
  type: "Convolution"
  bottom: "conv3_1c"
  top: "conv3_2c"
  param {
    name: "conv3_2_w"
    lr_mult: 1
    decay_mult: 1
  }
  param {
    name: "conv3_2_b"
    lr_mult: 2
    decay_mult: 0
  }
  convolution_param {
    num_output: 256
    pad: 1
    kernel_size: 3
  }
}
layer {
  name: "relu3_2c"
  type: "ReLU"
  bottom: "conv3_2c"
  top: "conv3_2c"
}
layer {
  name: "conv3_3c"
  type: "Convolution"
  bottom: "conv3_2c"
  top: "conv3_3c"
  param {
    name: "conv3_3_w"
    lr_mult: 1
    decay_mult: 1
  }
  param {
    name: "conv3_3_b"
    lr_mult: 2
    decay_mult: 0
  }
  convolution_param {
    num_output: 256
    pad: 1
    kernel_size: 3
  }
}
layer {
  name: "relu3_3c"
  type: "ReLU"
  bottom: "conv3_3c"
  top: "conv3_3c"
}
layer {
  name: "pool3c"
  type: "Pooling"
  bottom: "conv3_3c"
  top: "pool3c"
  pooling_param {
    pool: MAX
    kernel_size: 2
    stride: 2
  }
}
layer {
  name: "conv4_1c"
  type: "Convolution"
  bottom: "pool3c"
  top: "conv4_1c"
  param {
    name: "conv4_1_w"
    lr_mult: 1
    decay_mult: 1
  }
  param {
    name: "conv4_1_b"
    lr_mult: 2
    decay_mult: 0
  }
  convolution_param {
    num_output: 512
    pad: 1
    kernel_size: 3
  }
}
layer {
  name: "relu4_1c"
  type: "ReLU"
  bottom: "conv4_1c"
  top: "conv4_1c"
}
layer {
  name: "conv4_2c"
  type: "Convolution"
  bottom: "conv4_1c"
  top: "conv4_2c"
  param {
    name: "conv4_2_w"
    lr_mult: 1
    decay_mult: 1
  }
  param {
    name: "conv4_2_b"
    lr_mult: 2
    decay_mult: 0
  }
  convolution_param {
    num_output: 512
    pad: 1
    kernel_size: 3
  }
}
layer {
  name: "relu4_2c"
  type: "ReLU"
  bottom: "conv4_2c"
  top: "conv4_2c"
}
layer {
  name: "conv4_3c"
  type: "Convolution"
  bottom: "conv4_2c"
  top: "conv4_3c"
  param {
    name: "conv4_3_w"
    lr_mult: 1
    decay_mult: 1
  }
  param {
    name: "conv4_3_b"
    lr_mult: 2
    decay_mult: 0
  }
  convolution_param {
    num_output: 512
    pad: 1
    kernel_size: 3
  }
}
layer {
  name: "relu4_3c"
  type: "ReLU"
  bottom: "conv4_3c"
  top: "conv4_3c"
}
layer {
  name: "conv5_1c"
  type: "Convolution"
  bottom: "conv4_3c"
  top: "conv5_1c"
  param {
    name: "conv5_1_w"
    lr_mult: 1
    decay_mult: 1
  }
  param {
    name: "conv5_1_b"
    lr_mult: 2
    decay_mult: 0
  }
  convolution_param {
    num_output: 512
    pad: 2
    kernel_size: 3
    dilation: 2
  }
}
layer {
  name: "relu5_1c"
  type: "ReLU"
  bottom: "conv5_1c"
  top: "conv5_1c"
}
layer {
  name: "conv5_2c"
  type: "Convolution"
  bottom: "conv5_1c"
  top: "conv5_2c"
  param {
    name: "conv5_2_w"
    lr_mult: 1
    decay_mult: 1
  }
  param {
    name: "conv5_2_b"
    lr_mult: 2
    decay_mult: 0
  }
  convolution_param {
    num_output: 512
    pad: 2
    kernel_size: 3
    dilation: 2
  }
}
layer {
  name: "relu5_2c"
  type: "ReLU"
  bottom: "conv5_2c"
  top: "conv5_2c"
}
layer {
  name: "conv5_3c"
  type: "Convolution"
  bottom: "conv5_2c"
  top: "conv5_3c"
  param {
    name: "conv5_3_w"
    lr_mult: 1
    decay_mult: 1
  }
  param {
    name: "conv5_3_b"
    lr_mult: 2
    decay_mult: 0
  }
  convolution_param {
    num_output: 512
    kernel_size: 3
    pad_h: 14
    pad_w: 14
    dilation: 2
  }
}
layer {
  name: "relu5_3c"
  type: "ReLU"
  bottom: "conv5_3c"
  top: "conv5_3c"
}
layer {
  name: "conv1_1m"
  type: "Convolution"
  bottom: "masked_im"
  top: "conv1_1m"
  param {
    name: "conv1_1_w"
    lr_mult: 1
    decay_mult: 1
  }
  param {
    name: "conv1_1_b"
    lr_mult: 2
    decay_mult: 0
  }
  convolution_param {
    num_output: 64
    pad: 101
    kernel_size: 3
  }
}
layer {
  name: "relu1_1m"
  type: "ReLU"
  bottom: "conv1_1m"
  top: "conv1_1m"
}
layer {
  name: "conv1_2m"
  type: "Convolution"
  bottom: "conv1_1m"
  top: "conv1_2m"
  param {
    name: "conv1_2_w"
    lr_mult: 1
    decay_mult: 1
  }
  param {
    name: "conv1_2_b"
    lr_mult: 2
    decay_mult: 0
  }
  convolution_param {
    num_output: 64
    pad: 1
    kernel_size: 3
  }
}
layer {
  name: "relu1_2m"
  type: "ReLU"
  bottom: "conv1_2m"
  top: "conv1_2m"
}
layer {
  name: "pool1m"
  type: "Pooling"
  bottom: "conv1_2m"
  top: "pool1m"
  pooling_param {
    pool: MAX
    kernel_size: 2
    stride: 2
  }
}
layer {
  name: "conv2_1m"
  type: "Convolution"
  bottom: "pool1m"
  top: "conv2_1m"
  param {
    name: "conv2_1_w"
    lr_mult: 1
    decay_mult: 1
  }
  param {
    name: "conv2_1_b"
    lr_mult: 2
    decay_mult: 0
  }
  convolution_param {
    num_output: 128
    pad: 1
    kernel_size: 3
  }
}
layer {
  name: "relu2_1m"
  type: "ReLU"
  bottom: "conv2_1m"
  top: "conv2_1m"
}
layer {
  name: "conv2_2m"
  type: "Convolution"
  bottom: "conv2_1m"
  top: "conv2_2m"
  param {
    name: "conv2_2_w"
    lr_mult: 1
    decay_mult: 1
  }
  param {
    name: "conv2_2_b"
    lr_mult: 2
    decay_mult: 0
  }
  convolution_param {
    num_output: 128
    pad: 1
    kernel_size: 3
  }
}
layer {
  name: "relu2_2m"
  type: "ReLU"
  bottom: "conv2_2m"
  top: "conv2_2m"
}
layer {
  name: "pool2m"
  type: "Pooling"
  bottom: "conv2_2m"
  top: "pool2m"
  pooling_param {
    pool: MAX
    kernel_size: 2
    stride: 2
  }
}
layer {
  name: "conv3_1m"
  type: "Convolution"
  bottom: "pool2m"
  top: "conv3_1m"
  param {
    name: "conv3_1_w"
    lr_mult: 1
    decay_mult: 1
  }
  param {
    name: "conv3_1_b"
    lr_mult: 2
    decay_mult: 0
  }
  convolution_param {
    num_output: 256
    pad: 1
    kernel_size: 3
  }
}
layer {
  name: "relu3_1m"
  type: "ReLU"
  bottom: "conv3_1m"
  top: "conv3_1m"
}
layer {
  name: "conv3_2m"
  type: "Convolution"
  bottom: "conv3_1m"
  top: "conv3_2m"
  param {
    name: "conv3_2_w"
    lr_mult: 1
    decay_mult: 1
  }
  param {
    name: "conv3_2_b"
    lr_mult: 2
    decay_mult: 0
  }
  convolution_param {
    num_output: 256
    pad: 1
    kernel_size: 3
  }
}
layer {
  name: "relu3_2m"
  type: "ReLU"
  bottom: "conv3_2m"
  top: "conv3_2m"
}
layer {
  name: "conv3_3m"
  type: "Convolution"
  bottom: "conv3_2m"
  top: "conv3_3m"
  param {
    name: "conv3_3_w"
    lr_mult: 1
    decay_mult: 1
  }
  param {
    name: "conv3_3_b"
    lr_mult: 2
    decay_mult: 0
  }
  convolution_param {
    num_output: 256
    pad: 1
    kernel_size: 3
  }
}
layer {
  name: "relu3_3m"
  type: "ReLU"
  bottom: "conv3_3m"
  top: "conv3_3m"
}
layer {
  name: "pool3m"
  type: "Pooling"
  bottom: "conv3_3m"
  top: "pool3m"
  pooling_param {
    pool: MAX
    kernel_size: 2
    stride: 2
  }
}
layer {
  name: "conv4_1m"
  type: "Convolution"
  bottom: "pool3m"
  top: "conv4_1m"
  param {
    name: "conv4_1_w"
    lr_mult: 1
    decay_mult: 1
  }
  param {
    name: "conv4_1_b"
    lr_mult: 2
    decay_mult: 0
  }
  convolution_param {
    num_output: 512
    pad: 1
    kernel_size: 3
  }
}
layer {
  name: "relu4_1m"
  type: "ReLU"
  bottom: "conv4_1m"
  top: "conv4_1m"
}
layer {
  name: "conv4_2m"
  type: "Convolution"
  bottom: "conv4_1m"
  top: "conv4_2m"
  param {
    name: "conv4_2_w"
    lr_mult: 1
    decay_mult: 1
  }
  param {
    name: "conv4_2_b"
    lr_mult: 2
    decay_mult: 0
  }
  convolution_param {
    num_output: 512
    pad: 1
    kernel_size: 3
  }
}
layer {
  name: "relu4_2m"
  type: "ReLU"
  bottom: "conv4_2m"
  top: "conv4_2m"
}
layer {
  name: "conv4_3m"
  type: "Convolution"
  bottom: "conv4_2m"
  top: "conv4_3m"
  param {
    name: "conv4_3_w"
    lr_mult: 1
    decay_mult: 1
  }
  param {
    name: "conv4_3_b"
    lr_mult: 2
    decay_mult: 0
  }
  convolution_param {
    num_output: 512
    pad: 1
    kernel_size: 3
  }
}
layer {
  name: "relu4_3m"
  type: "ReLU"
  bottom: "conv4_3m"
  top: "conv4_3m"
}
layer {
  name: "conv5_1m"
  type: "Convolution"
  bottom: "conv4_3m"
  top: "conv5_1m"
  param {
    name: "conv5_1_w"
    lr_mult: 1
    decay_mult: 1
  }
  param {
    name: "conv5_1_b"
    lr_mult: 2
    decay_mult: 0
  }
  convolution_param {
    num_output: 512
    pad: 2
    kernel_size: 3
    dilation: 2
  }
}
layer {
  name: "relu5_1m"
  type: "ReLU"
  bottom: "conv5_1m"
  top: "conv5_1m"
}
layer {
  name: "conv5_2m"
  type: "Convolution"
  bottom: "conv5_1m"
  top: "conv5_2m"
  param {
    name: "conv5_2_w"
    lr_mult: 1
    decay_mult: 1
  }
  param {
    name: "conv5_2_b"
    lr_mult: 2
    decay_mult: 0
  }
  convolution_param {
    num_output: 512
    pad: 2
    kernel_size: 3
    dilation: 2
  }
}
layer {
  name: "relu5_2m"
  type: "ReLU"
  bottom: "conv5_2m"
  top: "conv5_2m"
}
layer {
  name: "conv5_3m"
  type: "Convolution"
  bottom: "conv5_2m"
  top: "conv5_3m"
  param {
    name: "conv5_3_w"
    lr_mult: 1
    decay_mult: 1
  }
  param {
    name: "conv5_3_b"
    lr_mult: 2
    decay_mult: 0
  }
  convolution_param {
    num_output: 512
    kernel_size: 3
    pad_h: 14
    pad_w: 14
    dilation: 2
  }
}
layer {
  name: "relu5_3m"
  type: "ReLU"
  bottom: "conv5_3m"
  top: "conv5_3m"
}
layer {
  name: "conv1_1n"
  type: "Convolution"
  bottom: "next_im"
  top: "conv1_1n"
  param {
    name: "conv1_1_w"
    lr_mult: 1
    decay_mult: 1
  }
  param {
    name: "conv1_1_b"
    lr_mult: 2
    decay_mult: 0
  }
  convolution_param {
    num_output: 64
    pad: 101
    kernel_size: 3
  }
}
layer {
  name: "relu1_1n"
  type: "ReLU"
  bottom: "conv1_1n"
  top: "conv1_1n"
}
layer {
  name: "conv1_2n"
  type: "Convolution"
  bottom: "conv1_1n"
  top: "conv1_2n"
  param {
    name: "conv1_2_w"
    lr_mult: 1
    decay_mult: 1
  }
  param {
    name: "conv1_2_b"
    lr_mult: 2
    decay_mult: 0
  }
  convolution_param {
    num_output: 64
    pad: 1
    kernel_size: 3
  }
}
layer {
  name: "relu1_2n"
  type: "ReLU"
  bottom: "conv1_2n"
  top: "conv1_2n"
}
layer {
  name: "pool1n"
  type: "Pooling"
  bottom: "conv1_2n"
  top: "pool1n"
  pooling_param {
    pool: MAX
    kernel_size: 2
    stride: 2
  }
}
layer {
  name: "conv2_1n"
  type: "Convolution"
  bottom: "pool1n"
  top: "conv2_1n"
  param {
    name: "conv2_1_w"
    lr_mult: 1
    decay_mult: 1
  }
  param {
    name: "conv2_1_b"
    lr_mult: 2
    decay_mult: 0
  }
  convolution_param {
    num_output: 128
    pad: 1
    kernel_size: 3
  }
}
layer {
  name: "relu2_1n"
  type: "ReLU"
  bottom: "conv2_1n"
  top: "conv2_1n"
}
layer {
  name: "conv2_2n"
  type: "Convolution"
  bottom: "conv2_1n"
  top: "conv2_2n"
  param {
    name: "conv2_2_w"
    lr_mult: 1
    decay_mult: 1
  }
  param {
    name: "conv2_2_b"
    lr_mult: 2
    decay_mult: 0
  }
  convolution_param {
    num_output: 128
    pad: 1
    kernel_size: 3
  }
}
layer {
  name: "relu2_2n"
  type: "ReLU"
  bottom: "conv2_2n"
  top: "conv2_2n"
}
layer {
  name: "pool2n"
  type: "Pooling"
  bottom: "conv2_2n"
  top: "pool2n"
  pooling_param {
    pool: MAX
    kernel_size: 2
    stride: 2
  }
}
layer {
  name: "conv3_1n"
  type: "Convolution"
  bottom: "pool2n"
  top: "conv3_1n"
  param {
    name: "conv3_1_w"
    lr_mult: 1
    decay_mult: 1
  }
  param {
    name: "conv3_1_b"
    lr_mult: 2
    decay_mult: 0
  }
  convolution_param {
    num_output: 256
    pad: 1
    kernel_size: 3
  }
}
layer {
  name: "relu3_1n"
  type: "ReLU"
  bottom: "conv3_1n"
  top: "conv3_1n"
}
layer {
  name: "conv3_2n"
  type: "Convolution"
  bottom: "conv3_1n"
  top: "conv3_2n"
  param {
    name: "conv3_2_w"
    lr_mult: 1
    decay_mult: 1
  }
  param {
    name: "conv3_2_b"
    lr_mult: 2
    decay_mult: 0
  }
  convolution_param {
    num_output: 256
    pad: 1
    kernel_size: 3
  }
}
layer {
  name: "relu3_2n"
  type: "ReLU"
  bottom: "conv3_2n"
  top: "conv3_2n"
}
layer {
  name: "conv3_3n"
  type: "Convolution"
  bottom: "conv3_2n"
  top: "conv3_3n"
  param {
    name: "conv3_3_w"
    lr_mult: 1
    decay_mult: 1
  }
  param {
    name: "conv3_3_b"
    lr_mult: 2
    decay_mult: 0
  }
  convolution_param {
    num_output: 256
    pad: 1
    kernel_size: 3
  }
}
layer {
  name: "relu3_3n"
  type: "ReLU"
  bottom: "conv3_3n"
  top: "conv3_3n"
}
layer {
  name: "pool3n"
  type: "Pooling"
  bottom: "conv3_3n"
  top: "pool3n"
  pooling_param {
    pool: MAX
    kernel_size: 2
    stride: 2
  }
}
layer {
  name: "conv4_1n"
  type: "Convolution"
  bottom: "pool3n"
  top: "conv4_1n"
  param {
    name: "conv4_1_w"
    lr_mult: 1
    decay_mult: 1
  }
  param {
    name: "conv4_1_b"
    lr_mult: 2
    decay_mult: 0
  }
  convolution_param {
    num_output: 512
    pad: 1
    kernel_size: 3
  }
}
layer {
  name: "relu4_1n"
  type: "ReLU"
  bottom: "conv4_1n"
  top: "conv4_1n"
}
layer {
  name: "conv4_2n"
  type: "Convolution"
  bottom: "conv4_1n"
  top: "conv4_2n"
  param {
    name: "conv4_2_w"
    lr_mult: 1
    decay_mult: 1
  }
  param {
    name: "conv4_2_b"
    lr_mult: 2
    decay_mult: 0
  }
  convolution_param {
    num_output: 512
    pad: 1
    kernel_size: 3
  }
}
layer {
  name: "relu4_2n"
  type: "ReLU"
  bottom: "conv4_2n"
  top: "conv4_2n"
}
layer {
  name: "conv4_3n"
  type: "Convolution"
  bottom: "conv4_2n"
  top: "conv4_3n"
  param {
    name: "conv4_3_w"
    lr_mult: 1
    decay_mult: 1
  }
  param {
    name: "conv4_3_b"
    lr_mult: 2
    decay_mult: 0
  }
  convolution_param {
    num_output: 512
    pad: 1
    kernel_size: 3
  }
}
layer {
  name: "relu4_3n"
  type: "ReLU"
  bottom: "conv4_3n"
  top: "conv4_3n"
}
layer {
  name: "conv5_1n"
  type: "Convolution"
  bottom: "conv4_3n"
  top: "conv5_1n"
  param {
    name: "conv5_1_w"
    lr_mult: 1
    decay_mult: 1
  }
  param {
    name: "conv5_1_b"
    lr_mult: 2
    decay_mult: 0
  }
  convolution_param {
    num_output: 512
    pad: 2
    kernel_size: 3
    dilation: 2
  }
}
layer {
  name: "relu5_1n"
  type: "ReLU"
  bottom: "conv5_1n"
  top: "conv5_1n"
}
layer {
  name: "conv5_2n"
  type: "Convolution"
  bottom: "conv5_1n"
  top: "conv5_2n"
  param {
    name: "conv5_2_w"
    lr_mult: 1
    decay_mult: 1
  }
  param {
    name: "conv5_2_b"
    lr_mult: 2
    decay_mult: 0
  }
  convolution_param {
    num_output: 512
    pad: 2
    kernel_size: 3
    dilation: 2
  }
}
layer {
  name: "relu5_2n"
  type: "ReLU"
  bottom: "conv5_2n"
  top: "conv5_2n"
}
layer {
  name: "conv5_3n"
  type: "Convolution"
  bottom: "conv5_2n"
  top: "conv5_3n"
  param {
    name: "conv5_3_w"
    lr_mult: 1
    decay_mult: 1
  }
  param {
    name: "conv5_3_b"
    lr_mult: 2
    decay_mult: 0
  }
  convolution_param {
    num_output: 512
    pad: 2
    kernel_size: 3
    dilation: 2
  }
}
layer {
  name: "relu5_3n"
  type: "ReLU"
  bottom: "conv5_3n"
  top: "conv5_3n"
}
layer {
  name: "concat1"
  type: "Concat"
  bottom: "conv5_3c"
  bottom: "conv5_3m"
  bottom: "conv5_3n"
  top: "concat1"
}
layer {
  name: "fc6"
  type: "Convolution"
  bottom: "concat1"
  top: "fc6"
  param {
    lr_mult: 1
    decay_mult: 1
  }
  param {
    lr_mult: 2
    decay_mult: 0
  }
  convolution_param {
    num_output: 1024
    kernel_size: 7
    dilation: 4
  }
}
layer {
  name: "relu6"
  type: "ReLU"
  bottom: "fc6"
  top: "fc6"
}
layer {
  name: "drop6"
  type: "Dropout"
  bottom: "fc6"
  top: "fc6"
  dropout_param {
    dropout_ratio: 0.5
  }
}
layer {
  name: "fc7"
  type: "Convolution"
  bottom: "fc6"
  top: "fc7"
  param {
    lr_mult: 1
    decay_mult: 1
  }
  param {
    lr_mult: 2
    decay_mult: 0
  }
  convolution_param {
    num_output: 1024
    kernel_size: 1
  }
}
layer {
  name: "relu7"
  type: "ReLU"
  bottom: "fc7"
  top: "fc7"
}
layer {
  name: "drop7"
  type: "Dropout"
  bottom: "fc7"
  top: "fc7"
  dropout_param {
    dropout_ratio: 0.5
  }
}
layer {
  name: "fc8"
  type: "Convolution"
  bottom: "fc7"
  top: "fc8"
  param {
    lr_mult: 1
    decay_mult: 1
  }
  param {
    lr_mult: 2
    decay_mult: 0
  }
  convolution_param {
    num_output: 2
    kernel_size: 1
  }
}
layer {
  name: "upscore"
  type: "Deconvolution"
  bottom: "fc8"
  top: "upscore"
  param {
    lr_mult: 0
    decay_mult: 0
  }
  convolution_param {
    num_output: 2
    bias_term: false
    kernel_size: 16
    group: 2
    stride: 8
    weight_filler {
      type: "bilinear"
    }
  }
}
layer {
  name: "score"
  type: "Crop"
  bottom: "upscore"
  bottom: "next_im"
  top: "score"
  crop_param {
    axis: 2
    offset: 8
  }
}
layer {
  name: "loss"
  type: "SoftmaxWithLoss"
  bottom: "score"
  bottom: "label"
  top: "loss"
  loss_param {
    ignore_label: 255
  }
}
layer {
  name: "clinet_top"
  type: "Python"
  bottom: "score"
  top: "clinet_top"
  python_param {
    module: "davis_datalayer_client"
    layer: "DavisDataLayerClient"
    param_str: "{\'port\': \'6678\'}"
  }
}
I0630 00:43:38.945587 20971 layer_factory.hpp:77] Creating layer cur_im
/home/amir/davis/python/lib/davis/measures/t_stability.py:6: RuntimeWarning: to-Python converter for std::vector<bool, std::allocator<bool> > already registered; second conversion method ignored.
  from tstab import *
I0630 00:43:39.523010 20971 net.cpp:91] Creating Layer cur_im
I0630 00:43:39.523041 20971 net.cpp:399] cur_im -> cur_im
I0630 00:43:39.523056 20971 net.cpp:399] cur_im -> masked_im
I0630 00:43:39.523064 20971 net.cpp:399] cur_im -> next_im
I0630 00:43:39.523068 20971 net.cpp:399] cur_im -> label
I0630 00:43:39.569082 20971 net.cpp:141] Setting up cur_im
I0630 00:43:39.569113 20971 net.cpp:148] Top shape: 4 3 192 192 (442368)
I0630 00:43:39.569118 20971 net.cpp:148] Top shape: 4 3 192 192 (442368)
I0630 00:43:39.569121 20971 net.cpp:148] Top shape: 4 3 384 384 (1769472)
I0630 00:43:39.569125 20971 net.cpp:148] Top shape: 4 1 384 384 (589824)
I0630 00:43:39.569128 20971 net.cpp:156] Memory required for data: 12976128
I0630 00:43:39.569140 20971 layer_factory.hpp:77] Creating layer next_im_cur_im_2_split
I0630 00:43:39.569171 20971 net.cpp:91] Creating Layer next_im_cur_im_2_split
I0630 00:43:39.569188 20971 net.cpp:425] next_im_cur_im_2_split <- next_im
I0630 00:43:39.569203 20971 net.cpp:399] next_im_cur_im_2_split -> next_im_cur_im_2_split_0
I0630 00:43:39.569214 20971 net.cpp:399] next_im_cur_im_2_split -> next_im_cur_im_2_split_1
I0630 00:43:39.569243 20971 net.cpp:141] Setting up next_im_cur_im_2_split
I0630 00:43:39.569248 20971 net.cpp:148] Top shape: 4 3 384 384 (1769472)
I0630 00:43:39.569250 20971 net.cpp:148] Top shape: 4 3 384 384 (1769472)
I0630 00:43:39.569252 20971 net.cpp:156] Memory required for data: 27131904
I0630 00:43:39.569254 20971 layer_factory.hpp:77] Creating layer conv1_1c
I0630 00:43:39.569268 20971 net.cpp:91] Creating Layer conv1_1c
I0630 00:43:39.569272 20971 net.cpp:425] conv1_1c <- cur_im
I0630 00:43:39.569277 20971 net.cpp:399] conv1_1c -> conv1_1c
I0630 00:43:39.694135 20971 net.cpp:141] Setting up conv1_1c
I0630 00:43:39.694165 20971 net.cpp:148] Top shape: 4 64 392 392 (39337984)
I0630 00:43:39.694169 20971 net.cpp:156] Memory required for data: 184483840
I0630 00:43:39.694181 20971 layer_factory.hpp:77] Creating layer relu1_1c
I0630 00:43:39.694190 20971 net.cpp:91] Creating Layer relu1_1c
I0630 00:43:39.694191 20971 net.cpp:425] relu1_1c <- conv1_1c
I0630 00:43:39.694195 20971 net.cpp:386] relu1_1c -> conv1_1c (in-place)
I0630 00:43:39.694314 20971 net.cpp:141] Setting up relu1_1c
I0630 00:43:39.694320 20971 net.cpp:148] Top shape: 4 64 392 392 (39337984)
I0630 00:43:39.694324 20971 net.cpp:156] Memory required for data: 341835776
I0630 00:43:39.694325 20971 layer_factory.hpp:77] Creating layer conv1_2c
I0630 00:43:39.694335 20971 net.cpp:91] Creating Layer conv1_2c
I0630 00:43:39.694339 20971 net.cpp:425] conv1_2c <- conv1_1c
I0630 00:43:39.694342 20971 net.cpp:399] conv1_2c -> conv1_2c
I0630 00:43:39.695541 20971 net.cpp:141] Setting up conv1_2c
I0630 00:43:39.695551 20971 net.cpp:148] Top shape: 4 64 392 392 (39337984)
I0630 00:43:39.695554 20971 net.cpp:156] Memory required for data: 499187712
I0630 00:43:39.695561 20971 layer_factory.hpp:77] Creating layer relu1_2c
I0630 00:43:39.695565 20971 net.cpp:91] Creating Layer relu1_2c
I0630 00:43:39.695567 20971 net.cpp:425] relu1_2c <- conv1_2c
I0630 00:43:39.695574 20971 net.cpp:386] relu1_2c -> conv1_2c (in-place)
I0630 00:43:39.695760 20971 net.cpp:141] Setting up relu1_2c
I0630 00:43:39.695766 20971 net.cpp:148] Top shape: 4 64 392 392 (39337984)
I0630 00:43:39.695768 20971 net.cpp:156] Memory required for data: 656539648
I0630 00:43:39.695771 20971 layer_factory.hpp:77] Creating layer pool1c
I0630 00:43:39.695777 20971 net.cpp:91] Creating Layer pool1c
I0630 00:43:39.695780 20971 net.cpp:425] pool1c <- conv1_2c
I0630 00:43:39.695785 20971 net.cpp:399] pool1c -> pool1c
I0630 00:43:39.695822 20971 net.cpp:141] Setting up pool1c
I0630 00:43:39.695827 20971 net.cpp:148] Top shape: 4 64 196 196 (9834496)
I0630 00:43:39.695828 20971 net.cpp:156] Memory required for data: 695877632
I0630 00:43:39.695830 20971 layer_factory.hpp:77] Creating layer conv2_1c
I0630 00:43:39.695837 20971 net.cpp:91] Creating Layer conv2_1c
I0630 00:43:39.695839 20971 net.cpp:425] conv2_1c <- pool1c
I0630 00:43:39.695843 20971 net.cpp:399] conv2_1c -> conv2_1c
I0630 00:43:39.696575 20971 net.cpp:141] Setting up conv2_1c
I0630 00:43:39.696583 20971 net.cpp:148] Top shape: 4 128 196 196 (19668992)
I0630 00:43:39.696585 20971 net.cpp:156] Memory required for data: 774553600
I0630 00:43:39.696591 20971 layer_factory.hpp:77] Creating layer relu2_1c
I0630 00:43:39.696596 20971 net.cpp:91] Creating Layer relu2_1c
I0630 00:43:39.696599 20971 net.cpp:425] relu2_1c <- conv2_1c
I0630 00:43:39.696601 20971 net.cpp:386] relu2_1c -> conv2_1c (in-place)
I0630 00:43:39.696712 20971 net.cpp:141] Setting up relu2_1c
I0630 00:43:39.696717 20971 net.cpp:148] Top shape: 4 128 196 196 (19668992)
I0630 00:43:39.696719 20971 net.cpp:156] Memory required for data: 853229568
I0630 00:43:39.696722 20971 layer_factory.hpp:77] Creating layer conv2_2c
I0630 00:43:39.696728 20971 net.cpp:91] Creating Layer conv2_2c
I0630 00:43:39.696740 20971 net.cpp:425] conv2_2c <- conv2_1c
I0630 00:43:39.696744 20971 net.cpp:399] conv2_2c -> conv2_2c
I0630 00:43:39.697661 20971 net.cpp:141] Setting up conv2_2c
I0630 00:43:39.697669 20971 net.cpp:148] Top shape: 4 128 196 196 (19668992)
I0630 00:43:39.697671 20971 net.cpp:156] Memory required for data: 931905536
I0630 00:43:39.697675 20971 layer_factory.hpp:77] Creating layer relu2_2c
I0630 00:43:39.697679 20971 net.cpp:91] Creating Layer relu2_2c
I0630 00:43:39.697681 20971 net.cpp:425] relu2_2c <- conv2_2c
I0630 00:43:39.697685 20971 net.cpp:386] relu2_2c -> conv2_2c (in-place)
I0630 00:43:39.697789 20971 net.cpp:141] Setting up relu2_2c
I0630 00:43:39.697796 20971 net.cpp:148] Top shape: 4 128 196 196 (19668992)
I0630 00:43:39.697798 20971 net.cpp:156] Memory required for data: 1010581504
I0630 00:43:39.697800 20971 layer_factory.hpp:77] Creating layer pool2c
I0630 00:43:39.697806 20971 net.cpp:91] Creating Layer pool2c
I0630 00:43:39.697808 20971 net.cpp:425] pool2c <- conv2_2c
I0630 00:43:39.697811 20971 net.cpp:399] pool2c -> pool2c
I0630 00:43:39.697835 20971 net.cpp:141] Setting up pool2c
I0630 00:43:39.697839 20971 net.cpp:148] Top shape: 4 128 98 98 (4917248)
I0630 00:43:39.697841 20971 net.cpp:156] Memory required for data: 1030250496
I0630 00:43:39.697844 20971 layer_factory.hpp:77] Creating layer conv3_1c
I0630 00:43:39.697847 20971 net.cpp:91] Creating Layer conv3_1c
I0630 00:43:39.697850 20971 net.cpp:425] conv3_1c <- pool2c
I0630 00:43:39.697854 20971 net.cpp:399] conv3_1c -> conv3_1c
I0630 00:43:39.699836 20971 net.cpp:141] Setting up conv3_1c
I0630 00:43:39.699869 20971 net.cpp:148] Top shape: 4 256 98 98 (9834496)
I0630 00:43:39.699874 20971 net.cpp:156] Memory required for data: 1069588480
I0630 00:43:39.699899 20971 layer_factory.hpp:77] Creating layer relu3_1c
I0630 00:43:39.699913 20971 net.cpp:91] Creating Layer relu3_1c
I0630 00:43:39.699921 20971 net.cpp:425] relu3_1c <- conv3_1c
I0630 00:43:39.699930 20971 net.cpp:386] relu3_1c -> conv3_1c (in-place)
I0630 00:43:39.700284 20971 net.cpp:141] Setting up relu3_1c
I0630 00:43:39.700294 20971 net.cpp:148] Top shape: 4 256 98 98 (9834496)
I0630 00:43:39.700299 20971 net.cpp:156] Memory required for data: 1108926464
I0630 00:43:39.700302 20971 layer_factory.hpp:77] Creating layer conv3_2c
I0630 00:43:39.700317 20971 net.cpp:91] Creating Layer conv3_2c
I0630 00:43:39.700322 20971 net.cpp:425] conv3_2c <- conv3_1c
I0630 00:43:39.700338 20971 net.cpp:399] conv3_2c -> conv3_2c
I0630 00:43:39.702030 20971 net.cpp:141] Setting up conv3_2c
I0630 00:43:39.702046 20971 net.cpp:148] Top shape: 4 256 98 98 (9834496)
I0630 00:43:39.702051 20971 net.cpp:156] Memory required for data: 1148264448
I0630 00:43:39.702064 20971 layer_factory.hpp:77] Creating layer relu3_2c
I0630 00:43:39.702070 20971 net.cpp:91] Creating Layer relu3_2c
I0630 00:43:39.702074 20971 net.cpp:425] relu3_2c <- conv3_2c
I0630 00:43:39.702077 20971 net.cpp:386] relu3_2c -> conv3_2c (in-place)
I0630 00:43:39.702183 20971 net.cpp:141] Setting up relu3_2c
I0630 00:43:39.702189 20971 net.cpp:148] Top shape: 4 256 98 98 (9834496)
I0630 00:43:39.702191 20971 net.cpp:156] Memory required for data: 1187602432
I0630 00:43:39.702193 20971 layer_factory.hpp:77] Creating layer conv3_3c
I0630 00:43:39.702203 20971 net.cpp:91] Creating Layer conv3_3c
I0630 00:43:39.702205 20971 net.cpp:425] conv3_3c <- conv3_2c
I0630 00:43:39.702209 20971 net.cpp:399] conv3_3c -> conv3_3c
I0630 00:43:39.704169 20971 net.cpp:141] Setting up conv3_3c
I0630 00:43:39.704203 20971 net.cpp:148] Top shape: 4 256 98 98 (9834496)
I0630 00:43:39.704210 20971 net.cpp:156] Memory required for data: 1226940416
I0630 00:43:39.704226 20971 layer_factory.hpp:77] Creating layer relu3_3c
I0630 00:43:39.704237 20971 net.cpp:91] Creating Layer relu3_3c
I0630 00:43:39.704242 20971 net.cpp:425] relu3_3c <- conv3_3c
I0630 00:43:39.704249 20971 net.cpp:386] relu3_3c -> conv3_3c (in-place)
I0630 00:43:39.704434 20971 net.cpp:141] Setting up relu3_3c
I0630 00:43:39.704444 20971 net.cpp:148] Top shape: 4 256 98 98 (9834496)
I0630 00:43:39.704463 20971 net.cpp:156] Memory required for data: 1266278400
I0630 00:43:39.704466 20971 layer_factory.hpp:77] Creating layer pool3c
I0630 00:43:39.704476 20971 net.cpp:91] Creating Layer pool3c
I0630 00:43:39.704480 20971 net.cpp:425] pool3c <- conv3_3c
I0630 00:43:39.704488 20971 net.cpp:399] pool3c -> pool3c
I0630 00:43:39.704531 20971 net.cpp:141] Setting up pool3c
I0630 00:43:39.704540 20971 net.cpp:148] Top shape: 4 256 49 49 (2458624)
I0630 00:43:39.704542 20971 net.cpp:156] Memory required for data: 1276112896
I0630 00:43:39.704545 20971 layer_factory.hpp:77] Creating layer conv4_1c
I0630 00:43:39.704555 20971 net.cpp:91] Creating Layer conv4_1c
I0630 00:43:39.704558 20971 net.cpp:425] conv4_1c <- pool3c
I0630 00:43:39.704565 20971 net.cpp:399] conv4_1c -> conv4_1c
I0630 00:43:39.708696 20971 net.cpp:141] Setting up conv4_1c
I0630 00:43:39.708797 20971 net.cpp:148] Top shape: 4 512 49 49 (4917248)
I0630 00:43:39.708814 20971 net.cpp:156] Memory required for data: 1295781888
I0630 00:43:39.708827 20971 layer_factory.hpp:77] Creating layer relu4_1c
I0630 00:43:39.708844 20971 net.cpp:91] Creating Layer relu4_1c
I0630 00:43:39.708849 20971 net.cpp:425] relu4_1c <- conv4_1c
I0630 00:43:39.708864 20971 net.cpp:386] relu4_1c -> conv4_1c (in-place)
I0630 00:43:39.709108 20971 net.cpp:141] Setting up relu4_1c
I0630 00:43:39.709120 20971 net.cpp:148] Top shape: 4 512 49 49 (4917248)
I0630 00:43:39.709122 20971 net.cpp:156] Memory required for data: 1315450880
I0630 00:43:39.709127 20971 layer_factory.hpp:77] Creating layer conv4_2c
I0630 00:43:39.709136 20971 net.cpp:91] Creating Layer conv4_2c
I0630 00:43:39.709138 20971 net.cpp:425] conv4_2c <- conv4_1c
I0630 00:43:39.709142 20971 net.cpp:399] conv4_2c -> conv4_2c
I0630 00:43:39.713336 20971 net.cpp:141] Setting up conv4_2c
I0630 00:43:39.713371 20971 net.cpp:148] Top shape: 4 512 49 49 (4917248)
I0630 00:43:39.713373 20971 net.cpp:156] Memory required for data: 1335119872
I0630 00:43:39.713392 20971 layer_factory.hpp:77] Creating layer relu4_2c
I0630 00:43:39.713412 20971 net.cpp:91] Creating Layer relu4_2c
I0630 00:43:39.713416 20971 net.cpp:425] relu4_2c <- conv4_2c
I0630 00:43:39.713423 20971 net.cpp:386] relu4_2c -> conv4_2c (in-place)
I0630 00:43:39.713542 20971 net.cpp:141] Setting up relu4_2c
I0630 00:43:39.713548 20971 net.cpp:148] Top shape: 4 512 49 49 (4917248)
I0630 00:43:39.713551 20971 net.cpp:156] Memory required for data: 1354788864
I0630 00:43:39.713552 20971 layer_factory.hpp:77] Creating layer conv4_3c
I0630 00:43:39.713562 20971 net.cpp:91] Creating Layer conv4_3c
I0630 00:43:39.713564 20971 net.cpp:425] conv4_3c <- conv4_2c
I0630 00:43:39.713568 20971 net.cpp:399] conv4_3c -> conv4_3c
I0630 00:43:39.717164 20971 net.cpp:141] Setting up conv4_3c
I0630 00:43:39.717182 20971 net.cpp:148] Top shape: 4 512 49 49 (4917248)
I0630 00:43:39.717185 20971 net.cpp:156] Memory required for data: 1374457856
I0630 00:43:39.717192 20971 layer_factory.hpp:77] Creating layer relu4_3c
I0630 00:43:39.717198 20971 net.cpp:91] Creating Layer relu4_3c
I0630 00:43:39.717201 20971 net.cpp:425] relu4_3c <- conv4_3c
I0630 00:43:39.717208 20971 net.cpp:386] relu4_3c -> conv4_3c (in-place)
I0630 00:43:39.717321 20971 net.cpp:141] Setting up relu4_3c
I0630 00:43:39.717326 20971 net.cpp:148] Top shape: 4 512 49 49 (4917248)
I0630 00:43:39.717329 20971 net.cpp:156] Memory required for data: 1394126848
I0630 00:43:39.717332 20971 layer_factory.hpp:77] Creating layer conv5_1c
I0630 00:43:39.717339 20971 net.cpp:91] Creating Layer conv5_1c
I0630 00:43:39.717341 20971 net.cpp:425] conv5_1c <- conv4_3c
I0630 00:43:39.717344 20971 net.cpp:399] conv5_1c -> conv5_1c
I0630 00:43:39.720410 20971 net.cpp:141] Setting up conv5_1c
I0630 00:43:39.720432 20971 net.cpp:148] Top shape: 4 512 49 49 (4917248)
I0630 00:43:39.720435 20971 net.cpp:156] Memory required for data: 1413795840
I0630 00:43:39.720444 20971 layer_factory.hpp:77] Creating layer relu5_1c
I0630 00:43:39.720453 20971 net.cpp:91] Creating Layer relu5_1c
I0630 00:43:39.720458 20971 net.cpp:425] relu5_1c <- conv5_1c
I0630 00:43:39.720474 20971 net.cpp:386] relu5_1c -> conv5_1c (in-place)
I0630 00:43:39.720808 20971 net.cpp:141] Setting up relu5_1c
I0630 00:43:39.720818 20971 net.cpp:148] Top shape: 4 512 49 49 (4917248)
I0630 00:43:39.720821 20971 net.cpp:156] Memory required for data: 1433464832
I0630 00:43:39.720824 20971 layer_factory.hpp:77] Creating layer conv5_2c
I0630 00:43:39.720835 20971 net.cpp:91] Creating Layer conv5_2c
I0630 00:43:39.720839 20971 net.cpp:425] conv5_2c <- conv5_1c
I0630 00:43:39.720846 20971 net.cpp:399] conv5_2c -> conv5_2c
I0630 00:43:39.724843 20971 net.cpp:141] Setting up conv5_2c
I0630 00:43:39.724865 20971 net.cpp:148] Top shape: 4 512 49 49 (4917248)
I0630 00:43:39.724869 20971 net.cpp:156] Memory required for data: 1453133824
I0630 00:43:39.724879 20971 layer_factory.hpp:77] Creating layer relu5_2c
I0630 00:43:39.724889 20971 net.cpp:91] Creating Layer relu5_2c
I0630 00:43:39.724892 20971 net.cpp:425] relu5_2c <- conv5_2c
I0630 00:43:39.724898 20971 net.cpp:386] relu5_2c -> conv5_2c (in-place)
I0630 00:43:39.725257 20971 net.cpp:141] Setting up relu5_2c
I0630 00:43:39.725266 20971 net.cpp:148] Top shape: 4 512 49 49 (4917248)
I0630 00:43:39.725270 20971 net.cpp:156] Memory required for data: 1472802816
I0630 00:43:39.725273 20971 layer_factory.hpp:77] Creating layer conv5_3c
I0630 00:43:39.725294 20971 net.cpp:91] Creating Layer conv5_3c
I0630 00:43:39.725297 20971 net.cpp:425] conv5_3c <- conv5_2c
I0630 00:43:39.725301 20971 net.cpp:399] conv5_3c -> conv5_3c
I0630 00:43:39.728415 20971 net.cpp:141] Setting up conv5_3c
I0630 00:43:39.728435 20971 net.cpp:148] Top shape: 4 512 73 73 (10913792)
I0630 00:43:39.728437 20971 net.cpp:156] Memory required for data: 1516457984
I0630 00:43:39.728444 20971 layer_factory.hpp:77] Creating layer relu5_3c
I0630 00:43:39.728451 20971 net.cpp:91] Creating Layer relu5_3c
I0630 00:43:39.728456 20971 net.cpp:425] relu5_3c <- conv5_3c
I0630 00:43:39.728459 20971 net.cpp:386] relu5_3c -> conv5_3c (in-place)
I0630 00:43:39.728621 20971 net.cpp:141] Setting up relu5_3c
I0630 00:43:39.728627 20971 net.cpp:148] Top shape: 4 512 73 73 (10913792)
I0630 00:43:39.728629 20971 net.cpp:156] Memory required for data: 1560113152
I0630 00:43:39.728632 20971 layer_factory.hpp:77] Creating layer conv1_1m
I0630 00:43:39.728638 20971 net.cpp:91] Creating Layer conv1_1m
I0630 00:43:39.728641 20971 net.cpp:425] conv1_1m <- masked_im
I0630 00:43:39.728646 20971 net.cpp:399] conv1_1m -> conv1_1m
I0630 00:43:39.729729 20971 net.cpp:141] Setting up conv1_1m
I0630 00:43:39.729750 20971 net.cpp:148] Top shape: 4 64 392 392 (39337984)
I0630 00:43:39.729754 20971 net.cpp:156] Memory required for data: 1717465088
I0630 00:43:39.729760 20971 net.cpp:484] Sharing parameters 'conv1_1_w' owned by layer 'conv1_1c', param index 0
I0630 00:43:39.729766 20971 net.cpp:484] Sharing parameters 'conv1_1_b' owned by layer 'conv1_1c', param index 1
I0630 00:43:39.729776 20971 layer_factory.hpp:77] Creating layer relu1_1m
I0630 00:43:39.729794 20971 net.cpp:91] Creating Layer relu1_1m
I0630 00:43:39.729800 20971 net.cpp:425] relu1_1m <- conv1_1m
I0630 00:43:39.729806 20971 net.cpp:386] relu1_1m -> conv1_1m (in-place)
I0630 00:43:39.730036 20971 net.cpp:141] Setting up relu1_1m
I0630 00:43:39.730044 20971 net.cpp:148] Top shape: 4 64 392 392 (39337984)
I0630 00:43:39.730048 20971 net.cpp:156] Memory required for data: 1874817024
I0630 00:43:39.730051 20971 layer_factory.hpp:77] Creating layer conv1_2m
I0630 00:43:39.730063 20971 net.cpp:91] Creating Layer conv1_2m
I0630 00:43:39.730067 20971 net.cpp:425] conv1_2m <- conv1_1m
I0630 00:43:39.730077 20971 net.cpp:399] conv1_2m -> conv1_2m
I0630 00:43:39.731317 20971 net.cpp:141] Setting up conv1_2m
I0630 00:43:39.731326 20971 net.cpp:148] Top shape: 4 64 392 392 (39337984)
I0630 00:43:39.731330 20971 net.cpp:156] Memory required for data: 2032168960
I0630 00:43:39.731333 20971 net.cpp:484] Sharing parameters 'conv1_2_w' owned by layer 'conv1_2c', param index 0
I0630 00:43:39.731335 20971 net.cpp:484] Sharing parameters 'conv1_2_b' owned by layer 'conv1_2c', param index 1
I0630 00:43:39.731350 20971 layer_factory.hpp:77] Creating layer relu1_2m
I0630 00:43:39.731360 20971 net.cpp:91] Creating Layer relu1_2m
I0630 00:43:39.731364 20971 net.cpp:425] relu1_2m <- conv1_2m
I0630 00:43:39.731366 20971 net.cpp:386] relu1_2m -> conv1_2m (in-place)
I0630 00:43:39.731559 20971 net.cpp:141] Setting up relu1_2m
I0630 00:43:39.731566 20971 net.cpp:148] Top shape: 4 64 392 392 (39337984)
I0630 00:43:39.731569 20971 net.cpp:156] Memory required for data: 2189520896
I0630 00:43:39.731570 20971 layer_factory.hpp:77] Creating layer pool1m
I0630 00:43:39.731580 20971 net.cpp:91] Creating Layer pool1m
I0630 00:43:39.731581 20971 net.cpp:425] pool1m <- conv1_2m
I0630 00:43:39.731585 20971 net.cpp:399] pool1m -> pool1m
I0630 00:43:39.731616 20971 net.cpp:141] Setting up pool1m
I0630 00:43:39.731621 20971 net.cpp:148] Top shape: 4 64 196 196 (9834496)
I0630 00:43:39.731623 20971 net.cpp:156] Memory required for data: 2228858880
I0630 00:43:39.731626 20971 layer_factory.hpp:77] Creating layer conv2_1m
I0630 00:43:39.731632 20971 net.cpp:91] Creating Layer conv2_1m
I0630 00:43:39.731634 20971 net.cpp:425] conv2_1m <- pool1m
I0630 00:43:39.731638 20971 net.cpp:399] conv2_1m -> conv2_1m
I0630 00:43:39.732326 20971 net.cpp:141] Setting up conv2_1m
I0630 00:43:39.732333 20971 net.cpp:148] Top shape: 4 128 196 196 (19668992)
I0630 00:43:39.732336 20971 net.cpp:156] Memory required for data: 2307534848
I0630 00:43:39.732338 20971 net.cpp:484] Sharing parameters 'conv2_1_w' owned by layer 'conv2_1c', param index 0
I0630 00:43:39.732342 20971 net.cpp:484] Sharing parameters 'conv2_1_b' owned by layer 'conv2_1c', param index 1
I0630 00:43:39.732343 20971 layer_factory.hpp:77] Creating layer relu2_1m
I0630 00:43:39.732348 20971 net.cpp:91] Creating Layer relu2_1m
I0630 00:43:39.732350 20971 net.cpp:425] relu2_1m <- conv2_1m
I0630 00:43:39.732353 20971 net.cpp:386] relu2_1m -> conv2_1m (in-place)
I0630 00:43:39.732462 20971 net.cpp:141] Setting up relu2_1m
I0630 00:43:39.732467 20971 net.cpp:148] Top shape: 4 128 196 196 (19668992)
I0630 00:43:39.732470 20971 net.cpp:156] Memory required for data: 2386210816
I0630 00:43:39.732471 20971 layer_factory.hpp:77] Creating layer conv2_2m
I0630 00:43:39.732478 20971 net.cpp:91] Creating Layer conv2_2m
I0630 00:43:39.732481 20971 net.cpp:425] conv2_2m <- conv2_1m
I0630 00:43:39.732486 20971 net.cpp:399] conv2_2m -> conv2_2m
I0630 00:43:39.733974 20971 net.cpp:141] Setting up conv2_2m
I0630 00:43:39.734033 20971 net.cpp:148] Top shape: 4 128 196 196 (19668992)
I0630 00:43:39.734042 20971 net.cpp:156] Memory required for data: 2464886784
I0630 00:43:39.734066 20971 net.cpp:484] Sharing parameters 'conv2_2_w' owned by layer 'conv2_2c', param index 0
I0630 00:43:39.734076 20971 net.cpp:484] Sharing parameters 'conv2_2_b' owned by layer 'conv2_2c', param index 1
I0630 00:43:39.734082 20971 layer_factory.hpp:77] Creating layer relu2_2m
I0630 00:43:39.734100 20971 net.cpp:91] Creating Layer relu2_2m
I0630 00:43:39.734107 20971 net.cpp:425] relu2_2m <- conv2_2m
I0630 00:43:39.734122 20971 net.cpp:386] relu2_2m -> conv2_2m (in-place)
I0630 00:43:39.734354 20971 net.cpp:141] Setting up relu2_2m
I0630 00:43:39.734365 20971 net.cpp:148] Top shape: 4 128 196 196 (19668992)
I0630 00:43:39.734369 20971 net.cpp:156] Memory required for data: 2543562752
I0630 00:43:39.734378 20971 layer_factory.hpp:77] Creating layer pool2m
I0630 00:43:39.734395 20971 net.cpp:91] Creating Layer pool2m
I0630 00:43:39.734401 20971 net.cpp:425] pool2m <- conv2_2m
I0630 00:43:39.734407 20971 net.cpp:399] pool2m -> pool2m
I0630 00:43:39.734508 20971 net.cpp:141] Setting up pool2m
I0630 00:43:39.734518 20971 net.cpp:148] Top shape: 4 128 98 98 (4917248)
I0630 00:43:39.734521 20971 net.cpp:156] Memory required for data: 2563231744
I0630 00:43:39.734524 20971 layer_factory.hpp:77] Creating layer conv3_1m
I0630 00:43:39.734539 20971 net.cpp:91] Creating Layer conv3_1m
I0630 00:43:39.734544 20971 net.cpp:425] conv3_1m <- pool2m
I0630 00:43:39.734551 20971 net.cpp:399] conv3_1m -> conv3_1m
I0630 00:43:39.736706 20971 net.cpp:141] Setting up conv3_1m
I0630 00:43:39.736745 20971 net.cpp:148] Top shape: 4 256 98 98 (9834496)
I0630 00:43:39.736749 20971 net.cpp:156] Memory required for data: 2602569728
I0630 00:43:39.736757 20971 net.cpp:484] Sharing parameters 'conv3_1_w' owned by layer 'conv3_1c', param index 0
I0630 00:43:39.736763 20971 net.cpp:484] Sharing parameters 'conv3_1_b' owned by layer 'conv3_1c', param index 1
I0630 00:43:39.736764 20971 layer_factory.hpp:77] Creating layer relu3_1m
I0630 00:43:39.736793 20971 net.cpp:91] Creating Layer relu3_1m
I0630 00:43:39.736799 20971 net.cpp:425] relu3_1m <- conv3_1m
I0630 00:43:39.736804 20971 net.cpp:386] relu3_1m -> conv3_1m (in-place)
I0630 00:43:39.737388 20971 net.cpp:141] Setting up relu3_1m
I0630 00:43:39.737416 20971 net.cpp:148] Top shape: 4 256 98 98 (9834496)
I0630 00:43:39.737421 20971 net.cpp:156] Memory required for data: 2641907712
I0630 00:43:39.737426 20971 layer_factory.hpp:77] Creating layer conv3_2m
I0630 00:43:39.737444 20971 net.cpp:91] Creating Layer conv3_2m
I0630 00:43:39.737452 20971 net.cpp:425] conv3_2m <- conv3_1m
I0630 00:43:39.737464 20971 net.cpp:399] conv3_2m -> conv3_2m
I0630 00:43:39.740454 20971 net.cpp:141] Setting up conv3_2m
I0630 00:43:39.740485 20971 net.cpp:148] Top shape: 4 256 98 98 (9834496)
I0630 00:43:39.740488 20971 net.cpp:156] Memory required for data: 2681245696
I0630 00:43:39.740494 20971 net.cpp:484] Sharing parameters 'conv3_2_w' owned by layer 'conv3_2c', param index 0
I0630 00:43:39.740497 20971 net.cpp:484] Sharing parameters 'conv3_2_b' owned by layer 'conv3_2c', param index 1
I0630 00:43:39.740504 20971 layer_factory.hpp:77] Creating layer relu3_2m
I0630 00:43:39.740515 20971 net.cpp:91] Creating Layer relu3_2m
I0630 00:43:39.740520 20971 net.cpp:425] relu3_2m <- conv3_2m
I0630 00:43:39.740526 20971 net.cpp:386] relu3_2m -> conv3_2m (in-place)
I0630 00:43:39.740649 20971 net.cpp:141] Setting up relu3_2m
I0630 00:43:39.740656 20971 net.cpp:148] Top shape: 4 256 98 98 (9834496)
I0630 00:43:39.740658 20971 net.cpp:156] Memory required for data: 2720583680
I0630 00:43:39.740660 20971 layer_factory.hpp:77] Creating layer conv3_3m
I0630 00:43:39.740670 20971 net.cpp:91] Creating Layer conv3_3m
I0630 00:43:39.740674 20971 net.cpp:425] conv3_3m <- conv3_2m
I0630 00:43:39.740679 20971 net.cpp:399] conv3_3m -> conv3_3m
I0630 00:43:39.742524 20971 net.cpp:141] Setting up conv3_3m
I0630 00:43:39.742538 20971 net.cpp:148] Top shape: 4 256 98 98 (9834496)
I0630 00:43:39.742542 20971 net.cpp:156] Memory required for data: 2759921664
I0630 00:43:39.742545 20971 net.cpp:484] Sharing parameters 'conv3_3_w' owned by layer 'conv3_3c', param index 0
I0630 00:43:39.742549 20971 net.cpp:484] Sharing parameters 'conv3_3_b' owned by layer 'conv3_3c', param index 1
I0630 00:43:39.742552 20971 layer_factory.hpp:77] Creating layer relu3_3m
I0630 00:43:39.742558 20971 net.cpp:91] Creating Layer relu3_3m
I0630 00:43:39.742560 20971 net.cpp:425] relu3_3m <- conv3_3m
I0630 00:43:39.742565 20971 net.cpp:386] relu3_3m -> conv3_3m (in-place)
I0630 00:43:39.742687 20971 net.cpp:141] Setting up relu3_3m
I0630 00:43:39.742698 20971 net.cpp:148] Top shape: 4 256 98 98 (9834496)
I0630 00:43:39.742702 20971 net.cpp:156] Memory required for data: 2799259648
I0630 00:43:39.742703 20971 layer_factory.hpp:77] Creating layer pool3m
I0630 00:43:39.742713 20971 net.cpp:91] Creating Layer pool3m
I0630 00:43:39.742717 20971 net.cpp:425] pool3m <- conv3_3m
I0630 00:43:39.742720 20971 net.cpp:399] pool3m -> pool3m
I0630 00:43:39.742761 20971 net.cpp:141] Setting up pool3m
I0630 00:43:39.742766 20971 net.cpp:148] Top shape: 4 256 49 49 (2458624)
I0630 00:43:39.742769 20971 net.cpp:156] Memory required for data: 2809094144
I0630 00:43:39.742774 20971 layer_factory.hpp:77] Creating layer conv4_1m
I0630 00:43:39.742784 20971 net.cpp:91] Creating Layer conv4_1m
I0630 00:43:39.742785 20971 net.cpp:425] conv4_1m <- pool3m
I0630 00:43:39.742789 20971 net.cpp:399] conv4_1m -> conv4_1m
I0630 00:43:39.745565 20971 net.cpp:141] Setting up conv4_1m
I0630 00:43:39.745595 20971 net.cpp:148] Top shape: 4 512 49 49 (4917248)
I0630 00:43:39.745599 20971 net.cpp:156] Memory required for data: 2828763136
I0630 00:43:39.745602 20971 net.cpp:484] Sharing parameters 'conv4_1_w' owned by layer 'conv4_1c', param index 0
I0630 00:43:39.745605 20971 net.cpp:484] Sharing parameters 'conv4_1_b' owned by layer 'conv4_1c', param index 1
I0630 00:43:39.745609 20971 layer_factory.hpp:77] Creating layer relu4_1m
I0630 00:43:39.745614 20971 net.cpp:91] Creating Layer relu4_1m
I0630 00:43:39.745616 20971 net.cpp:425] relu4_1m <- conv4_1m
I0630 00:43:39.745625 20971 net.cpp:386] relu4_1m -> conv4_1m (in-place)
I0630 00:43:39.745823 20971 net.cpp:141] Setting up relu4_1m
I0630 00:43:39.745831 20971 net.cpp:148] Top shape: 4 512 49 49 (4917248)
I0630 00:43:39.745833 20971 net.cpp:156] Memory required for data: 2848432128
I0630 00:43:39.745836 20971 layer_factory.hpp:77] Creating layer conv4_2m
I0630 00:43:39.745841 20971 net.cpp:91] Creating Layer conv4_2m
I0630 00:43:39.745846 20971 net.cpp:425] conv4_2m <- conv4_1m
I0630 00:43:39.745849 20971 net.cpp:399] conv4_2m -> conv4_2m
I0630 00:43:39.753244 20971 net.cpp:141] Setting up conv4_2m
I0630 00:43:39.753387 20971 net.cpp:148] Top shape: 4 512 49 49 (4917248)
I0630 00:43:39.753412 20971 net.cpp:156] Memory required for data: 2868101120
I0630 00:43:39.753446 20971 net.cpp:484] Sharing parameters 'conv4_2_w' owned by layer 'conv4_2c', param index 0
I0630 00:43:39.753465 20971 net.cpp:484] Sharing parameters 'conv4_2_b' owned by layer 'conv4_2c', param index 1
I0630 00:43:39.753492 20971 layer_factory.hpp:77] Creating layer relu4_2m
I0630 00:43:39.753525 20971 net.cpp:91] Creating Layer relu4_2m
I0630 00:43:39.753543 20971 net.cpp:425] relu4_2m <- conv4_2m
I0630 00:43:39.753563 20971 net.cpp:386] relu4_2m -> conv4_2m (in-place)
I0630 00:43:39.753844 20971 net.cpp:141] Setting up relu4_2m
I0630 00:43:39.753872 20971 net.cpp:148] Top shape: 4 512 49 49 (4917248)
I0630 00:43:39.753887 20971 net.cpp:156] Memory required for data: 2887770112
I0630 00:43:39.753906 20971 layer_factory.hpp:77] Creating layer conv4_3m
I0630 00:43:39.753936 20971 net.cpp:91] Creating Layer conv4_3m
I0630 00:43:39.753957 20971 net.cpp:425] conv4_3m <- conv4_2m
I0630 00:43:39.753975 20971 net.cpp:399] conv4_3m -> conv4_3m
I0630 00:43:39.759976 20971 net.cpp:141] Setting up conv4_3m
I0630 00:43:39.759994 20971 net.cpp:148] Top shape: 4 512 49 49 (4917248)
I0630 00:43:39.759997 20971 net.cpp:156] Memory required for data: 2907439104
I0630 00:43:39.760002 20971 net.cpp:484] Sharing parameters 'conv4_3_w' owned by layer 'conv4_3c', param index 0
I0630 00:43:39.760005 20971 net.cpp:484] Sharing parameters 'conv4_3_b' owned by layer 'conv4_3c', param index 1
I0630 00:43:39.760007 20971 layer_factory.hpp:77] Creating layer relu4_3m
I0630 00:43:39.760015 20971 net.cpp:91] Creating Layer relu4_3m
I0630 00:43:39.760017 20971 net.cpp:425] relu4_3m <- conv4_3m
I0630 00:43:39.760022 20971 net.cpp:386] relu4_3m -> conv4_3m (in-place)
I0630 00:43:39.760222 20971 net.cpp:141] Setting up relu4_3m
I0630 00:43:39.760231 20971 net.cpp:148] Top shape: 4 512 49 49 (4917248)
I0630 00:43:39.760234 20971 net.cpp:156] Memory required for data: 2927108096
I0630 00:43:39.760236 20971 layer_factory.hpp:77] Creating layer conv5_1m
I0630 00:43:39.760244 20971 net.cpp:91] Creating Layer conv5_1m
I0630 00:43:39.760248 20971 net.cpp:425] conv5_1m <- conv4_3m
I0630 00:43:39.760252 20971 net.cpp:399] conv5_1m -> conv5_1m
I0630 00:43:39.767164 20971 net.cpp:141] Setting up conv5_1m
I0630 00:43:39.767201 20971 net.cpp:148] Top shape: 4 512 49 49 (4917248)
I0630 00:43:39.767206 20971 net.cpp:156] Memory required for data: 2946777088
I0630 00:43:39.767215 20971 net.cpp:484] Sharing parameters 'conv5_1_w' owned by layer 'conv5_1c', param index 0
I0630 00:43:39.767221 20971 net.cpp:484] Sharing parameters 'conv5_1_b' owned by layer 'conv5_1c', param index 1
I0630 00:43:39.767226 20971 layer_factory.hpp:77] Creating layer relu5_1m
I0630 00:43:39.767241 20971 net.cpp:91] Creating Layer relu5_1m
I0630 00:43:39.767247 20971 net.cpp:425] relu5_1m <- conv5_1m
I0630 00:43:39.767277 20971 net.cpp:386] relu5_1m -> conv5_1m (in-place)
I0630 00:43:39.767829 20971 net.cpp:141] Setting up relu5_1m
I0630 00:43:39.767855 20971 net.cpp:148] Top shape: 4 512 49 49 (4917248)
I0630 00:43:39.767859 20971 net.cpp:156] Memory required for data: 2966446080
I0630 00:43:39.767868 20971 layer_factory.hpp:77] Creating layer conv5_2m
I0630 00:43:39.767882 20971 net.cpp:91] Creating Layer conv5_2m
I0630 00:43:39.767889 20971 net.cpp:425] conv5_2m <- conv5_1m
I0630 00:43:39.767899 20971 net.cpp:399] conv5_2m -> conv5_2m
I0630 00:43:39.775903 20971 net.cpp:141] Setting up conv5_2m
I0630 00:43:39.775944 20971 net.cpp:148] Top shape: 4 512 49 49 (4917248)
I0630 00:43:39.775949 20971 net.cpp:156] Memory required for data: 2986115072
I0630 00:43:39.775956 20971 net.cpp:484] Sharing parameters 'conv5_2_w' owned by layer 'conv5_2c', param index 0
I0630 00:43:39.775961 20971 net.cpp:484] Sharing parameters 'conv5_2_b' owned by layer 'conv5_2c', param index 1
I0630 00:43:39.775966 20971 layer_factory.hpp:77] Creating layer relu5_2m
I0630 00:43:39.775979 20971 net.cpp:91] Creating Layer relu5_2m
I0630 00:43:39.775985 20971 net.cpp:425] relu5_2m <- conv5_2m
I0630 00:43:39.775991 20971 net.cpp:386] relu5_2m -> conv5_2m (in-place)
I0630 00:43:39.776252 20971 net.cpp:141] Setting up relu5_2m
I0630 00:43:39.776262 20971 net.cpp:148] Top shape: 4 512 49 49 (4917248)
I0630 00:43:39.776265 20971 net.cpp:156] Memory required for data: 3005784064
I0630 00:43:39.776268 20971 layer_factory.hpp:77] Creating layer conv5_3m
I0630 00:43:39.776283 20971 net.cpp:91] Creating Layer conv5_3m
I0630 00:43:39.776288 20971 net.cpp:425] conv5_3m <- conv5_2m
I0630 00:43:39.776293 20971 net.cpp:399] conv5_3m -> conv5_3m
I0630 00:43:39.779695 20971 net.cpp:141] Setting up conv5_3m
I0630 00:43:39.779726 20971 net.cpp:148] Top shape: 4 512 73 73 (10913792)
I0630 00:43:39.779729 20971 net.cpp:156] Memory required for data: 3049439232
I0630 00:43:39.779736 20971 net.cpp:484] Sharing parameters 'conv5_3_w' owned by layer 'conv5_3c', param index 0
I0630 00:43:39.779739 20971 net.cpp:484] Sharing parameters 'conv5_3_b' owned by layer 'conv5_3c', param index 1
I0630 00:43:39.779742 20971 layer_factory.hpp:77] Creating layer relu5_3m
I0630 00:43:39.779752 20971 net.cpp:91] Creating Layer relu5_3m
I0630 00:43:39.779755 20971 net.cpp:425] relu5_3m <- conv5_3m
I0630 00:43:39.779760 20971 net.cpp:386] relu5_3m -> conv5_3m (in-place)
I0630 00:43:39.780201 20971 net.cpp:141] Setting up relu5_3m
I0630 00:43:39.780210 20971 net.cpp:148] Top shape: 4 512 73 73 (10913792)
I0630 00:43:39.780213 20971 net.cpp:156] Memory required for data: 3093094400
I0630 00:43:39.780218 20971 layer_factory.hpp:77] Creating layer conv1_1n
I0630 00:43:39.780227 20971 net.cpp:91] Creating Layer conv1_1n
I0630 00:43:39.780230 20971 net.cpp:425] conv1_1n <- next_im_cur_im_2_split_0
I0630 00:43:39.780236 20971 net.cpp:399] conv1_1n -> conv1_1n
I0630 00:43:39.781863 20971 net.cpp:141] Setting up conv1_1n
I0630 00:43:39.781896 20971 net.cpp:148] Top shape: 4 64 584 584 (87310336)
I0630 00:43:39.781899 20971 net.cpp:156] Memory required for data: 3442335744
I0630 00:43:39.781908 20971 net.cpp:484] Sharing parameters 'conv1_1_w' owned by layer 'conv1_1c', param index 0
I0630 00:43:39.781914 20971 net.cpp:484] Sharing parameters 'conv1_1_b' owned by layer 'conv1_1c', param index 1
I0630 00:43:39.781919 20971 layer_factory.hpp:77] Creating layer relu1_1n
I0630 00:43:39.781939 20971 net.cpp:91] Creating Layer relu1_1n
I0630 00:43:39.781955 20971 net.cpp:425] relu1_1n <- conv1_1n
I0630 00:43:39.781963 20971 net.cpp:386] relu1_1n -> conv1_1n (in-place)
I0630 00:43:39.782253 20971 net.cpp:141] Setting up relu1_1n
I0630 00:43:39.782263 20971 net.cpp:148] Top shape: 4 64 584 584 (87310336)
I0630 00:43:39.782265 20971 net.cpp:156] Memory required for data: 3791577088
I0630 00:43:39.782269 20971 layer_factory.hpp:77] Creating layer conv1_2n
I0630 00:43:39.782282 20971 net.cpp:91] Creating Layer conv1_2n
I0630 00:43:39.782286 20971 net.cpp:425] conv1_2n <- conv1_1n
I0630 00:43:39.782515 20971 net.cpp:399] conv1_2n -> conv1_2n
I0630 00:43:39.785460 20971 net.cpp:141] Setting up conv1_2n
I0630 00:43:39.785509 20971 net.cpp:148] Top shape: 4 64 584 584 (87310336)
I0630 00:43:39.785514 20971 net.cpp:156] Memory required for data: 4140818432
I0630 00:43:39.785538 20971 net.cpp:484] Sharing parameters 'conv1_2_w' owned by layer 'conv1_2c', param index 0
I0630 00:43:39.785547 20971 net.cpp:484] Sharing parameters 'conv1_2_b' owned by layer 'conv1_2c', param index 1
I0630 00:43:39.785552 20971 layer_factory.hpp:77] Creating layer relu1_2n
I0630 00:43:39.785578 20971 net.cpp:91] Creating Layer relu1_2n
I0630 00:43:39.785583 20971 net.cpp:425] relu1_2n <- conv1_2n
I0630 00:43:39.785594 20971 net.cpp:386] relu1_2n -> conv1_2n (in-place)
I0630 00:43:39.786133 20971 net.cpp:141] Setting up relu1_2n
I0630 00:43:39.786161 20971 net.cpp:148] Top shape: 4 64 584 584 (87310336)
I0630 00:43:39.786165 20971 net.cpp:156] Memory required for data: 4490059776
I0630 00:43:39.786178 20971 layer_factory.hpp:77] Creating layer pool1n
I0630 00:43:39.786221 20971 net.cpp:91] Creating Layer pool1n
I0630 00:43:39.786231 20971 net.cpp:425] pool1n <- conv1_2n
I0630 00:43:39.786242 20971 net.cpp:399] pool1n -> pool1n
I0630 00:43:39.786380 20971 net.cpp:141] Setting up pool1n
I0630 00:43:39.786386 20971 net.cpp:148] Top shape: 4 64 292 292 (21827584)
I0630 00:43:39.786389 20971 net.cpp:156] Memory required for data: 4577370112
I0630 00:43:39.786393 20971 layer_factory.hpp:77] Creating layer conv2_1n
I0630 00:43:39.786409 20971 net.cpp:91] Creating Layer conv2_1n
I0630 00:43:39.786414 20971 net.cpp:425] conv2_1n <- pool1n
I0630 00:43:39.786422 20971 net.cpp:399] conv2_1n -> conv2_1n
I0630 00:43:39.787765 20971 net.cpp:141] Setting up conv2_1n
I0630 00:43:39.787781 20971 net.cpp:148] Top shape: 4 128 292 292 (43655168)
I0630 00:43:39.787783 20971 net.cpp:156] Memory required for data: 4751990784
I0630 00:43:39.787791 20971 net.cpp:484] Sharing parameters 'conv2_1_w' owned by layer 'conv2_1c', param index 0
I0630 00:43:39.787796 20971 net.cpp:484] Sharing parameters 'conv2_1_b' owned by layer 'conv2_1c', param index 1
I0630 00:43:39.787801 20971 layer_factory.hpp:77] Creating layer relu2_1n
I0630 00:43:39.787809 20971 net.cpp:91] Creating Layer relu2_1n
I0630 00:43:39.787812 20971 net.cpp:425] relu2_1n <- conv2_1n
I0630 00:43:39.787817 20971 net.cpp:386] relu2_1n -> conv2_1n (in-place)
I0630 00:43:39.788156 20971 net.cpp:141] Setting up relu2_1n
I0630 00:43:39.788166 20971 net.cpp:148] Top shape: 4 128 292 292 (43655168)
I0630 00:43:39.788170 20971 net.cpp:156] Memory required for data: 4926611456
I0630 00:43:39.788177 20971 layer_factory.hpp:77] Creating layer conv2_2n
I0630 00:43:39.788192 20971 net.cpp:91] Creating Layer conv2_2n
I0630 00:43:39.788197 20971 net.cpp:425] conv2_2n <- conv2_1n
I0630 00:43:39.788204 20971 net.cpp:399] conv2_2n -> conv2_2n
I0630 00:43:39.790071 20971 net.cpp:141] Setting up conv2_2n
I0630 00:43:39.790112 20971 net.cpp:148] Top shape: 4 128 292 292 (43655168)
I0630 00:43:39.790117 20971 net.cpp:156] Memory required for data: 5101232128
I0630 00:43:39.790125 20971 net.cpp:484] Sharing parameters 'conv2_2_w' owned by layer 'conv2_2c', param index 0
I0630 00:43:39.790132 20971 net.cpp:484] Sharing parameters 'conv2_2_b' owned by layer 'conv2_2c', param index 1
I0630 00:43:39.790138 20971 layer_factory.hpp:77] Creating layer relu2_2n
I0630 00:43:39.790149 20971 net.cpp:91] Creating Layer relu2_2n
I0630 00:43:39.790156 20971 net.cpp:425] relu2_2n <- conv2_2n
I0630 00:43:39.790187 20971 net.cpp:386] relu2_2n -> conv2_2n (in-place)
I0630 00:43:39.790347 20971 net.cpp:141] Setting up relu2_2n
I0630 00:43:39.790357 20971 net.cpp:148] Top shape: 4 128 292 292 (43655168)
I0630 00:43:39.790362 20971 net.cpp:156] Memory required for data: 5275852800
I0630 00:43:39.790367 20971 layer_factory.hpp:77] Creating layer pool2n
I0630 00:43:39.790377 20971 net.cpp:91] Creating Layer pool2n
I0630 00:43:39.790380 20971 net.cpp:425] pool2n <- conv2_2n
I0630 00:43:39.790386 20971 net.cpp:399] pool2n -> pool2n
I0630 00:43:39.790490 20971 net.cpp:141] Setting up pool2n
I0630 00:43:39.790498 20971 net.cpp:148] Top shape: 4 128 146 146 (10913792)
I0630 00:43:39.790500 20971 net.cpp:156] Memory required for data: 5319507968
I0630 00:43:39.790503 20971 layer_factory.hpp:77] Creating layer conv3_1n
I0630 00:43:39.790516 20971 net.cpp:91] Creating Layer conv3_1n
I0630 00:43:39.790520 20971 net.cpp:425] conv3_1n <- pool2n
I0630 00:43:39.790527 20971 net.cpp:399] conv3_1n -> conv3_1n
I0630 00:43:39.792655 20971 net.cpp:141] Setting up conv3_1n
I0630 00:43:39.792698 20971 net.cpp:148] Top shape: 4 256 146 146 (21827584)
I0630 00:43:39.792702 20971 net.cpp:156] Memory required for data: 5406818304
I0630 00:43:39.792711 20971 net.cpp:484] Sharing parameters 'conv3_1_w' owned by layer 'conv3_1c', param index 0
I0630 00:43:39.792719 20971 net.cpp:484] Sharing parameters 'conv3_1_b' owned by layer 'conv3_1c', param index 1
I0630 00:43:39.792726 20971 layer_factory.hpp:77] Creating layer relu3_1n
I0630 00:43:39.792743 20971 net.cpp:91] Creating Layer relu3_1n
I0630 00:43:39.792750 20971 net.cpp:425] relu3_1n <- conv3_1n
I0630 00:43:39.792767 20971 net.cpp:386] relu3_1n -> conv3_1n (in-place)
I0630 00:43:39.793097 20971 net.cpp:141] Setting up relu3_1n
I0630 00:43:39.793107 20971 net.cpp:148] Top shape: 4 256 146 146 (21827584)
I0630 00:43:39.793110 20971 net.cpp:156] Memory required for data: 5494128640
I0630 00:43:39.793118 20971 layer_factory.hpp:77] Creating layer conv3_2n
I0630 00:43:39.793136 20971 net.cpp:91] Creating Layer conv3_2n
I0630 00:43:39.793140 20971 net.cpp:425] conv3_2n <- conv3_1n
I0630 00:43:39.793148 20971 net.cpp:399] conv3_2n -> conv3_2n
I0630 00:43:39.796093 20971 net.cpp:141] Setting up conv3_2n
I0630 00:43:39.796140 20971 net.cpp:148] Top shape: 4 256 146 146 (21827584)
I0630 00:43:39.796145 20971 net.cpp:156] Memory required for data: 5581438976
I0630 00:43:39.796154 20971 net.cpp:484] Sharing parameters 'conv3_2_w' owned by layer 'conv3_2c', param index 0
I0630 00:43:39.796160 20971 net.cpp:484] Sharing parameters 'conv3_2_b' owned by layer 'conv3_2c', param index 1
I0630 00:43:39.796165 20971 layer_factory.hpp:77] Creating layer relu3_2n
I0630 00:43:39.796178 20971 net.cpp:91] Creating Layer relu3_2n
I0630 00:43:39.796183 20971 net.cpp:425] relu3_2n <- conv3_2n
I0630 00:43:39.796193 20971 net.cpp:386] relu3_2n -> conv3_2n (in-place)
I0630 00:43:39.796541 20971 net.cpp:141] Setting up relu3_2n
I0630 00:43:39.796555 20971 net.cpp:148] Top shape: 4 256 146 146 (21827584)
I0630 00:43:39.796558 20971 net.cpp:156] Memory required for data: 5668749312
I0630 00:43:39.796562 20971 layer_factory.hpp:77] Creating layer conv3_3n
I0630 00:43:39.796577 20971 net.cpp:91] Creating Layer conv3_3n
I0630 00:43:39.796582 20971 net.cpp:425] conv3_3n <- conv3_2n
I0630 00:43:39.796596 20971 net.cpp:399] conv3_3n -> conv3_3n
I0630 00:43:39.799873 20971 net.cpp:141] Setting up conv3_3n
I0630 00:43:39.799923 20971 net.cpp:148] Top shape: 4 256 146 146 (21827584)
I0630 00:43:39.799928 20971 net.cpp:156] Memory required for data: 5756059648
I0630 00:43:39.799962 20971 net.cpp:484] Sharing parameters 'conv3_3_w' owned by layer 'conv3_3c', param index 0
I0630 00:43:39.799969 20971 net.cpp:484] Sharing parameters 'conv3_3_b' owned by layer 'conv3_3c', param index 1
I0630 00:43:39.799978 20971 layer_factory.hpp:77] Creating layer relu3_3n
I0630 00:43:39.799988 20971 net.cpp:91] Creating Layer relu3_3n
I0630 00:43:39.799993 20971 net.cpp:425] relu3_3n <- conv3_3n
I0630 00:43:39.800001 20971 net.cpp:386] relu3_3n -> conv3_3n (in-place)
I0630 00:43:39.800200 20971 net.cpp:141] Setting up relu3_3n
I0630 00:43:39.800215 20971 net.cpp:148] Top shape: 4 256 146 146 (21827584)
I0630 00:43:39.800217 20971 net.cpp:156] Memory required for data: 5843369984
I0630 00:43:39.800222 20971 layer_factory.hpp:77] Creating layer pool3n
I0630 00:43:39.800235 20971 net.cpp:91] Creating Layer pool3n
I0630 00:43:39.800238 20971 net.cpp:425] pool3n <- conv3_3n
I0630 00:43:39.800245 20971 net.cpp:399] pool3n -> pool3n
I0630 00:43:39.800307 20971 net.cpp:141] Setting up pool3n
I0630 00:43:39.800331 20971 net.cpp:148] Top shape: 4 256 73 73 (5456896)
I0630 00:43:39.800336 20971 net.cpp:156] Memory required for data: 5865197568
I0630 00:43:39.800339 20971 layer_factory.hpp:77] Creating layer conv4_1n
I0630 00:43:39.800350 20971 net.cpp:91] Creating Layer conv4_1n
I0630 00:43:39.800354 20971 net.cpp:425] conv4_1n <- pool3n
I0630 00:43:39.800361 20971 net.cpp:399] conv4_1n -> conv4_1n
I0630 00:43:39.805564 20971 net.cpp:141] Setting up conv4_1n
I0630 00:43:39.805641 20971 net.cpp:148] Top shape: 4 512 73 73 (10913792)
I0630 00:43:39.805649 20971 net.cpp:156] Memory required for data: 5908852736
I0630 00:43:39.805662 20971 net.cpp:484] Sharing parameters 'conv4_1_w' owned by layer 'conv4_1c', param index 0
I0630 00:43:39.805672 20971 net.cpp:484] Sharing parameters 'conv4_1_b' owned by layer 'conv4_1c', param index 1
I0630 00:43:39.805680 20971 layer_factory.hpp:77] Creating layer relu4_1n
I0630 00:43:39.805701 20971 net.cpp:91] Creating Layer relu4_1n
I0630 00:43:39.805711 20971 net.cpp:425] relu4_1n <- conv4_1n
I0630 00:43:39.805724 20971 net.cpp:386] relu4_1n -> conv4_1n (in-place)
I0630 00:43:39.806159 20971 net.cpp:141] Setting up relu4_1n
I0630 00:43:39.806172 20971 net.cpp:148] Top shape: 4 512 73 73 (10913792)
I0630 00:43:39.806175 20971 net.cpp:156] Memory required for data: 5952507904
I0630 00:43:39.806185 20971 layer_factory.hpp:77] Creating layer conv4_2n
I0630 00:43:39.806202 20971 net.cpp:91] Creating Layer conv4_2n
I0630 00:43:39.806206 20971 net.cpp:425] conv4_2n <- conv4_1n
I0630 00:43:39.806213 20971 net.cpp:399] conv4_2n -> conv4_2n
I0630 00:43:39.817153 20971 net.cpp:141] Setting up conv4_2n
I0630 00:43:39.817200 20971 net.cpp:148] Top shape: 4 512 73 73 (10913792)
I0630 00:43:39.817205 20971 net.cpp:156] Memory required for data: 5996163072
I0630 00:43:39.817216 20971 net.cpp:484] Sharing parameters 'conv4_2_w' owned by layer 'conv4_2c', param index 0
I0630 00:43:39.817224 20971 net.cpp:484] Sharing parameters 'conv4_2_b' owned by layer 'conv4_2c', param index 1
I0630 00:43:39.817229 20971 layer_factory.hpp:77] Creating layer relu4_2n
I0630 00:43:39.817250 20971 net.cpp:91] Creating Layer relu4_2n
I0630 00:43:39.817257 20971 net.cpp:425] relu4_2n <- conv4_2n
I0630 00:43:39.817268 20971 net.cpp:386] relu4_2n -> conv4_2n (in-place)
I0630 00:43:39.817788 20971 net.cpp:141] Setting up relu4_2n
I0630 00:43:39.817806 20971 net.cpp:148] Top shape: 4 512 73 73 (10913792)
I0630 00:43:39.817811 20971 net.cpp:156] Memory required for data: 6039818240
I0630 00:43:39.817816 20971 layer_factory.hpp:77] Creating layer conv4_3n
I0630 00:43:39.817831 20971 net.cpp:91] Creating Layer conv4_3n
I0630 00:43:39.817836 20971 net.cpp:425] conv4_3n <- conv4_2n
I0630 00:43:39.817844 20971 net.cpp:399] conv4_3n -> conv4_3n
/usr/local/lib/python2.7/dist-packages/skimage/transform/_geometric.py:1312: UserWarning: Bi-quadratic interpolation behavior has changed due to a bug in the implementation of scikit-image. The new version now serves as a wrapper around SciPy's interpolation functions, which itself is not verified to be a correct implementation. Until skimage's implementation is fixed, we recommend to use bi-linear or bi-cubic interpolation instead.
  warnings.warn("Bi-quadratic interpolation behavior has changed due "
I0630 00:43:39.829352 20971 net.cpp:141] Setting up conv4_3n
I0630 00:43:39.829398 20971 net.cpp:148] Top shape: 4 512 73 73 (10913792)
I0630 00:43:39.829402 20971 net.cpp:156] Memory required for data: 6083473408
I0630 00:43:39.829421 20971 net.cpp:484] Sharing parameters 'conv4_3_w' owned by layer 'conv4_3c', param index 0
I0630 00:43:39.829427 20971 net.cpp:484] Sharing parameters 'conv4_3_b' owned by layer 'conv4_3c', param index 1
I0630 00:43:39.829432 20971 layer_factory.hpp:77] Creating layer relu4_3n
I0630 00:43:39.829445 20971 net.cpp:91] Creating Layer relu4_3n
I0630 00:43:39.829452 20971 net.cpp:425] relu4_3n <- conv4_3n
I0630 00:43:39.829463 20971 net.cpp:386] relu4_3n -> conv4_3n (in-place)
I0630 00:43:39.829663 20971 net.cpp:141] Setting up relu4_3n
I0630 00:43:39.829686 20971 net.cpp:148] Top shape: 4 512 73 73 (10913792)
I0630 00:43:39.829690 20971 net.cpp:156] Memory required for data: 6127128576
I0630 00:43:39.829699 20971 layer_factory.hpp:77] Creating layer conv5_1n
I0630 00:43:39.829715 20971 net.cpp:91] Creating Layer conv5_1n
I0630 00:43:39.829723 20971 net.cpp:425] conv5_1n <- conv4_3n
I0630 00:43:39.829738 20971 net.cpp:399] conv5_1n -> conv5_1n
I0630 00:43:39.834739 20971 net.cpp:141] Setting up conv5_1n
I0630 00:43:39.834758 20971 net.cpp:148] Top shape: 4 512 73 73 (10913792)
I0630 00:43:39.834779 20971 net.cpp:156] Memory required for data: 6170783744
I0630 00:43:39.834786 20971 net.cpp:484] Sharing parameters 'conv5_1_w' owned by layer 'conv5_1c', param index 0
I0630 00:43:39.834790 20971 net.cpp:484] Sharing parameters 'conv5_1_b' owned by layer 'conv5_1c', param index 1
I0630 00:43:39.834794 20971 layer_factory.hpp:77] Creating layer relu5_1n
I0630 00:43:39.834801 20971 net.cpp:91] Creating Layer relu5_1n
I0630 00:43:39.834805 20971 net.cpp:425] relu5_1n <- conv5_1n
I0630 00:43:39.834810 20971 net.cpp:386] relu5_1n -> conv5_1n (in-place)
I0630 00:43:39.835108 20971 net.cpp:141] Setting up relu5_1n
I0630 00:43:39.835114 20971 net.cpp:148] Top shape: 4 512 73 73 (10913792)
I0630 00:43:39.835116 20971 net.cpp:156] Memory required for data: 6214438912
I0630 00:43:39.835119 20971 layer_factory.hpp:77] Creating layer conv5_2n
I0630 00:43:39.835125 20971 net.cpp:91] Creating Layer conv5_2n
I0630 00:43:39.835129 20971 net.cpp:425] conv5_2n <- conv5_1n
I0630 00:43:39.835132 20971 net.cpp:399] conv5_2n -> conv5_2n
I0630 00:43:39.837976 20971 net.cpp:141] Setting up conv5_2n
I0630 00:43:39.838006 20971 net.cpp:148] Top shape: 4 512 73 73 (10913792)
I0630 00:43:39.838011 20971 net.cpp:156] Memory required for data: 6258094080
I0630 00:43:39.838016 20971 net.cpp:484] Sharing parameters 'conv5_2_w' owned by layer 'conv5_2c', param index 0
I0630 00:43:39.838021 20971 net.cpp:484] Sharing parameters 'conv5_2_b' owned by layer 'conv5_2c', param index 1
I0630 00:43:39.838022 20971 layer_factory.hpp:77] Creating layer relu5_2n
I0630 00:43:39.838032 20971 net.cpp:91] Creating Layer relu5_2n
I0630 00:43:39.838035 20971 net.cpp:425] relu5_2n <- conv5_2n
I0630 00:43:39.838039 20971 net.cpp:386] relu5_2n -> conv5_2n (in-place)
I0630 00:43:39.838220 20971 net.cpp:141] Setting up relu5_2n
I0630 00:43:39.838227 20971 net.cpp:148] Top shape: 4 512 73 73 (10913792)
I0630 00:43:39.838228 20971 net.cpp:156] Memory required for data: 6301749248
I0630 00:43:39.838232 20971 layer_factory.hpp:77] Creating layer conv5_3n
I0630 00:43:39.838240 20971 net.cpp:91] Creating Layer conv5_3n
I0630 00:43:39.838243 20971 net.cpp:425] conv5_3n <- conv5_2n
I0630 00:43:39.838248 20971 net.cpp:399] conv5_3n -> conv5_3n
I0630 00:43:39.841778 20971 net.cpp:141] Setting up conv5_3n
I0630 00:43:39.841809 20971 net.cpp:148] Top shape: 4 512 73 73 (10913792)
I0630 00:43:39.841811 20971 net.cpp:156] Memory required for data: 6345404416
I0630 00:43:39.841815 20971 net.cpp:484] Sharing parameters 'conv5_3_w' owned by layer 'conv5_3c', param index 0
I0630 00:43:39.841819 20971 net.cpp:484] Sharing parameters 'conv5_3_b' owned by layer 'conv5_3c', param index 1
I0630 00:43:39.841821 20971 layer_factory.hpp:77] Creating layer relu5_3n
I0630 00:43:39.841827 20971 net.cpp:91] Creating Layer relu5_3n
I0630 00:43:39.841830 20971 net.cpp:425] relu5_3n <- conv5_3n
I0630 00:43:39.841836 20971 net.cpp:386] relu5_3n -> conv5_3n (in-place)
I0630 00:43:39.842129 20971 net.cpp:141] Setting up relu5_3n
I0630 00:43:39.842136 20971 net.cpp:148] Top shape: 4 512 73 73 (10913792)
I0630 00:43:39.842139 20971 net.cpp:156] Memory required for data: 6389059584
I0630 00:43:39.842141 20971 layer_factory.hpp:77] Creating layer concat1
I0630 00:43:39.842147 20971 net.cpp:91] Creating Layer concat1
I0630 00:43:39.842152 20971 net.cpp:425] concat1 <- conv5_3c
I0630 00:43:39.842155 20971 net.cpp:425] concat1 <- conv5_3m
I0630 00:43:39.842159 20971 net.cpp:425] concat1 <- conv5_3n
I0630 00:43:39.842161 20971 net.cpp:399] concat1 -> concat1
I0630 00:43:39.842186 20971 net.cpp:141] Setting up concat1
I0630 00:43:39.842191 20971 net.cpp:148] Top shape: 4 1536 73 73 (32741376)
I0630 00:43:39.842193 20971 net.cpp:156] Memory required for data: 6520025088
I0630 00:43:39.842195 20971 layer_factory.hpp:77] Creating layer fc6
I0630 00:43:39.842201 20971 net.cpp:91] Creating Layer fc6
I0630 00:43:39.842206 20971 net.cpp:425] fc6 <- concat1
I0630 00:43:39.842211 20971 net.cpp:399] fc6 -> fc6
I0630 00:43:39.970705 20971 net.cpp:141] Setting up fc6
I0630 00:43:39.970798 20971 net.cpp:148] Top shape: 4 1024 49 49 (9834496)
I0630 00:43:39.970804 20971 net.cpp:156] Memory required for data: 6559363072
I0630 00:43:39.970826 20971 layer_factory.hpp:77] Creating layer relu6
I0630 00:43:39.970859 20971 net.cpp:91] Creating Layer relu6
I0630 00:43:39.970866 20971 net.cpp:425] relu6 <- fc6
I0630 00:43:39.970876 20971 net.cpp:386] relu6 -> fc6 (in-place)
I0630 00:43:39.971215 20971 net.cpp:141] Setting up relu6
I0630 00:43:39.971228 20971 net.cpp:148] Top shape: 4 1024 49 49 (9834496)
I0630 00:43:39.971231 20971 net.cpp:156] Memory required for data: 6598701056
I0630 00:43:39.971235 20971 layer_factory.hpp:77] Creating layer drop6
I0630 00:43:39.971253 20971 net.cpp:91] Creating Layer drop6
I0630 00:43:39.971257 20971 net.cpp:425] drop6 <- fc6
I0630 00:43:39.971261 20971 net.cpp:386] drop6 -> fc6 (in-place)
I0630 00:43:39.971314 20971 net.cpp:141] Setting up drop6
I0630 00:43:39.971323 20971 net.cpp:148] Top shape: 4 1024 49 49 (9834496)
I0630 00:43:39.971326 20971 net.cpp:156] Memory required for data: 6638039040
I0630 00:43:39.971330 20971 layer_factory.hpp:77] Creating layer fc7
I0630 00:43:39.971350 20971 net.cpp:91] Creating Layer fc7
I0630 00:43:39.971357 20971 net.cpp:425] fc7 <- fc6
I0630 00:43:39.971371 20971 net.cpp:399] fc7 -> fc7
I0630 00:43:39.975172 20971 net.cpp:141] Setting up fc7
I0630 00:43:39.975211 20971 net.cpp:148] Top shape: 4 1024 49 49 (9834496)
I0630 00:43:39.975215 20971 net.cpp:156] Memory required for data: 6677377024
I0630 00:43:39.975224 20971 layer_factory.hpp:77] Creating layer relu7
I0630 00:43:39.975244 20971 net.cpp:91] Creating Layer relu7
I0630 00:43:39.975249 20971 net.cpp:425] relu7 <- fc7
I0630 00:43:39.975255 20971 net.cpp:386] relu7 -> fc7 (in-place)
I0630 00:43:39.975543 20971 net.cpp:141] Setting up relu7
I0630 00:43:39.975553 20971 net.cpp:148] Top shape: 4 1024 49 49 (9834496)
I0630 00:43:39.975556 20971 net.cpp:156] Memory required for data: 6716715008
I0630 00:43:39.975561 20971 layer_factory.hpp:77] Creating layer drop7
I0630 00:43:39.975569 20971 net.cpp:91] Creating Layer drop7
I0630 00:43:39.975571 20971 net.cpp:425] drop7 <- fc7
I0630 00:43:39.975575 20971 net.cpp:386] drop7 -> fc7 (in-place)
I0630 00:43:39.975603 20971 net.cpp:141] Setting up drop7
I0630 00:43:39.975607 20971 net.cpp:148] Top shape: 4 1024 49 49 (9834496)
I0630 00:43:39.975610 20971 net.cpp:156] Memory required for data: 6756052992
I0630 00:43:39.975613 20971 layer_factory.hpp:77] Creating layer fc8
I0630 00:43:39.975622 20971 net.cpp:91] Creating Layer fc8
I0630 00:43:39.975625 20971 net.cpp:425] fc8 <- fc7
I0630 00:43:39.975630 20971 net.cpp:399] fc8 -> fc8
I0630 00:43:39.976682 20971 net.cpp:141] Setting up fc8
I0630 00:43:39.976692 20971 net.cpp:148] Top shape: 4 2 49 49 (19208)
I0630 00:43:39.976696 20971 net.cpp:156] Memory required for data: 6756129824
I0630 00:43:39.976701 20971 layer_factory.hpp:77] Creating layer upscore
I0630 00:43:39.976716 20971 net.cpp:91] Creating Layer upscore
I0630 00:43:39.976722 20971 net.cpp:425] upscore <- fc8
I0630 00:43:39.976727 20971 net.cpp:399] upscore -> upscore
I0630 00:43:39.976982 20971 net.cpp:141] Setting up upscore
I0630 00:43:39.976990 20971 net.cpp:148] Top shape: 4 2 400 400 (1280000)
I0630 00:43:39.976994 20971 net.cpp:156] Memory required for data: 6761249824
I0630 00:43:39.977000 20971 layer_factory.hpp:77] Creating layer score
I0630 00:43:39.977007 20971 net.cpp:91] Creating Layer score
I0630 00:43:39.977015 20971 net.cpp:425] score <- upscore
I0630 00:43:39.977020 20971 net.cpp:425] score <- next_im_cur_im_2_split_1
I0630 00:43:39.977025 20971 net.cpp:399] score -> score
I0630 00:43:39.977056 20971 net.cpp:141] Setting up score
I0630 00:43:39.977059 20971 net.cpp:148] Top shape: 4 2 384 384 (1179648)
I0630 00:43:39.977062 20971 net.cpp:156] Memory required for data: 6765968416
I0630 00:43:39.977066 20971 layer_factory.hpp:77] Creating layer score_score_0_split
I0630 00:43:39.977071 20971 net.cpp:91] Creating Layer score_score_0_split
I0630 00:43:39.977073 20971 net.cpp:425] score_score_0_split <- score
I0630 00:43:39.977090 20971 net.cpp:399] score_score_0_split -> score_score_0_split_0
I0630 00:43:39.977097 20971 net.cpp:399] score_score_0_split -> score_score_0_split_1
I0630 00:43:39.977133 20971 net.cpp:141] Setting up score_score_0_split
I0630 00:43:39.977139 20971 net.cpp:148] Top shape: 4 2 384 384 (1179648)
I0630 00:43:39.977144 20971 net.cpp:148] Top shape: 4 2 384 384 (1179648)
I0630 00:43:39.977147 20971 net.cpp:156] Memory required for data: 6775405600
I0630 00:43:39.977152 20971 layer_factory.hpp:77] Creating layer loss
I0630 00:43:39.977160 20971 net.cpp:91] Creating Layer loss
I0630 00:43:39.977164 20971 net.cpp:425] loss <- score_score_0_split_0
I0630 00:43:39.977166 20971 net.cpp:425] loss <- label
I0630 00:43:39.977171 20971 net.cpp:399] loss -> loss
I0630 00:43:39.977185 20971 layer_factory.hpp:77] Creating layer loss
I0630 00:43:39.979003 20971 net.cpp:141] Setting up loss
I0630 00:43:39.979023 20971 net.cpp:148] Top shape: (1)
I0630 00:43:39.979027 20971 net.cpp:151]     with loss weight 1
I0630 00:43:39.979060 20971 net.cpp:156] Memory required for data: 6775405604
I0630 00:43:39.979065 20971 layer_factory.hpp:77] Creating layer clinet_top
I0630 00:43:39.979651 20971 net.cpp:91] Creating Layer clinet_top
I0630 00:43:39.979661 20971 net.cpp:425] clinet_top <- score_score_0_split_1
I0630 00:43:39.979668 20971 net.cpp:399] clinet_top -> clinet_top
I0630 00:43:39.980036 20971 net.cpp:141] Setting up clinet_top
I0630 00:43:39.980044 20971 net.cpp:148] Top shape: 1 (1)
I0630 00:43:39.980047 20971 net.cpp:156] Memory required for data: 6775405608
I0630 00:43:39.980051 20971 net.cpp:219] clinet_top does not need backward computation.
I0630 00:43:39.980053 20971 net.cpp:217] loss needs backward computation.
I0630 00:43:39.980057 20971 net.cpp:217] score_score_0_split needs backward computation.
I0630 00:43:39.980062 20971 net.cpp:217] score needs backward computation.
…
